{"Layers": [{
  "Name": "Reformatting CopyNode for Input Tensor 0 to /model.0/conv/Conv + PWN(PWN(/model.0/act/Sigmoid), /model.0/act/Mul)",
  "LayerType": "Reformat",
  "Inputs": [
  {
    "Name": "images",
    "Location": "Device",
    "Dimensions": [1,3,640,640],
    "Format/Datatype": "Row major linear FP32"
  }],
  "Outputs": [
  {
    "Name": "Reformatted Input Tensor 0 to /model.0/conv/Conv + PWN(PWN(/model.0/act/Sigmoid), /model.0/act/Mul)",
    "Location": "Device",
    "Dimensions": [1,3,640,640],
    "Format/Datatype": "Thirty-two wide channel vectorized row major Int8 format"
  }],
  "ParameterType": "Reformat",
  "Origin": "REFORMAT",
  "TacticValue": "0x00000000000003ea",
  "StreamId": 0,
  "Metadata": ""
},{
  "Name": "/model.0/conv/Conv + PWN(PWN(/model.0/act/Sigmoid), /model.0/act/Mul)",
  "LayerType": "CaskConvolution",
  "Inputs": [
  {
    "Name": "Reformatted Input Tensor 0 to /model.0/conv/Conv + PWN(PWN(/model.0/act/Sigmoid), /model.0/act/Mul)",
    "Location": "Device",
    "Dimensions": [1,3,640,640],
    "Format/Datatype": "Thirty-two wide channel vectorized row major Int8 format"
  }],
  "Outputs": [
  {
    "Name": "/model.0/act/Mul_output_0",
    "Location": "Device",
    "Dimensions": [1,80,320,320],
    "Format/Datatype": "Thirty-two wide channel vectorized row major Int8 format"
  }],
  "ParameterType": "Convolution",
  "Kernel": [3,3],
  "PaddingMode": "kEXPLICIT_ROUND_DOWN",
  "PrePadding": [1,1],
  "PostPadding": [1,1],
  "Stride": [2,2],
  "Dilation": [1,1],
  "OutMaps": 80,
  "Groups": 1,
  "Weights": {"Type": "Int8", "Count": 2160},
  "Bias": {"Type": "Float", "Count": 80},
  "HasSparseWeights": 0,
  "HasDynamicFilter": 0,
  "HasDynamicBias": 0,
  "HasResidual": 0,
  "ConvXAsActInputIdx": -1,
  "BiasAsActInputIdx": -1,
  "ResAsActInputIdx": -1,
  "Activation": "SWISH",
  "HasBias": 1,
  "HasReLU": 0,
  "TacticName": "sm80_xmma_fprop_implicit_gemm_interleaved_i8i8_i8i32_f32_nchw_vect_c_32kcrs_vect_c_32_nchw_vect_c_32_tilesize256x128x64_stage4_warpsize4x2x1_g1_tensor16x8x32_t1r3s3_swish",
  "TacticValue": "0xafad4a0ea10d6400",
  "StreamId": 0,
  "Metadata": "[ONNX Layer: /model.0/conv/Conv]\u001e[ONNX Layer: /model.0/act/Sigmoid]\u001e[ONNX Layer: /model.0/act/Mul]"
},{
  "Name": "/model.1/conv/Conv + PWN(PWN(/model.1/act/Sigmoid), /model.1/act/Mul)",
  "LayerType": "CaskConvolution",
  "Inputs": [
  {
    "Name": "/model.0/act/Mul_output_0",
    "Location": "Device",
    "Dimensions": [1,80,320,320],
    "Format/Datatype": "Thirty-two wide channel vectorized row major Int8 format"
  }],
  "Outputs": [
  {
    "Name": "/model.1/act/Mul_output_0",
    "Location": "Device",
    "Dimensions": [1,160,160,160],
    "Format/Datatype": "Thirty-two wide channel vectorized row major Int8 format"
  }],
  "ParameterType": "Convolution",
  "Kernel": [3,3],
  "PaddingMode": "kEXPLICIT_ROUND_DOWN",
  "PrePadding": [1,1],
  "PostPadding": [1,1],
  "Stride": [2,2],
  "Dilation": [1,1],
  "OutMaps": 160,
  "Groups": 1,
  "Weights": {"Type": "Int8", "Count": 115200},
  "Bias": {"Type": "Float", "Count": 160},
  "HasSparseWeights": 0,
  "HasDynamicFilter": 0,
  "HasDynamicBias": 0,
  "HasResidual": 0,
  "ConvXAsActInputIdx": -1,
  "BiasAsActInputIdx": -1,
  "ResAsActInputIdx": -1,
  "Activation": "SWISH",
  "HasBias": 1,
  "HasReLU": 0,
  "TacticName": "sm80_xmma_fprop_implicit_gemm_interleaved_i8i8_i8i32_f32_nchw_vect_c_32kcrs_vect_c_32_nchw_vect_c_32_tilesize64x64x64_stage6_warpsize2x2x1_g1_tensor16x8x32_t1r3s3_swish",
  "TacticValue": "0xc722efd60bc6ea84",
  "StreamId": 0,
  "Metadata": "[ONNX Layer: /model.1/conv/Conv]\u001e[ONNX Layer: /model.1/act/Sigmoid]\u001e[ONNX Layer: /model.1/act/Mul]"
},{
  "Name": "/model.2/cv1/conv/Conv + PWN(PWN(/model.2/cv1/act/Sigmoid), /model.2/cv1/act/Mul)",
  "LayerType": "CaskConvolution",
  "Inputs": [
  {
    "Name": "/model.1/act/Mul_output_0",
    "Location": "Device",
    "Dimensions": [1,160,160,160],
    "Format/Datatype": "Thirty-two wide channel vectorized row major Int8 format"
  }],
  "Outputs": [
  {
    "Name": "/model.2/cv1/act/Mul_output_0",
    "Location": "Device",
    "Dimensions": [1,160,160,160],
    "Format/Datatype": "Thirty-two wide channel vectorized row major Int8 format"
  }],
  "ParameterType": "Convolution",
  "Kernel": [1,1],
  "PaddingMode": "kEXPLICIT_ROUND_DOWN",
  "PrePadding": [0,0],
  "PostPadding": [0,0],
  "Stride": [1,1],
  "Dilation": [1,1],
  "OutMaps": 160,
  "Groups": 1,
  "Weights": {"Type": "Int8", "Count": 25600},
  "Bias": {"Type": "Float", "Count": 160},
  "HasSparseWeights": 0,
  "HasDynamicFilter": 0,
  "HasDynamicBias": 0,
  "HasResidual": 0,
  "ConvXAsActInputIdx": -1,
  "BiasAsActInputIdx": -1,
  "ResAsActInputIdx": -1,
  "Activation": "SWISH",
  "HasBias": 1,
  "HasReLU": 0,
  "TacticName": "sm80_xmma_fprop_implicit_gemm_interleaved_i8i8_i8i32_f32_nchw_vect_c_32kcrs_vect_c_32_nchw_vect_c_32_tilesize64x64x64_stage6_warpsize2x2x1_g1_tensor16x8x32_simple_t1r1s1_swish",
  "TacticValue": "0x2eba0b6a8ec55fa3",
  "StreamId": 0,
  "Metadata": "[ONNX Layer: /model.2/cv1/conv/Conv]\u001e[ONNX Layer: /model.2/cv1/act/Sigmoid]\u001e[ONNX Layer: /model.2/cv1/act/Mul]"
},{
  "Name": "/model.2/Split_10",
  "LayerType": "Reformat",
  "Inputs": [
  {
    "Name": "/model.2/cv1/act/Mul_output_0",
    "Location": "Device",
    "Dimensions": [1,80,160,160],
    "Format/Datatype": "Thirty-two wide channel vectorized row major Int8 format"
  }],
  "Outputs": [
  {
    "Name": "/model.2/Split_output_1",
    "Location": "Device",
    "Dimensions": [1,80,160,160],
    "Format/Datatype": "Thirty-two wide channel vectorized row major Int8 format"
  }],
  "ParameterType": "Reformat",
  "Origin": "SLICE",
  "TacticValue": "0x00000000000003ea",
  "StreamId": 0,
  "Metadata": "[ONNX Layer: /model.2/Split]"
},{
  "Name": "/model.2/m.0/cv1/conv/Conv + PWN(PWN(/model.2/m.0/cv1/act/Sigmoid), /model.2/m.0/cv1/act/Mul)",
  "LayerType": "CaskConvolution",
  "Inputs": [
  {
    "Name": "/model.2/Split_output_1",
    "Location": "Device",
    "Dimensions": [1,80,160,160],
    "Format/Datatype": "Thirty-two wide channel vectorized row major Int8 format"
  }],
  "Outputs": [
  {
    "Name": "/model.2/m.0/cv1/act/Mul_output_0",
    "Location": "Device",
    "Dimensions": [1,80,160,160],
    "Format/Datatype": "Thirty-two wide channel vectorized row major Int8 format"
  }],
  "ParameterType": "Convolution",
  "Kernel": [3,3],
  "PaddingMode": "kEXPLICIT_ROUND_DOWN",
  "PrePadding": [1,1],
  "PostPadding": [1,1],
  "Stride": [1,1],
  "Dilation": [1,1],
  "OutMaps": 80,
  "Groups": 1,
  "Weights": {"Type": "Int8", "Count": 57600},
  "Bias": {"Type": "Float", "Count": 80},
  "HasSparseWeights": 0,
  "HasDynamicFilter": 0,
  "HasDynamicBias": 0,
  "HasResidual": 0,
  "ConvXAsActInputIdx": -1,
  "BiasAsActInputIdx": -1,
  "ResAsActInputIdx": -1,
  "Activation": "SWISH",
  "HasBias": 1,
  "HasReLU": 0,
  "TacticName": "sm80_xmma_fprop_implicit_gemm_interleaved_i8i8_i8i32_f32_nchw_vect_c_32kcrs_vect_c_32_nchw_vect_c_32_tilesize256x32x64_stage4_warpsize4x1x1_g1_tensor16x8x32_t1r3s3_swish",
  "TacticValue": "0xbd976ef514eaa406",
  "StreamId": 0,
  "Metadata": "[ONNX Layer: /model.2/m.0/cv1/conv/Conv]\u001e[ONNX Layer: /model.2/m.0/cv1/act/Sigmoid]\u001e[ONNX Layer: /model.2/m.0/cv1/act/Mul]"
},{
  "Name": "/model.2/m.0/cv2/conv/Conv + PWN(PWN(PWN(/model.2/m.0/cv2/act/Sigmoid), /model.2/m.0/cv2/act/Mul), /model.2/m.0/Add)",
  "LayerType": "CaskConvolution",
  "Inputs": [
  {
    "Name": "/model.2/m.0/cv1/act/Mul_output_0",
    "Location": "Device",
    "Dimensions": [1,80,160,160],
    "Format/Datatype": "Thirty-two wide channel vectorized row major Int8 format"
  },
  {
    "Name": "/model.2/Split_output_1",
    "Location": "Device",
    "Dimensions": [1,80,160,160],
    "Format/Datatype": "Thirty-two wide channel vectorized row major Int8 format"
  }],
  "Outputs": [
  {
    "Name": "/model.2/m.0/Add_output_0",
    "Location": "Device",
    "Dimensions": [1,80,160,160],
    "Format/Datatype": "Thirty-two wide channel vectorized row major Int8 format"
  }],
  "ParameterType": "Convolution",
  "Kernel": [3,3],
  "PaddingMode": "kEXPLICIT_ROUND_DOWN",
  "PrePadding": [1,1],
  "PostPadding": [1,1],
  "Stride": [1,1],
  "Dilation": [1,1],
  "OutMaps": 80,
  "Groups": 1,
  "Weights": {"Type": "Int8", "Count": 57600},
  "Bias": {"Type": "Float", "Count": 80},
  "HasSparseWeights": 0,
  "HasDynamicFilter": 0,
  "HasDynamicBias": 0,
  "HasResidual": 0,
  "ConvXAsActInputIdx": -1,
  "BiasAsActInputIdx": -1,
  "ResAsActInputIdx": -1,
  "Activation": "GENERIC",
  "ParameterSubType": "PointWiseExpression",
  "NbPointWiseExpressionInputArgs": 2,
  "PointWiseExpressionInputArgs": ["arg0", "arg1"],
  "NbPointWiseExpressionOutputVars": 1,
  "PointWiseExpressionOutputVars": ["var5"],
  "NbPointWiseExpressionParams": 0,
  "PointWiseExpressionParams": [],
  "NbPointWiseExpressionLiterals": 5,
  "PointWiseExpressionLiterals": ["0.000000e+00f", "1.000000e+00f", "0.000000e+00f", "0.000000e+00f", "5.000000e-01f"],
  "NbPointWiseExpressionOperations": 6,
  "PointWiseExpressionOperations": ["auto const var0 = pwgen::iMul(literal4, arg0);", "auto const var1 = pwgen::iTanh(var0);", "auto const var2 = pwgen::iMul(var1, literal4);", "auto const var3 = pwgen::iPlus(var2, literal4);", "auto const var4 = pwgen::iMul(arg0, var3);", "auto const var5 = pwgen::iPlus(arg1, var4);"],
  "HasBias": 1,
  "HasReLU": 0,
  "TacticName": "sm80_xmma_fprop_implicit_gemm_interleaved_i8i8_i8i32_f32_nchw_vect_c_32kcrs_vect_c_32_nchw_vect_c_32_tilesize128x96x64_stage3_warpsize4x1x1_g1_tensor16x8x32_t1r3s3",
  "TacticValue": "0xd277f13d771603ee",
  "StreamId": 0,
  "Metadata": "[ONNX Layer: /model.2/m.0/cv2/conv/Conv]\u001e[ONNX Layer: /model.2/m.0/cv2/act/Sigmoid]\u001e[ONNX Layer: /model.2/m.0/cv2/act/Mul]\u001e[ONNX Layer: /model.2/m.0/Add]"
},{
  "Name": "/model.2/m.1/cv1/conv/Conv + PWN(PWN(/model.2/m.1/cv1/act/Sigmoid), /model.2/m.1/cv1/act/Mul)",
  "LayerType": "CaskConvolution",
  "Inputs": [
  {
    "Name": "/model.2/m.0/Add_output_0",
    "Location": "Device",
    "Dimensions": [1,80,160,160],
    "Format/Datatype": "Thirty-two wide channel vectorized row major Int8 format"
  }],
  "Outputs": [
  {
    "Name": "/model.2/m.1/cv1/act/Mul_output_0",
    "Location": "Device",
    "Dimensions": [1,80,160,160],
    "Format/Datatype": "Thirty-two wide channel vectorized row major Int8 format"
  }],
  "ParameterType": "Convolution",
  "Kernel": [3,3],
  "PaddingMode": "kEXPLICIT_ROUND_DOWN",
  "PrePadding": [1,1],
  "PostPadding": [1,1],
  "Stride": [1,1],
  "Dilation": [1,1],
  "OutMaps": 80,
  "Groups": 1,
  "Weights": {"Type": "Int8", "Count": 57600},
  "Bias": {"Type": "Float", "Count": 80},
  "HasSparseWeights": 0,
  "HasDynamicFilter": 0,
  "HasDynamicBias": 0,
  "HasResidual": 0,
  "ConvXAsActInputIdx": -1,
  "BiasAsActInputIdx": -1,
  "ResAsActInputIdx": -1,
  "Activation": "SWISH",
  "HasBias": 1,
  "HasReLU": 0,
  "TacticName": "sm80_xmma_fprop_implicit_gemm_interleaved_i8i8_i8i32_f32_nchw_vect_c_32kcrs_vect_c_32_nchw_vect_c_32_tilesize256x32x64_stage4_warpsize4x1x1_g1_tensor16x8x32_t1r3s3_swish",
  "TacticValue": "0xbd976ef514eaa406",
  "StreamId": 0,
  "Metadata": "[ONNX Layer: /model.2/m.1/cv1/conv/Conv]\u001e[ONNX Layer: /model.2/m.1/cv1/act/Sigmoid]\u001e[ONNX Layer: /model.2/m.1/cv1/act/Mul]"
},{
  "Name": "/model.2/m.1/cv2/conv/Conv + PWN(PWN(PWN(/model.2/m.1/cv2/act/Sigmoid), /model.2/m.1/cv2/act/Mul), /model.2/m.1/Add)",
  "LayerType": "CaskConvolution",
  "Inputs": [
  {
    "Name": "/model.2/m.1/cv1/act/Mul_output_0",
    "Location": "Device",
    "Dimensions": [1,80,160,160],
    "Format/Datatype": "Thirty-two wide channel vectorized row major Int8 format"
  },
  {
    "Name": "/model.2/m.0/Add_output_0",
    "Location": "Device",
    "Dimensions": [1,80,160,160],
    "Format/Datatype": "Thirty-two wide channel vectorized row major Int8 format"
  }],
  "Outputs": [
  {
    "Name": "/model.2/m.1/Add_output_0",
    "Location": "Device",
    "Dimensions": [1,80,160,160],
    "Format/Datatype": "Thirty-two wide channel vectorized row major Int8 format"
  }],
  "ParameterType": "Convolution",
  "Kernel": [3,3],
  "PaddingMode": "kEXPLICIT_ROUND_DOWN",
  "PrePadding": [1,1],
  "PostPadding": [1,1],
  "Stride": [1,1],
  "Dilation": [1,1],
  "OutMaps": 80,
  "Groups": 1,
  "Weights": {"Type": "Int8", "Count": 57600},
  "Bias": {"Type": "Float", "Count": 80},
  "HasSparseWeights": 0,
  "HasDynamicFilter": 0,
  "HasDynamicBias": 0,
  "HasResidual": 0,
  "ConvXAsActInputIdx": -1,
  "BiasAsActInputIdx": -1,
  "ResAsActInputIdx": -1,
  "Activation": "GENERIC",
  "ParameterSubType": "PointWiseExpression",
  "NbPointWiseExpressionInputArgs": 2,
  "PointWiseExpressionInputArgs": ["arg0", "arg1"],
  "NbPointWiseExpressionOutputVars": 1,
  "PointWiseExpressionOutputVars": ["var5"],
  "NbPointWiseExpressionParams": 0,
  "PointWiseExpressionParams": [],
  "NbPointWiseExpressionLiterals": 5,
  "PointWiseExpressionLiterals": ["0.000000e+00f", "1.000000e+00f", "0.000000e+00f", "0.000000e+00f", "5.000000e-01f"],
  "NbPointWiseExpressionOperations": 6,
  "PointWiseExpressionOperations": ["auto const var0 = pwgen::iMul(literal4, arg0);", "auto const var1 = pwgen::iTanh(var0);", "auto const var2 = pwgen::iMul(var1, literal4);", "auto const var3 = pwgen::iPlus(var2, literal4);", "auto const var4 = pwgen::iMul(arg0, var3);", "auto const var5 = pwgen::iPlus(arg1, var4);"],
  "HasBias": 1,
  "HasReLU": 0,
  "TacticName": "sm80_xmma_fprop_implicit_gemm_interleaved_i8i8_i8i32_f32_nchw_vect_c_32kcrs_vect_c_32_nchw_vect_c_32_tilesize128x96x64_stage3_warpsize4x1x1_g1_tensor16x8x32_t1r3s3",
  "TacticValue": "0xd277f13d771603ee",
  "StreamId": 0,
  "Metadata": "[ONNX Layer: /model.2/m.1/cv2/conv/Conv]\u001e[ONNX Layer: /model.2/m.1/cv2/act/Sigmoid]\u001e[ONNX Layer: /model.2/m.1/cv2/act/Mul]\u001e[ONNX Layer: /model.2/m.1/Add]"
},{
  "Name": "/model.2/m.2/cv1/conv/Conv + PWN(PWN(/model.2/m.2/cv1/act/Sigmoid), /model.2/m.2/cv1/act/Mul)",
  "LayerType": "CaskConvolution",
  "Inputs": [
  {
    "Name": "/model.2/m.1/Add_output_0",
    "Location": "Device",
    "Dimensions": [1,80,160,160],
    "Format/Datatype": "Thirty-two wide channel vectorized row major Int8 format"
  }],
  "Outputs": [
  {
    "Name": "/model.2/m.2/cv1/act/Mul_output_0",
    "Location": "Device",
    "Dimensions": [1,80,160,160],
    "Format/Datatype": "Thirty-two wide channel vectorized row major Int8 format"
  }],
  "ParameterType": "Convolution",
  "Kernel": [3,3],
  "PaddingMode": "kEXPLICIT_ROUND_DOWN",
  "PrePadding": [1,1],
  "PostPadding": [1,1],
  "Stride": [1,1],
  "Dilation": [1,1],
  "OutMaps": 80,
  "Groups": 1,
  "Weights": {"Type": "Int8", "Count": 57600},
  "Bias": {"Type": "Float", "Count": 80},
  "HasSparseWeights": 0,
  "HasDynamicFilter": 0,
  "HasDynamicBias": 0,
  "HasResidual": 0,
  "ConvXAsActInputIdx": -1,
  "BiasAsActInputIdx": -1,
  "ResAsActInputIdx": -1,
  "Activation": "SWISH",
  "HasBias": 1,
  "HasReLU": 0,
  "TacticName": "sm80_xmma_fprop_implicit_gemm_interleaved_i8i8_i8i32_f32_nchw_vect_c_32kcrs_vect_c_32_nchw_vect_c_32_tilesize256x32x64_stage4_warpsize4x1x1_g1_tensor16x8x32_t1r3s3_swish",
  "TacticValue": "0xbd976ef514eaa406",
  "StreamId": 0,
  "Metadata": "[ONNX Layer: /model.2/m.2/cv1/conv/Conv]\u001e[ONNX Layer: /model.2/m.2/cv1/act/Sigmoid]\u001e[ONNX Layer: /model.2/m.2/cv1/act/Mul]"
},{
  "Name": "/model.2/m.2/cv2/conv/Conv + PWN(PWN(PWN(/model.2/m.2/cv2/act/Sigmoid), /model.2/m.2/cv2/act/Mul), /model.2/m.2/Add)",
  "LayerType": "CaskConvolution",
  "Inputs": [
  {
    "Name": "/model.2/m.2/cv1/act/Mul_output_0",
    "Location": "Device",
    "Dimensions": [1,80,160,160],
    "Format/Datatype": "Thirty-two wide channel vectorized row major Int8 format"
  },
  {
    "Name": "/model.2/m.1/Add_output_0",
    "Location": "Device",
    "Dimensions": [1,80,160,160],
    "Format/Datatype": "Thirty-two wide channel vectorized row major Int8 format"
  }],
  "Outputs": [
  {
    "Name": "/model.2/m.2/Add_output_0",
    "Location": "Device",
    "Dimensions": [1,80,160,160],
    "Format/Datatype": "Thirty-two wide channel vectorized row major Int8 format"
  }],
  "ParameterType": "Convolution",
  "Kernel": [3,3],
  "PaddingMode": "kEXPLICIT_ROUND_DOWN",
  "PrePadding": [1,1],
  "PostPadding": [1,1],
  "Stride": [1,1],
  "Dilation": [1,1],
  "OutMaps": 80,
  "Groups": 1,
  "Weights": {"Type": "Int8", "Count": 57600},
  "Bias": {"Type": "Float", "Count": 80},
  "HasSparseWeights": 0,
  "HasDynamicFilter": 0,
  "HasDynamicBias": 0,
  "HasResidual": 0,
  "ConvXAsActInputIdx": -1,
  "BiasAsActInputIdx": -1,
  "ResAsActInputIdx": -1,
  "Activation": "GENERIC",
  "ParameterSubType": "PointWiseExpression",
  "NbPointWiseExpressionInputArgs": 2,
  "PointWiseExpressionInputArgs": ["arg0", "arg1"],
  "NbPointWiseExpressionOutputVars": 1,
  "PointWiseExpressionOutputVars": ["var5"],
  "NbPointWiseExpressionParams": 0,
  "PointWiseExpressionParams": [],
  "NbPointWiseExpressionLiterals": 5,
  "PointWiseExpressionLiterals": ["0.000000e+00f", "1.000000e+00f", "0.000000e+00f", "0.000000e+00f", "5.000000e-01f"],
  "NbPointWiseExpressionOperations": 6,
  "PointWiseExpressionOperations": ["auto const var0 = pwgen::iMul(literal4, arg0);", "auto const var1 = pwgen::iTanh(var0);", "auto const var2 = pwgen::iMul(var1, literal4);", "auto const var3 = pwgen::iPlus(var2, literal4);", "auto const var4 = pwgen::iMul(arg0, var3);", "auto const var5 = pwgen::iPlus(arg1, var4);"],
  "HasBias": 1,
  "HasReLU": 0,
  "TacticName": "sm80_xmma_fprop_implicit_gemm_interleaved_i8i8_i8i32_f32_nchw_vect_c_32kcrs_vect_c_32_nchw_vect_c_32_tilesize128x96x64_stage3_warpsize4x1x1_g1_tensor16x8x32_t1r3s3",
  "TacticValue": "0xd277f13d771603ee",
  "StreamId": 0,
  "Metadata": "[ONNX Layer: /model.2/m.2/cv2/conv/Conv]\u001e[ONNX Layer: /model.2/m.2/cv2/act/Sigmoid]\u001e[ONNX Layer: /model.2/m.2/cv2/act/Mul]\u001e[ONNX Layer: /model.2/m.2/Add]"
},{
  "Name": "/model.2/Split_output_0 copy",
  "LayerType": "Reformat",
  "Inputs": [
  {
    "Name": "/model.2/cv1/act/Mul_output_0",
    "Location": "Device",
    "Dimensions": [1,80,160,160],
    "Format/Datatype": "Thirty-two wide channel vectorized row major Int8 format"
  }],
  "Outputs": [
  {
    "Name": "/model.2/Concat_output_0",
    "Location": "Device",
    "Dimensions": [1,80,160,160],
    "Format/Datatype": "Thirty-two wide channel vectorized row major Int8 format"
  }],
  "ParameterType": "Reformat",
  "Origin": "CONCAT",
  "TacticValue": "0x00000000000003ea",
  "StreamId": 0,
  "Metadata": "[ONNX Layer: /model.2/Concat]"
},{
  "Name": "/model.2/Split_output_1 copy",
  "LayerType": "Reformat",
  "Inputs": [
  {
    "Name": "/model.2/Split_output_1",
    "Location": "Device",
    "Dimensions": [1,80,160,160],
    "Format/Datatype": "Thirty-two wide channel vectorized row major Int8 format"
  }],
  "Outputs": [
  {
    "Name": "/model.2/Concat_output_0",
    "Location": "Device",
    "Dimensions": [1,80,160,160],
    "Format/Datatype": "Thirty-two wide channel vectorized row major Int8 format"
  }],
  "ParameterType": "Reformat",
  "Origin": "CONCAT",
  "TacticValue": "0x00000000000003ea",
  "StreamId": 0,
  "Metadata": "[ONNX Layer: /model.2/Concat]"
},{
  "Name": "/model.2/m.0/Add_output_0 copy",
  "LayerType": "Reformat",
  "Inputs": [
  {
    "Name": "/model.2/m.0/Add_output_0",
    "Location": "Device",
    "Dimensions": [1,80,160,160],
    "Format/Datatype": "Thirty-two wide channel vectorized row major Int8 format"
  }],
  "Outputs": [
  {
    "Name": "/model.2/Concat_output_0",
    "Location": "Device",
    "Dimensions": [1,80,160,160],
    "Format/Datatype": "Thirty-two wide channel vectorized row major Int8 format"
  }],
  "ParameterType": "Reformat",
  "Origin": "CONCAT",
  "TacticValue": "0x00000000000003ea",
  "StreamId": 0,
  "Metadata": "[ONNX Layer: /model.2/Concat]"
},{
  "Name": "/model.2/m.1/Add_output_0 copy",
  "LayerType": "Reformat",
  "Inputs": [
  {
    "Name": "/model.2/m.1/Add_output_0",
    "Location": "Device",
    "Dimensions": [1,80,160,160],
    "Format/Datatype": "Thirty-two wide channel vectorized row major Int8 format"
  }],
  "Outputs": [
  {
    "Name": "/model.2/Concat_output_0",
    "Location": "Device",
    "Dimensions": [1,80,160,160],
    "Format/Datatype": "Thirty-two wide channel vectorized row major Int8 format"
  }],
  "ParameterType": "Reformat",
  "Origin": "CONCAT",
  "TacticValue": "0x00000000000003ea",
  "StreamId": 0,
  "Metadata": "[ONNX Layer: /model.2/Concat]"
},{
  "Name": "/model.2/m.2/Add_output_0 copy",
  "LayerType": "Reformat",
  "Inputs": [
  {
    "Name": "/model.2/m.2/Add_output_0",
    "Location": "Device",
    "Dimensions": [1,80,160,160],
    "Format/Datatype": "Thirty-two wide channel vectorized row major Int8 format"
  }],
  "Outputs": [
  {
    "Name": "/model.2/Concat_output_0",
    "Location": "Device",
    "Dimensions": [1,80,160,160],
    "Format/Datatype": "Thirty-two wide channel vectorized row major Int8 format"
  }],
  "ParameterType": "Reformat",
  "Origin": "CONCAT",
  "TacticValue": "0x00000000000003ea",
  "StreamId": 0,
  "Metadata": "[ONNX Layer: /model.2/Concat]"
},{
  "Name": "/model.2/cv2/conv/Conv + PWN(PWN(/model.2/cv2/act/Sigmoid), /model.2/cv2/act/Mul)",
  "LayerType": "CaskConvolution",
  "Inputs": [
  {
    "Name": "/model.2/Concat_output_0",
    "Location": "Device",
    "Dimensions": [1,400,160,160],
    "Format/Datatype": "Thirty-two wide channel vectorized row major Int8 format"
  }],
  "Outputs": [
  {
    "Name": "/model.2/cv2/act/Mul_output_0",
    "Location": "Device",
    "Dimensions": [1,160,160,160],
    "Format/Datatype": "Thirty-two wide channel vectorized row major Int8 format"
  }],
  "ParameterType": "Convolution",
  "Kernel": [1,1],
  "PaddingMode": "kEXPLICIT_ROUND_DOWN",
  "PrePadding": [0,0],
  "PostPadding": [0,0],
  "Stride": [1,1],
  "Dilation": [1,1],
  "OutMaps": 160,
  "Groups": 1,
  "Weights": {"Type": "Int8", "Count": 64000},
  "Bias": {"Type": "Float", "Count": 160},
  "HasSparseWeights": 0,
  "HasDynamicFilter": 0,
  "HasDynamicBias": 0,
  "HasResidual": 0,
  "ConvXAsActInputIdx": -1,
  "BiasAsActInputIdx": -1,
  "ResAsActInputIdx": -1,
  "Activation": "SWISH",
  "HasBias": 1,
  "HasReLU": 0,
  "TacticName": "sm80_xmma_fprop_implicit_gemm_interleaved_i8i8_i8i32_f32_nchw_vect_c_32kcrs_vect_c_32_nchw_vect_c_32_tilesize256x64x64_stage4_warpsize4x1x1_g1_tensor16x8x32_simple_t1r1s1_swish",
  "TacticValue": "0xc1a4243b1f1cfe6d",
  "StreamId": 0,
  "Metadata": "[ONNX Layer: /model.2/cv2/conv/Conv]\u001e[ONNX Layer: /model.2/cv2/act/Sigmoid]\u001e[ONNX Layer: /model.2/cv2/act/Mul]"
},{
  "Name": "/model.3/conv/Conv + PWN(PWN(/model.3/act/Sigmoid), /model.3/act/Mul)",
  "LayerType": "CaskConvolution",
  "Inputs": [
  {
    "Name": "/model.2/cv2/act/Mul_output_0",
    "Location": "Device",
    "Dimensions": [1,160,160,160],
    "Format/Datatype": "Thirty-two wide channel vectorized row major Int8 format"
  }],
  "Outputs": [
  {
    "Name": "/model.3/act/Mul_output_0",
    "Location": "Device",
    "Dimensions": [1,320,80,80],
    "Format/Datatype": "Thirty-two wide channel vectorized row major Int8 format"
  }],
  "ParameterType": "Convolution",
  "Kernel": [3,3],
  "PaddingMode": "kEXPLICIT_ROUND_DOWN",
  "PrePadding": [1,1],
  "PostPadding": [1,1],
  "Stride": [2,2],
  "Dilation": [1,1],
  "OutMaps": 320,
  "Groups": 1,
  "Weights": {"Type": "Int8", "Count": 460800},
  "Bias": {"Type": "Float", "Count": 320},
  "HasSparseWeights": 0,
  "HasDynamicFilter": 0,
  "HasDynamicBias": 0,
  "HasResidual": 0,
  "ConvXAsActInputIdx": -1,
  "BiasAsActInputIdx": -1,
  "ResAsActInputIdx": -1,
  "Activation": "SWISH",
  "HasBias": 1,
  "HasReLU": 0,
  "TacticName": "sm80_xmma_fprop_implicit_gemm_interleaved_i8i8_i8i32_f32_nchw_vect_c_32kcrs_vect_c_32_nchw_vect_c_32_tilesize128x64x64_stage6_warpsize2x2x1_g1_tensor16x8x32_t1r3s3_swish",
  "TacticValue": "0xfdf7509af98902e0",
  "StreamId": 0,
  "Metadata": "[ONNX Layer: /model.3/conv/Conv]\u001e[ONNX Layer: /model.3/act/Sigmoid]\u001e[ONNX Layer: /model.3/act/Mul]"
},{
  "Name": "/model.4/cv1/conv/Conv + PWN(PWN(/model.4/cv1/act/Sigmoid), /model.4/cv1/act/Mul)",
  "LayerType": "CaskConvolution",
  "Inputs": [
  {
    "Name": "/model.3/act/Mul_output_0",
    "Location": "Device",
    "Dimensions": [1,320,80,80],
    "Format/Datatype": "Thirty-two wide channel vectorized row major Int8 format"
  }],
  "Outputs": [
  {
    "Name": "/model.4/cv1/act/Mul_output_0",
    "Location": "Device",
    "Dimensions": [1,320,80,80],
    "Format/Datatype": "Thirty-two wide channel vectorized row major Int8 format"
  }],
  "ParameterType": "Convolution",
  "Kernel": [1,1],
  "PaddingMode": "kEXPLICIT_ROUND_DOWN",
  "PrePadding": [0,0],
  "PostPadding": [0,0],
  "Stride": [1,1],
  "Dilation": [1,1],
  "OutMaps": 320,
  "Groups": 1,
  "Weights": {"Type": "Int8", "Count": 102400},
  "Bias": {"Type": "Float", "Count": 320},
  "HasSparseWeights": 0,
  "HasDynamicFilter": 0,
  "HasDynamicBias": 0,
  "HasResidual": 0,
  "ConvXAsActInputIdx": -1,
  "BiasAsActInputIdx": -1,
  "ResAsActInputIdx": -1,
  "Activation": "SWISH",
  "HasBias": 1,
  "HasReLU": 0,
  "TacticName": "sm80_xmma_fprop_implicit_gemm_interleaved_i8i8_i8i32_f32_nchw_vect_c_32kcrs_vect_c_32_nchw_vect_c_32_tilesize128x128x64_stage4_warpsize2x2x1_g1_tensor16x8x32_simple_t1r1s1_swish",
  "TacticValue": "0x65a38dbc9e991257",
  "StreamId": 0,
  "Metadata": "[ONNX Layer: /model.4/cv1/conv/Conv]\u001e[ONNX Layer: /model.4/cv1/act/Sigmoid]\u001e[ONNX Layer: /model.4/cv1/act/Mul]"
},{
  "Name": "/model.4/Split_11",
  "LayerType": "Reformat",
  "Inputs": [
  {
    "Name": "/model.4/cv1/act/Mul_output_0",
    "Location": "Device",
    "Dimensions": [1,160,80,80],
    "Format/Datatype": "Thirty-two wide channel vectorized row major Int8 format"
  }],
  "Outputs": [
  {
    "Name": "/model.4/Split_output_1",
    "Location": "Device",
    "Dimensions": [1,160,80,80],
    "Format/Datatype": "Thirty-two wide channel vectorized row major Int8 format"
  }],
  "ParameterType": "Reformat",
  "Origin": "SLICE",
  "TacticValue": "0x0000000000000000",
  "StreamId": 0,
  "Metadata": "[ONNX Layer: /model.4/Split]"
},{
  "Name": "/model.4/m.0/cv1/conv/Conv + PWN(PWN(/model.4/m.0/cv1/act/Sigmoid), /model.4/m.0/cv1/act/Mul)",
  "LayerType": "CaskConvolution",
  "Inputs": [
  {
    "Name": "/model.4/Split_output_1",
    "Location": "Device",
    "Dimensions": [1,160,80,80],
    "Format/Datatype": "Thirty-two wide channel vectorized row major Int8 format"
  }],
  "Outputs": [
  {
    "Name": "/model.4/m.0/cv1/act/Mul_output_0",
    "Location": "Device",
    "Dimensions": [1,160,80,80],
    "Format/Datatype": "Thirty-two wide channel vectorized row major Int8 format"
  }],
  "ParameterType": "Convolution",
  "Kernel": [3,3],
  "PaddingMode": "kEXPLICIT_ROUND_DOWN",
  "PrePadding": [1,1],
  "PostPadding": [1,1],
  "Stride": [1,1],
  "Dilation": [1,1],
  "OutMaps": 160,
  "Groups": 1,
  "Weights": {"Type": "Int8", "Count": 230400},
  "Bias": {"Type": "Float", "Count": 160},
  "HasSparseWeights": 0,
  "HasDynamicFilter": 0,
  "HasDynamicBias": 0,
  "HasResidual": 0,
  "ConvXAsActInputIdx": -1,
  "BiasAsActInputIdx": -1,
  "ResAsActInputIdx": -1,
  "Activation": "SWISH",
  "HasBias": 1,
  "HasReLU": 0,
  "TacticName": "sm80_xmma_fprop_implicit_gemm_interleaved_i8i8_i8i32_f32_nchw_vect_c_32kcrs_vect_c_32_nchw_vect_c_32_tilesize128x64x64_stage6_warpsize2x2x1_g1_tensor16x8x32_t1r3s3_swish",
  "TacticValue": "0xfdf7509af98902e0",
  "StreamId": 0,
  "Metadata": "[ONNX Layer: /model.4/m.0/cv1/conv/Conv]\u001e[ONNX Layer: /model.4/m.0/cv1/act/Sigmoid]\u001e[ONNX Layer: /model.4/m.0/cv1/act/Mul]"
},{
  "Name": "/model.4/m.0/cv2/conv/Conv + PWN(PWN(PWN(/model.4/m.0/cv2/act/Sigmoid), /model.4/m.0/cv2/act/Mul), /model.4/m.0/Add)",
  "LayerType": "CaskConvolution",
  "Inputs": [
  {
    "Name": "/model.4/m.0/cv1/act/Mul_output_0",
    "Location": "Device",
    "Dimensions": [1,160,80,80],
    "Format/Datatype": "Thirty-two wide channel vectorized row major Int8 format"
  },
  {
    "Name": "/model.4/Split_output_1",
    "Location": "Device",
    "Dimensions": [1,160,80,80],
    "Format/Datatype": "Thirty-two wide channel vectorized row major Int8 format"
  }],
  "Outputs": [
  {
    "Name": "/model.4/m.0/Add_output_0",
    "Location": "Device",
    "Dimensions": [1,160,80,80],
    "Format/Datatype": "Thirty-two wide channel vectorized row major Int8 format"
  }],
  "ParameterType": "Convolution",
  "Kernel": [3,3],
  "PaddingMode": "kEXPLICIT_ROUND_DOWN",
  "PrePadding": [1,1],
  "PostPadding": [1,1],
  "Stride": [1,1],
  "Dilation": [1,1],
  "OutMaps": 160,
  "Groups": 1,
  "Weights": {"Type": "Int8", "Count": 230400},
  "Bias": {"Type": "Float", "Count": 160},
  "HasSparseWeights": 0,
  "HasDynamicFilter": 0,
  "HasDynamicBias": 0,
  "HasResidual": 0,
  "ConvXAsActInputIdx": -1,
  "BiasAsActInputIdx": -1,
  "ResAsActInputIdx": -1,
  "Activation": "GENERIC",
  "ParameterSubType": "PointWiseExpression",
  "NbPointWiseExpressionInputArgs": 2,
  "PointWiseExpressionInputArgs": ["arg0", "arg1"],
  "NbPointWiseExpressionOutputVars": 1,
  "PointWiseExpressionOutputVars": ["var5"],
  "NbPointWiseExpressionParams": 0,
  "PointWiseExpressionParams": [],
  "NbPointWiseExpressionLiterals": 5,
  "PointWiseExpressionLiterals": ["0.000000e+00f", "1.000000e+00f", "0.000000e+00f", "0.000000e+00f", "5.000000e-01f"],
  "NbPointWiseExpressionOperations": 6,
  "PointWiseExpressionOperations": ["auto const var0 = pwgen::iMul(literal4, arg0);", "auto const var1 = pwgen::iTanh(var0);", "auto const var2 = pwgen::iMul(var1, literal4);", "auto const var3 = pwgen::iPlus(var2, literal4);", "auto const var4 = pwgen::iMul(arg0, var3);", "auto const var5 = pwgen::iPlus(arg1, var4);"],
  "HasBias": 1,
  "HasReLU": 0,
  "TacticName": "sm80_xmma_fprop_implicit_gemm_interleaved_i8i8_i8i32_f32_nchw_vect_c_32kcrs_vect_c_32_nchw_vect_c_32_tilesize96x32x64_stage4_warpsize2x1x1_g1_tensor16x8x32",
  "TacticValue": "0x4b476758492c15b0",
  "StreamId": 0,
  "Metadata": "[ONNX Layer: /model.4/m.0/cv2/conv/Conv]\u001e[ONNX Layer: /model.4/m.0/cv2/act/Sigmoid]\u001e[ONNX Layer: /model.4/m.0/cv2/act/Mul]\u001e[ONNX Layer: /model.4/m.0/Add]"
},{
  "Name": "/model.4/m.1/cv1/conv/Conv + PWN(PWN(/model.4/m.1/cv1/act/Sigmoid), /model.4/m.1/cv1/act/Mul)",
  "LayerType": "CaskConvolution",
  "Inputs": [
  {
    "Name": "/model.4/m.0/Add_output_0",
    "Location": "Device",
    "Dimensions": [1,160,80,80],
    "Format/Datatype": "Thirty-two wide channel vectorized row major Int8 format"
  }],
  "Outputs": [
  {
    "Name": "/model.4/m.1/cv1/act/Mul_output_0",
    "Location": "Device",
    "Dimensions": [1,160,80,80],
    "Format/Datatype": "Thirty-two wide channel vectorized row major Int8 format"
  }],
  "ParameterType": "Convolution",
  "Kernel": [3,3],
  "PaddingMode": "kEXPLICIT_ROUND_DOWN",
  "PrePadding": [1,1],
  "PostPadding": [1,1],
  "Stride": [1,1],
  "Dilation": [1,1],
  "OutMaps": 160,
  "Groups": 1,
  "Weights": {"Type": "Int8", "Count": 230400},
  "Bias": {"Type": "Float", "Count": 160},
  "HasSparseWeights": 0,
  "HasDynamicFilter": 0,
  "HasDynamicBias": 0,
  "HasResidual": 0,
  "ConvXAsActInputIdx": -1,
  "BiasAsActInputIdx": -1,
  "ResAsActInputIdx": -1,
  "Activation": "SWISH",
  "HasBias": 1,
  "HasReLU": 0,
  "TacticName": "sm80_xmma_fprop_implicit_gemm_interleaved_i8i8_i8i32_f32_nchw_vect_c_32kcrs_vect_c_32_nchw_vect_c_32_tilesize128x64x64_stage6_warpsize2x2x1_g1_tensor16x8x32_t1r3s3_swish",
  "TacticValue": "0xfdf7509af98902e0",
  "StreamId": 0,
  "Metadata": "[ONNX Layer: /model.4/m.1/cv1/conv/Conv]\u001e[ONNX Layer: /model.4/m.1/cv1/act/Sigmoid]\u001e[ONNX Layer: /model.4/m.1/cv1/act/Mul]"
},{
  "Name": "/model.4/m.1/cv2/conv/Conv + PWN(PWN(PWN(/model.4/m.1/cv2/act/Sigmoid), /model.4/m.1/cv2/act/Mul), /model.4/m.1/Add)",
  "LayerType": "CaskConvolution",
  "Inputs": [
  {
    "Name": "/model.4/m.1/cv1/act/Mul_output_0",
    "Location": "Device",
    "Dimensions": [1,160,80,80],
    "Format/Datatype": "Thirty-two wide channel vectorized row major Int8 format"
  },
  {
    "Name": "/model.4/m.0/Add_output_0",
    "Location": "Device",
    "Dimensions": [1,160,80,80],
    "Format/Datatype": "Thirty-two wide channel vectorized row major Int8 format"
  }],
  "Outputs": [
  {
    "Name": "/model.4/m.1/Add_output_0",
    "Location": "Device",
    "Dimensions": [1,160,80,80],
    "Format/Datatype": "Thirty-two wide channel vectorized row major Int8 format"
  }],
  "ParameterType": "Convolution",
  "Kernel": [3,3],
  "PaddingMode": "kEXPLICIT_ROUND_DOWN",
  "PrePadding": [1,1],
  "PostPadding": [1,1],
  "Stride": [1,1],
  "Dilation": [1,1],
  "OutMaps": 160,
  "Groups": 1,
  "Weights": {"Type": "Int8", "Count": 230400},
  "Bias": {"Type": "Float", "Count": 160},
  "HasSparseWeights": 0,
  "HasDynamicFilter": 0,
  "HasDynamicBias": 0,
  "HasResidual": 0,
  "ConvXAsActInputIdx": -1,
  "BiasAsActInputIdx": -1,
  "ResAsActInputIdx": -1,
  "Activation": "GENERIC",
  "ParameterSubType": "PointWiseExpression",
  "NbPointWiseExpressionInputArgs": 2,
  "PointWiseExpressionInputArgs": ["arg0", "arg1"],
  "NbPointWiseExpressionOutputVars": 1,
  "PointWiseExpressionOutputVars": ["var5"],
  "NbPointWiseExpressionParams": 0,
  "PointWiseExpressionParams": [],
  "NbPointWiseExpressionLiterals": 5,
  "PointWiseExpressionLiterals": ["0.000000e+00f", "1.000000e+00f", "0.000000e+00f", "0.000000e+00f", "5.000000e-01f"],
  "NbPointWiseExpressionOperations": 6,
  "PointWiseExpressionOperations": ["auto const var0 = pwgen::iMul(literal4, arg0);", "auto const var1 = pwgen::iTanh(var0);", "auto const var2 = pwgen::iMul(var1, literal4);", "auto const var3 = pwgen::iPlus(var2, literal4);", "auto const var4 = pwgen::iMul(arg0, var3);", "auto const var5 = pwgen::iPlus(arg1, var4);"],
  "HasBias": 1,
  "HasReLU": 0,
  "TacticName": "sm80_xmma_fprop_implicit_gemm_interleaved_i8i8_i8i32_f32_nchw_vect_c_32kcrs_vect_c_32_nchw_vect_c_32_tilesize96x32x64_stage4_warpsize2x1x1_g1_tensor16x8x32",
  "TacticValue": "0x4b476758492c15b0",
  "StreamId": 0,
  "Metadata": "[ONNX Layer: /model.4/m.1/cv2/conv/Conv]\u001e[ONNX Layer: /model.4/m.1/cv2/act/Sigmoid]\u001e[ONNX Layer: /model.4/m.1/cv2/act/Mul]\u001e[ONNX Layer: /model.4/m.1/Add]"
},{
  "Name": "/model.4/m.2/cv1/conv/Conv + PWN(PWN(/model.4/m.2/cv1/act/Sigmoid), /model.4/m.2/cv1/act/Mul)",
  "LayerType": "CaskConvolution",
  "Inputs": [
  {
    "Name": "/model.4/m.1/Add_output_0",
    "Location": "Device",
    "Dimensions": [1,160,80,80],
    "Format/Datatype": "Thirty-two wide channel vectorized row major Int8 format"
  }],
  "Outputs": [
  {
    "Name": "/model.4/m.2/cv1/act/Mul_output_0",
    "Location": "Device",
    "Dimensions": [1,160,80,80],
    "Format/Datatype": "Thirty-two wide channel vectorized row major Int8 format"
  }],
  "ParameterType": "Convolution",
  "Kernel": [3,3],
  "PaddingMode": "kEXPLICIT_ROUND_DOWN",
  "PrePadding": [1,1],
  "PostPadding": [1,1],
  "Stride": [1,1],
  "Dilation": [1,1],
  "OutMaps": 160,
  "Groups": 1,
  "Weights": {"Type": "Int8", "Count": 230400},
  "Bias": {"Type": "Float", "Count": 160},
  "HasSparseWeights": 0,
  "HasDynamicFilter": 0,
  "HasDynamicBias": 0,
  "HasResidual": 0,
  "ConvXAsActInputIdx": -1,
  "BiasAsActInputIdx": -1,
  "ResAsActInputIdx": -1,
  "Activation": "SWISH",
  "HasBias": 1,
  "HasReLU": 0,
  "TacticName": "sm80_xmma_fprop_implicit_gemm_interleaved_i8i8_i8i32_f32_nchw_vect_c_32kcrs_vect_c_32_nchw_vect_c_32_tilesize128x64x64_stage6_warpsize2x2x1_g1_tensor16x8x32_t1r3s3_swish",
  "TacticValue": "0xfdf7509af98902e0",
  "StreamId": 0,
  "Metadata": "[ONNX Layer: /model.4/m.2/cv1/conv/Conv]\u001e[ONNX Layer: /model.4/m.2/cv1/act/Sigmoid]\u001e[ONNX Layer: /model.4/m.2/cv1/act/Mul]"
},{
  "Name": "/model.4/m.2/cv2/conv/Conv + PWN(PWN(PWN(/model.4/m.2/cv2/act/Sigmoid), /model.4/m.2/cv2/act/Mul), /model.4/m.2/Add)",
  "LayerType": "CaskConvolution",
  "Inputs": [
  {
    "Name": "/model.4/m.2/cv1/act/Mul_output_0",
    "Location": "Device",
    "Dimensions": [1,160,80,80],
    "Format/Datatype": "Thirty-two wide channel vectorized row major Int8 format"
  },
  {
    "Name": "/model.4/m.1/Add_output_0",
    "Location": "Device",
    "Dimensions": [1,160,80,80],
    "Format/Datatype": "Thirty-two wide channel vectorized row major Int8 format"
  }],
  "Outputs": [
  {
    "Name": "/model.4/m.2/Add_output_0",
    "Location": "Device",
    "Dimensions": [1,160,80,80],
    "Format/Datatype": "Thirty-two wide channel vectorized row major Int8 format"
  }],
  "ParameterType": "Convolution",
  "Kernel": [3,3],
  "PaddingMode": "kEXPLICIT_ROUND_DOWN",
  "PrePadding": [1,1],
  "PostPadding": [1,1],
  "Stride": [1,1],
  "Dilation": [1,1],
  "OutMaps": 160,
  "Groups": 1,
  "Weights": {"Type": "Int8", "Count": 230400},
  "Bias": {"Type": "Float", "Count": 160},
  "HasSparseWeights": 0,
  "HasDynamicFilter": 0,
  "HasDynamicBias": 0,
  "HasResidual": 0,
  "ConvXAsActInputIdx": -1,
  "BiasAsActInputIdx": -1,
  "ResAsActInputIdx": -1,
  "Activation": "GENERIC",
  "ParameterSubType": "PointWiseExpression",
  "NbPointWiseExpressionInputArgs": 2,
  "PointWiseExpressionInputArgs": ["arg0", "arg1"],
  "NbPointWiseExpressionOutputVars": 1,
  "PointWiseExpressionOutputVars": ["var5"],
  "NbPointWiseExpressionParams": 0,
  "PointWiseExpressionParams": [],
  "NbPointWiseExpressionLiterals": 5,
  "PointWiseExpressionLiterals": ["0.000000e+00f", "1.000000e+00f", "0.000000e+00f", "0.000000e+00f", "5.000000e-01f"],
  "NbPointWiseExpressionOperations": 6,
  "PointWiseExpressionOperations": ["auto const var0 = pwgen::iMul(literal4, arg0);", "auto const var1 = pwgen::iTanh(var0);", "auto const var2 = pwgen::iMul(var1, literal4);", "auto const var3 = pwgen::iPlus(var2, literal4);", "auto const var4 = pwgen::iMul(arg0, var3);", "auto const var5 = pwgen::iPlus(arg1, var4);"],
  "HasBias": 1,
  "HasReLU": 0,
  "TacticName": "sm80_xmma_fprop_implicit_gemm_interleaved_i8i8_i8i32_f32_nchw_vect_c_32kcrs_vect_c_32_nchw_vect_c_32_tilesize96x32x64_stage4_warpsize2x1x1_g1_tensor16x8x32",
  "TacticValue": "0x4b476758492c15b0",
  "StreamId": 0,
  "Metadata": "[ONNX Layer: /model.4/m.2/cv2/conv/Conv]\u001e[ONNX Layer: /model.4/m.2/cv2/act/Sigmoid]\u001e[ONNX Layer: /model.4/m.2/cv2/act/Mul]\u001e[ONNX Layer: /model.4/m.2/Add]"
},{
  "Name": "/model.4/m.3/cv1/conv/Conv + PWN(PWN(/model.4/m.3/cv1/act/Sigmoid), /model.4/m.3/cv1/act/Mul)",
  "LayerType": "CaskConvolution",
  "Inputs": [
  {
    "Name": "/model.4/m.2/Add_output_0",
    "Location": "Device",
    "Dimensions": [1,160,80,80],
    "Format/Datatype": "Thirty-two wide channel vectorized row major Int8 format"
  }],
  "Outputs": [
  {
    "Name": "/model.4/m.3/cv1/act/Mul_output_0",
    "Location": "Device",
    "Dimensions": [1,160,80,80],
    "Format/Datatype": "Thirty-two wide channel vectorized row major Int8 format"
  }],
  "ParameterType": "Convolution",
  "Kernel": [3,3],
  "PaddingMode": "kEXPLICIT_ROUND_DOWN",
  "PrePadding": [1,1],
  "PostPadding": [1,1],
  "Stride": [1,1],
  "Dilation": [1,1],
  "OutMaps": 160,
  "Groups": 1,
  "Weights": {"Type": "Int8", "Count": 230400},
  "Bias": {"Type": "Float", "Count": 160},
  "HasSparseWeights": 0,
  "HasDynamicFilter": 0,
  "HasDynamicBias": 0,
  "HasResidual": 0,
  "ConvXAsActInputIdx": -1,
  "BiasAsActInputIdx": -1,
  "ResAsActInputIdx": -1,
  "Activation": "SWISH",
  "HasBias": 1,
  "HasReLU": 0,
  "TacticName": "sm80_xmma_fprop_implicit_gemm_interleaved_i8i8_i8i32_f32_nchw_vect_c_32kcrs_vect_c_32_nchw_vect_c_32_tilesize128x64x64_stage6_warpsize2x2x1_g1_tensor16x8x32_t1r3s3_swish",
  "TacticValue": "0xfdf7509af98902e0",
  "StreamId": 0,
  "Metadata": "[ONNX Layer: /model.4/m.3/cv1/conv/Conv]\u001e[ONNX Layer: /model.4/m.3/cv1/act/Sigmoid]\u001e[ONNX Layer: /model.4/m.3/cv1/act/Mul]"
},{
  "Name": "/model.4/m.3/cv2/conv/Conv + PWN(PWN(PWN(/model.4/m.3/cv2/act/Sigmoid), /model.4/m.3/cv2/act/Mul), /model.4/m.3/Add)",
  "LayerType": "CaskConvolution",
  "Inputs": [
  {
    "Name": "/model.4/m.3/cv1/act/Mul_output_0",
    "Location": "Device",
    "Dimensions": [1,160,80,80],
    "Format/Datatype": "Thirty-two wide channel vectorized row major Int8 format"
  },
  {
    "Name": "/model.4/m.2/Add_output_0",
    "Location": "Device",
    "Dimensions": [1,160,80,80],
    "Format/Datatype": "Thirty-two wide channel vectorized row major Int8 format"
  }],
  "Outputs": [
  {
    "Name": "/model.4/m.3/Add_output_0",
    "Location": "Device",
    "Dimensions": [1,160,80,80],
    "Format/Datatype": "Thirty-two wide channel vectorized row major Int8 format"
  }],
  "ParameterType": "Convolution",
  "Kernel": [3,3],
  "PaddingMode": "kEXPLICIT_ROUND_DOWN",
  "PrePadding": [1,1],
  "PostPadding": [1,1],
  "Stride": [1,1],
  "Dilation": [1,1],
  "OutMaps": 160,
  "Groups": 1,
  "Weights": {"Type": "Int8", "Count": 230400},
  "Bias": {"Type": "Float", "Count": 160},
  "HasSparseWeights": 0,
  "HasDynamicFilter": 0,
  "HasDynamicBias": 0,
  "HasResidual": 0,
  "ConvXAsActInputIdx": -1,
  "BiasAsActInputIdx": -1,
  "ResAsActInputIdx": -1,
  "Activation": "GENERIC",
  "ParameterSubType": "PointWiseExpression",
  "NbPointWiseExpressionInputArgs": 2,
  "PointWiseExpressionInputArgs": ["arg0", "arg1"],
  "NbPointWiseExpressionOutputVars": 1,
  "PointWiseExpressionOutputVars": ["var5"],
  "NbPointWiseExpressionParams": 0,
  "PointWiseExpressionParams": [],
  "NbPointWiseExpressionLiterals": 5,
  "PointWiseExpressionLiterals": ["0.000000e+00f", "1.000000e+00f", "0.000000e+00f", "0.000000e+00f", "5.000000e-01f"],
  "NbPointWiseExpressionOperations": 6,
  "PointWiseExpressionOperations": ["auto const var0 = pwgen::iMul(literal4, arg0);", "auto const var1 = pwgen::iTanh(var0);", "auto const var2 = pwgen::iMul(var1, literal4);", "auto const var3 = pwgen::iPlus(var2, literal4);", "auto const var4 = pwgen::iMul(arg0, var3);", "auto const var5 = pwgen::iPlus(arg1, var4);"],
  "HasBias": 1,
  "HasReLU": 0,
  "TacticName": "sm80_xmma_fprop_implicit_gemm_interleaved_i8i8_i8i32_f32_nchw_vect_c_32kcrs_vect_c_32_nchw_vect_c_32_tilesize96x32x64_stage4_warpsize2x1x1_g1_tensor16x8x32",
  "TacticValue": "0x4b476758492c15b0",
  "StreamId": 0,
  "Metadata": "[ONNX Layer: /model.4/m.3/cv2/conv/Conv]\u001e[ONNX Layer: /model.4/m.3/cv2/act/Sigmoid]\u001e[ONNX Layer: /model.4/m.3/cv2/act/Mul]\u001e[ONNX Layer: /model.4/m.3/Add]"
},{
  "Name": "/model.4/m.4/cv1/conv/Conv + PWN(PWN(/model.4/m.4/cv1/act/Sigmoid), /model.4/m.4/cv1/act/Mul)",
  "LayerType": "CaskConvolution",
  "Inputs": [
  {
    "Name": "/model.4/m.3/Add_output_0",
    "Location": "Device",
    "Dimensions": [1,160,80,80],
    "Format/Datatype": "Thirty-two wide channel vectorized row major Int8 format"
  }],
  "Outputs": [
  {
    "Name": "/model.4/m.4/cv1/act/Mul_output_0",
    "Location": "Device",
    "Dimensions": [1,160,80,80],
    "Format/Datatype": "Thirty-two wide channel vectorized row major Int8 format"
  }],
  "ParameterType": "Convolution",
  "Kernel": [3,3],
  "PaddingMode": "kEXPLICIT_ROUND_DOWN",
  "PrePadding": [1,1],
  "PostPadding": [1,1],
  "Stride": [1,1],
  "Dilation": [1,1],
  "OutMaps": 160,
  "Groups": 1,
  "Weights": {"Type": "Int8", "Count": 230400},
  "Bias": {"Type": "Float", "Count": 160},
  "HasSparseWeights": 0,
  "HasDynamicFilter": 0,
  "HasDynamicBias": 0,
  "HasResidual": 0,
  "ConvXAsActInputIdx": -1,
  "BiasAsActInputIdx": -1,
  "ResAsActInputIdx": -1,
  "Activation": "SWISH",
  "HasBias": 1,
  "HasReLU": 0,
  "TacticName": "sm80_xmma_fprop_implicit_gemm_interleaved_i8i8_i8i32_f32_nchw_vect_c_32kcrs_vect_c_32_nchw_vect_c_32_tilesize128x64x64_stage6_warpsize2x2x1_g1_tensor16x8x32_t1r3s3_swish",
  "TacticValue": "0xfdf7509af98902e0",
  "StreamId": 0,
  "Metadata": "[ONNX Layer: /model.4/m.4/cv1/conv/Conv]\u001e[ONNX Layer: /model.4/m.4/cv1/act/Sigmoid]\u001e[ONNX Layer: /model.4/m.4/cv1/act/Mul]"
},{
  "Name": "/model.4/m.4/cv2/conv/Conv + PWN(PWN(PWN(/model.4/m.4/cv2/act/Sigmoid), /model.4/m.4/cv2/act/Mul), /model.4/m.4/Add)",
  "LayerType": "CaskConvolution",
  "Inputs": [
  {
    "Name": "/model.4/m.4/cv1/act/Mul_output_0",
    "Location": "Device",
    "Dimensions": [1,160,80,80],
    "Format/Datatype": "Thirty-two wide channel vectorized row major Int8 format"
  },
  {
    "Name": "/model.4/m.3/Add_output_0",
    "Location": "Device",
    "Dimensions": [1,160,80,80],
    "Format/Datatype": "Thirty-two wide channel vectorized row major Int8 format"
  }],
  "Outputs": [
  {
    "Name": "/model.4/m.4/Add_output_0",
    "Location": "Device",
    "Dimensions": [1,160,80,80],
    "Format/Datatype": "Thirty-two wide channel vectorized row major Int8 format"
  }],
  "ParameterType": "Convolution",
  "Kernel": [3,3],
  "PaddingMode": "kEXPLICIT_ROUND_DOWN",
  "PrePadding": [1,1],
  "PostPadding": [1,1],
  "Stride": [1,1],
  "Dilation": [1,1],
  "OutMaps": 160,
  "Groups": 1,
  "Weights": {"Type": "Int8", "Count": 230400},
  "Bias": {"Type": "Float", "Count": 160},
  "HasSparseWeights": 0,
  "HasDynamicFilter": 0,
  "HasDynamicBias": 0,
  "HasResidual": 0,
  "ConvXAsActInputIdx": -1,
  "BiasAsActInputIdx": -1,
  "ResAsActInputIdx": -1,
  "Activation": "GENERIC",
  "ParameterSubType": "PointWiseExpression",
  "NbPointWiseExpressionInputArgs": 2,
  "PointWiseExpressionInputArgs": ["arg0", "arg1"],
  "NbPointWiseExpressionOutputVars": 1,
  "PointWiseExpressionOutputVars": ["var5"],
  "NbPointWiseExpressionParams": 0,
  "PointWiseExpressionParams": [],
  "NbPointWiseExpressionLiterals": 5,
  "PointWiseExpressionLiterals": ["0.000000e+00f", "1.000000e+00f", "0.000000e+00f", "0.000000e+00f", "5.000000e-01f"],
  "NbPointWiseExpressionOperations": 6,
  "PointWiseExpressionOperations": ["auto const var0 = pwgen::iMul(literal4, arg0);", "auto const var1 = pwgen::iTanh(var0);", "auto const var2 = pwgen::iMul(var1, literal4);", "auto const var3 = pwgen::iPlus(var2, literal4);", "auto const var4 = pwgen::iMul(arg0, var3);", "auto const var5 = pwgen::iPlus(arg1, var4);"],
  "HasBias": 1,
  "HasReLU": 0,
  "TacticName": "sm80_xmma_fprop_implicit_gemm_interleaved_i8i8_i8i32_f32_nchw_vect_c_32kcrs_vect_c_32_nchw_vect_c_32_tilesize96x32x64_stage4_warpsize2x1x1_g1_tensor16x8x32",
  "TacticValue": "0x4b476758492c15b0",
  "StreamId": 0,
  "Metadata": "[ONNX Layer: /model.4/m.4/cv2/conv/Conv]\u001e[ONNX Layer: /model.4/m.4/cv2/act/Sigmoid]\u001e[ONNX Layer: /model.4/m.4/cv2/act/Mul]\u001e[ONNX Layer: /model.4/m.4/Add]"
},{
  "Name": "/model.4/m.5/cv1/conv/Conv + PWN(PWN(/model.4/m.5/cv1/act/Sigmoid), /model.4/m.5/cv1/act/Mul)",
  "LayerType": "CaskConvolution",
  "Inputs": [
  {
    "Name": "/model.4/m.4/Add_output_0",
    "Location": "Device",
    "Dimensions": [1,160,80,80],
    "Format/Datatype": "Thirty-two wide channel vectorized row major Int8 format"
  }],
  "Outputs": [
  {
    "Name": "/model.4/m.5/cv1/act/Mul_output_0",
    "Location": "Device",
    "Dimensions": [1,160,80,80],
    "Format/Datatype": "Thirty-two wide channel vectorized row major Int8 format"
  }],
  "ParameterType": "Convolution",
  "Kernel": [3,3],
  "PaddingMode": "kEXPLICIT_ROUND_DOWN",
  "PrePadding": [1,1],
  "PostPadding": [1,1],
  "Stride": [1,1],
  "Dilation": [1,1],
  "OutMaps": 160,
  "Groups": 1,
  "Weights": {"Type": "Int8", "Count": 230400},
  "Bias": {"Type": "Float", "Count": 160},
  "HasSparseWeights": 0,
  "HasDynamicFilter": 0,
  "HasDynamicBias": 0,
  "HasResidual": 0,
  "ConvXAsActInputIdx": -1,
  "BiasAsActInputIdx": -1,
  "ResAsActInputIdx": -1,
  "Activation": "SWISH",
  "HasBias": 1,
  "HasReLU": 0,
  "TacticName": "sm80_xmma_fprop_implicit_gemm_interleaved_i8i8_i8i32_f32_nchw_vect_c_32kcrs_vect_c_32_nchw_vect_c_32_tilesize128x64x64_stage6_warpsize2x2x1_g1_tensor16x8x32_t1r3s3_swish",
  "TacticValue": "0xfdf7509af98902e0",
  "StreamId": 0,
  "Metadata": "[ONNX Layer: /model.4/m.5/cv1/conv/Conv]\u001e[ONNX Layer: /model.4/m.5/cv1/act/Sigmoid]\u001e[ONNX Layer: /model.4/m.5/cv1/act/Mul]"
},{
  "Name": "/model.4/m.5/cv2/conv/Conv + PWN(PWN(PWN(/model.4/m.5/cv2/act/Sigmoid), /model.4/m.5/cv2/act/Mul), /model.4/m.5/Add)",
  "LayerType": "CaskConvolution",
  "Inputs": [
  {
    "Name": "/model.4/m.5/cv1/act/Mul_output_0",
    "Location": "Device",
    "Dimensions": [1,160,80,80],
    "Format/Datatype": "Thirty-two wide channel vectorized row major Int8 format"
  },
  {
    "Name": "/model.4/m.4/Add_output_0",
    "Location": "Device",
    "Dimensions": [1,160,80,80],
    "Format/Datatype": "Thirty-two wide channel vectorized row major Int8 format"
  }],
  "Outputs": [
  {
    "Name": "/model.4/m.5/Add_output_0",
    "Location": "Device",
    "Dimensions": [1,160,80,80],
    "Format/Datatype": "Thirty-two wide channel vectorized row major Int8 format"
  }],
  "ParameterType": "Convolution",
  "Kernel": [3,3],
  "PaddingMode": "kEXPLICIT_ROUND_DOWN",
  "PrePadding": [1,1],
  "PostPadding": [1,1],
  "Stride": [1,1],
  "Dilation": [1,1],
  "OutMaps": 160,
  "Groups": 1,
  "Weights": {"Type": "Int8", "Count": 230400},
  "Bias": {"Type": "Float", "Count": 160},
  "HasSparseWeights": 0,
  "HasDynamicFilter": 0,
  "HasDynamicBias": 0,
  "HasResidual": 0,
  "ConvXAsActInputIdx": -1,
  "BiasAsActInputIdx": -1,
  "ResAsActInputIdx": -1,
  "Activation": "GENERIC",
  "ParameterSubType": "PointWiseExpression",
  "NbPointWiseExpressionInputArgs": 2,
  "PointWiseExpressionInputArgs": ["arg0", "arg1"],
  "NbPointWiseExpressionOutputVars": 1,
  "PointWiseExpressionOutputVars": ["var5"],
  "NbPointWiseExpressionParams": 0,
  "PointWiseExpressionParams": [],
  "NbPointWiseExpressionLiterals": 5,
  "PointWiseExpressionLiterals": ["0.000000e+00f", "1.000000e+00f", "0.000000e+00f", "0.000000e+00f", "5.000000e-01f"],
  "NbPointWiseExpressionOperations": 6,
  "PointWiseExpressionOperations": ["auto const var0 = pwgen::iMul(literal4, arg0);", "auto const var1 = pwgen::iTanh(var0);", "auto const var2 = pwgen::iMul(var1, literal4);", "auto const var3 = pwgen::iPlus(var2, literal4);", "auto const var4 = pwgen::iMul(arg0, var3);", "auto const var5 = pwgen::iPlus(arg1, var4);"],
  "HasBias": 1,
  "HasReLU": 0,
  "TacticName": "sm80_xmma_fprop_implicit_gemm_interleaved_i8i8_i8i32_f32_nchw_vect_c_32kcrs_vect_c_32_nchw_vect_c_32_tilesize96x32x64_stage4_warpsize2x1x1_g1_tensor16x8x32",
  "TacticValue": "0x4b476758492c15b0",
  "StreamId": 0,
  "Metadata": "[ONNX Layer: /model.4/m.5/cv2/conv/Conv]\u001e[ONNX Layer: /model.4/m.5/cv2/act/Sigmoid]\u001e[ONNX Layer: /model.4/m.5/cv2/act/Mul]\u001e[ONNX Layer: /model.4/m.5/Add]"
},{
  "Name": "/model.4/Split_output_0 copy",
  "LayerType": "Reformat",
  "Inputs": [
  {
    "Name": "/model.4/cv1/act/Mul_output_0",
    "Location": "Device",
    "Dimensions": [1,160,80,80],
    "Format/Datatype": "Thirty-two wide channel vectorized row major Int8 format"
  }],
  "Outputs": [
  {
    "Name": "/model.4/Concat_output_0",
    "Location": "Device",
    "Dimensions": [1,160,80,80],
    "Format/Datatype": "Thirty-two wide channel vectorized row major Int8 format"
  }],
  "ParameterType": "Reformat",
  "Origin": "CONCAT",
  "TacticValue": "0x0000000000000000",
  "StreamId": 0,
  "Metadata": "[ONNX Layer: /model.4/Concat]"
},{
  "Name": "/model.4/Split_output_1 copy",
  "LayerType": "Reformat",
  "Inputs": [
  {
    "Name": "/model.4/Split_output_1",
    "Location": "Device",
    "Dimensions": [1,160,80,80],
    "Format/Datatype": "Thirty-two wide channel vectorized row major Int8 format"
  }],
  "Outputs": [
  {
    "Name": "/model.4/Concat_output_0",
    "Location": "Device",
    "Dimensions": [1,160,80,80],
    "Format/Datatype": "Thirty-two wide channel vectorized row major Int8 format"
  }],
  "ParameterType": "Reformat",
  "Origin": "CONCAT",
  "TacticValue": "0x0000000000000000",
  "StreamId": 0,
  "Metadata": "[ONNX Layer: /model.4/Concat]"
},{
  "Name": "/model.4/m.0/Add_output_0 copy",
  "LayerType": "Reformat",
  "Inputs": [
  {
    "Name": "/model.4/m.0/Add_output_0",
    "Location": "Device",
    "Dimensions": [1,160,80,80],
    "Format/Datatype": "Thirty-two wide channel vectorized row major Int8 format"
  }],
  "Outputs": [
  {
    "Name": "/model.4/Concat_output_0",
    "Location": "Device",
    "Dimensions": [1,160,80,80],
    "Format/Datatype": "Thirty-two wide channel vectorized row major Int8 format"
  }],
  "ParameterType": "Reformat",
  "Origin": "CONCAT",
  "TacticValue": "0x0000000000000000",
  "StreamId": 0,
  "Metadata": "[ONNX Layer: /model.4/Concat]"
},{
  "Name": "/model.4/m.1/Add_output_0 copy",
  "LayerType": "Reformat",
  "Inputs": [
  {
    "Name": "/model.4/m.1/Add_output_0",
    "Location": "Device",
    "Dimensions": [1,160,80,80],
    "Format/Datatype": "Thirty-two wide channel vectorized row major Int8 format"
  }],
  "Outputs": [
  {
    "Name": "/model.4/Concat_output_0",
    "Location": "Device",
    "Dimensions": [1,160,80,80],
    "Format/Datatype": "Thirty-two wide channel vectorized row major Int8 format"
  }],
  "ParameterType": "Reformat",
  "Origin": "CONCAT",
  "TacticValue": "0x0000000000000000",
  "StreamId": 0,
  "Metadata": "[ONNX Layer: /model.4/Concat]"
},{
  "Name": "/model.4/m.2/Add_output_0 copy",
  "LayerType": "Reformat",
  "Inputs": [
  {
    "Name": "/model.4/m.2/Add_output_0",
    "Location": "Device",
    "Dimensions": [1,160,80,80],
    "Format/Datatype": "Thirty-two wide channel vectorized row major Int8 format"
  }],
  "Outputs": [
  {
    "Name": "/model.4/Concat_output_0",
    "Location": "Device",
    "Dimensions": [1,160,80,80],
    "Format/Datatype": "Thirty-two wide channel vectorized row major Int8 format"
  }],
  "ParameterType": "Reformat",
  "Origin": "CONCAT",
  "TacticValue": "0x0000000000000000",
  "StreamId": 0,
  "Metadata": "[ONNX Layer: /model.4/Concat]"
},{
  "Name": "/model.4/m.3/Add_output_0 copy",
  "LayerType": "Reformat",
  "Inputs": [
  {
    "Name": "/model.4/m.3/Add_output_0",
    "Location": "Device",
    "Dimensions": [1,160,80,80],
    "Format/Datatype": "Thirty-two wide channel vectorized row major Int8 format"
  }],
  "Outputs": [
  {
    "Name": "/model.4/Concat_output_0",
    "Location": "Device",
    "Dimensions": [1,160,80,80],
    "Format/Datatype": "Thirty-two wide channel vectorized row major Int8 format"
  }],
  "ParameterType": "Reformat",
  "Origin": "CONCAT",
  "TacticValue": "0x0000000000000000",
  "StreamId": 0,
  "Metadata": "[ONNX Layer: /model.4/Concat]"
},{
  "Name": "/model.4/m.4/Add_output_0 copy",
  "LayerType": "Reformat",
  "Inputs": [
  {
    "Name": "/model.4/m.4/Add_output_0",
    "Location": "Device",
    "Dimensions": [1,160,80,80],
    "Format/Datatype": "Thirty-two wide channel vectorized row major Int8 format"
  }],
  "Outputs": [
  {
    "Name": "/model.4/Concat_output_0",
    "Location": "Device",
    "Dimensions": [1,160,80,80],
    "Format/Datatype": "Thirty-two wide channel vectorized row major Int8 format"
  }],
  "ParameterType": "Reformat",
  "Origin": "CONCAT",
  "TacticValue": "0x0000000000000000",
  "StreamId": 0,
  "Metadata": "[ONNX Layer: /model.4/Concat]"
},{
  "Name": "/model.4/m.5/Add_output_0 copy",
  "LayerType": "Reformat",
  "Inputs": [
  {
    "Name": "/model.4/m.5/Add_output_0",
    "Location": "Device",
    "Dimensions": [1,160,80,80],
    "Format/Datatype": "Thirty-two wide channel vectorized row major Int8 format"
  }],
  "Outputs": [
  {
    "Name": "/model.4/Concat_output_0",
    "Location": "Device",
    "Dimensions": [1,160,80,80],
    "Format/Datatype": "Thirty-two wide channel vectorized row major Int8 format"
  }],
  "ParameterType": "Reformat",
  "Origin": "CONCAT",
  "TacticValue": "0x0000000000000000",
  "StreamId": 0,
  "Metadata": "[ONNX Layer: /model.4/Concat]"
},{
  "Name": "/model.4/cv2/conv/Conv + PWN(PWN(/model.4/cv2/act/Sigmoid), /model.4/cv2/act/Mul)",
  "LayerType": "CaskConvolution",
  "Inputs": [
  {
    "Name": "/model.4/Concat_output_0",
    "Location": "Device",
    "Dimensions": [1,1280,80,80],
    "Format/Datatype": "Thirty-two wide channel vectorized row major Int8 format"
  }],
  "Outputs": [
  {
    "Name": "/model.14/Concat_output_0",
    "Location": "Device",
    "Dimensions": [1,320,80,80],
    "Format/Datatype": "Thirty-two wide channel vectorized row major Int8 format"
  }],
  "ParameterType": "Convolution",
  "Kernel": [1,1],
  "PaddingMode": "kEXPLICIT_ROUND_DOWN",
  "PrePadding": [0,0],
  "PostPadding": [0,0],
  "Stride": [1,1],
  "Dilation": [1,1],
  "OutMaps": 320,
  "Groups": 1,
  "Weights": {"Type": "Int8", "Count": 409600},
  "Bias": {"Type": "Float", "Count": 320},
  "HasSparseWeights": 0,
  "HasDynamicFilter": 0,
  "HasDynamicBias": 0,
  "HasResidual": 0,
  "ConvXAsActInputIdx": -1,
  "BiasAsActInputIdx": -1,
  "ResAsActInputIdx": -1,
  "Activation": "SWISH",
  "HasBias": 1,
  "HasReLU": 0,
  "TacticName": "sm80_xmma_fprop_implicit_gemm_interleaved_i8i8_i8i32_f32_nchw_vect_c_32kcrs_vect_c_32_nchw_vect_c_32_tilesize128x128x64_stage4_warpsize2x2x1_g1_tensor16x8x32_simple_t1r1s1_swish",
  "TacticValue": "0x65a38dbc9e991257",
  "StreamId": 0,
  "Metadata": "[ONNX Layer: /model.4/cv2/conv/Conv]\u001e[ONNX Layer: /model.4/cv2/act/Sigmoid]\u001e[ONNX Layer: /model.4/cv2/act/Mul]"
},{
  "Name": "/model.5/conv/Conv + PWN(PWN(/model.5/act/Sigmoid), /model.5/act/Mul)",
  "LayerType": "CaskConvolution",
  "Inputs": [
  {
    "Name": "/model.14/Concat_output_0",
    "Location": "Device",
    "Dimensions": [1,320,80,80],
    "Format/Datatype": "Thirty-two wide channel vectorized row major Int8 format"
  }],
  "Outputs": [
  {
    "Name": "/model.5/act/Mul_output_0",
    "Location": "Device",
    "Dimensions": [1,640,40,40],
    "Format/Datatype": "Thirty-two wide channel vectorized row major Int8 format"
  }],
  "ParameterType": "Convolution",
  "Kernel": [3,3],
  "PaddingMode": "kEXPLICIT_ROUND_DOWN",
  "PrePadding": [1,1],
  "PostPadding": [1,1],
  "Stride": [2,2],
  "Dilation": [1,1],
  "OutMaps": 640,
  "Groups": 1,
  "Weights": {"Type": "Int8", "Count": 1843200},
  "Bias": {"Type": "Float", "Count": 640},
  "HasSparseWeights": 0,
  "HasDynamicFilter": 0,
  "HasDynamicBias": 0,
  "HasResidual": 0,
  "ConvXAsActInputIdx": -1,
  "BiasAsActInputIdx": -1,
  "ResAsActInputIdx": -1,
  "Activation": "SWISH",
  "HasBias": 1,
  "HasReLU": 0,
  "TacticName": "sm80_xmma_fprop_implicit_gemm_interleaved_i8i8_i8i32_f32_nchw_vect_c_32kcrs_vect_c_32_nchw_vect_c_32_tilesize128x64x64_stage6_warpsize2x2x1_g1_tensor16x8x32_t1r3s3_swish",
  "TacticValue": "0xfdf7509af98902e0",
  "StreamId": 0,
  "Metadata": "[ONNX Layer: /model.5/conv/Conv]\u001e[ONNX Layer: /model.5/act/Sigmoid]\u001e[ONNX Layer: /model.5/act/Mul]"
},{
  "Name": "/model.6/cv1/conv/Conv + PWN(PWN(/model.6/cv1/act/Sigmoid), /model.6/cv1/act/Mul)",
  "LayerType": "CaskConvolution",
  "Inputs": [
  {
    "Name": "/model.5/act/Mul_output_0",
    "Location": "Device",
    "Dimensions": [1,640,40,40],
    "Format/Datatype": "Thirty-two wide channel vectorized row major Int8 format"
  }],
  "Outputs": [
  {
    "Name": "/model.6/cv1/act/Mul_output_0",
    "Location": "Device",
    "Dimensions": [1,640,40,40],
    "Format/Datatype": "Thirty-two wide channel vectorized row major Int8 format"
  }],
  "ParameterType": "Convolution",
  "Kernel": [1,1],
  "PaddingMode": "kEXPLICIT_ROUND_DOWN",
  "PrePadding": [0,0],
  "PostPadding": [0,0],
  "Stride": [1,1],
  "Dilation": [1,1],
  "OutMaps": 640,
  "Groups": 1,
  "Weights": {"Type": "Int8", "Count": 409600},
  "Bias": {"Type": "Float", "Count": 640},
  "HasSparseWeights": 0,
  "HasDynamicFilter": 0,
  "HasDynamicBias": 0,
  "HasResidual": 0,
  "ConvXAsActInputIdx": -1,
  "BiasAsActInputIdx": -1,
  "ResAsActInputIdx": -1,
  "Activation": "SWISH",
  "HasBias": 1,
  "HasReLU": 0,
  "TacticName": "sm80_xmma_fprop_implicit_gemm_interleaved_i8i8_i8i32_f32_nchw_vect_c_32kcrs_vect_c_32_nchw_vect_c_32_tilesize128x256x64_stage4_warpsize2x4x1_g1_tensor16x8x32_simple_t1r1s1_swish",
  "TacticValue": "0x838704902abae3eb",
  "StreamId": 0,
  "Metadata": "[ONNX Layer: /model.6/cv1/conv/Conv]\u001e[ONNX Layer: /model.6/cv1/act/Sigmoid]\u001e[ONNX Layer: /model.6/cv1/act/Mul]"
},{
  "Name": "/model.6/Split_12",
  "LayerType": "Reformat",
  "Inputs": [
  {
    "Name": "/model.6/cv1/act/Mul_output_0",
    "Location": "Device",
    "Dimensions": [1,320,40,40],
    "Format/Datatype": "Thirty-two wide channel vectorized row major Int8 format"
  }],
  "Outputs": [
  {
    "Name": "/model.6/Split_output_1",
    "Location": "Device",
    "Dimensions": [1,320,40,40],
    "Format/Datatype": "Thirty-two wide channel vectorized row major Int8 format"
  }],
  "ParameterType": "Reformat",
  "Origin": "SLICE",
  "TacticValue": "0x0000000000000000",
  "StreamId": 0,
  "Metadata": "[ONNX Layer: /model.6/Split]"
},{
  "Name": "/model.6/m.0/cv1/conv/Conv + PWN(PWN(/model.6/m.0/cv1/act/Sigmoid), /model.6/m.0/cv1/act/Mul)",
  "LayerType": "CaskConvolution",
  "Inputs": [
  {
    "Name": "/model.6/Split_output_1",
    "Location": "Device",
    "Dimensions": [1,320,40,40],
    "Format/Datatype": "Thirty-two wide channel vectorized row major Int8 format"
  }],
  "Outputs": [
  {
    "Name": "/model.6/m.0/cv1/act/Mul_output_0",
    "Location": "Device",
    "Dimensions": [1,320,40,40],
    "Format/Datatype": "Thirty-two wide channel vectorized row major Int8 format"
  }],
  "ParameterType": "Convolution",
  "Kernel": [3,3],
  "PaddingMode": "kEXPLICIT_ROUND_DOWN",
  "PrePadding": [1,1],
  "PostPadding": [1,1],
  "Stride": [1,1],
  "Dilation": [1,1],
  "OutMaps": 320,
  "Groups": 1,
  "Weights": {"Type": "Int8", "Count": 921600},
  "Bias": {"Type": "Float", "Count": 320},
  "HasSparseWeights": 0,
  "HasDynamicFilter": 0,
  "HasDynamicBias": 0,
  "HasResidual": 0,
  "ConvXAsActInputIdx": -1,
  "BiasAsActInputIdx": -1,
  "ResAsActInputIdx": -1,
  "Activation": "SWISH",
  "HasBias": 1,
  "HasReLU": 0,
  "TacticName": "sm80_xmma_fprop_implicit_gemm_interleaved_i8i8_i8i32_f32_nchw_vect_c_32kcrs_vect_c_32_nchw_vect_c_32_tilesize64x64x64_stage6_warpsize2x2x1_g1_tensor16x8x32_t1r3s3_swish",
  "TacticValue": "0xc722efd60bc6ea84",
  "StreamId": 0,
  "Metadata": "[ONNX Layer: /model.6/m.0/cv1/conv/Conv]\u001e[ONNX Layer: /model.6/m.0/cv1/act/Sigmoid]\u001e[ONNX Layer: /model.6/m.0/cv1/act/Mul]"
},{
  "Name": "/model.6/m.0/cv2/conv/Conv + PWN(PWN(PWN(/model.6/m.0/cv2/act/Sigmoid), /model.6/m.0/cv2/act/Mul), /model.6/m.0/Add)",
  "LayerType": "CaskConvolution",
  "Inputs": [
  {
    "Name": "/model.6/m.0/cv1/act/Mul_output_0",
    "Location": "Device",
    "Dimensions": [1,320,40,40],
    "Format/Datatype": "Thirty-two wide channel vectorized row major Int8 format"
  },
  {
    "Name": "/model.6/Split_output_1",
    "Location": "Device",
    "Dimensions": [1,320,40,40],
    "Format/Datatype": "Thirty-two wide channel vectorized row major Int8 format"
  }],
  "Outputs": [
  {
    "Name": "/model.6/m.0/Add_output_0",
    "Location": "Device",
    "Dimensions": [1,320,40,40],
    "Format/Datatype": "Thirty-two wide channel vectorized row major Int8 format"
  }],
  "ParameterType": "Convolution",
  "Kernel": [3,3],
  "PaddingMode": "kEXPLICIT_ROUND_DOWN",
  "PrePadding": [1,1],
  "PostPadding": [1,1],
  "Stride": [1,1],
  "Dilation": [1,1],
  "OutMaps": 320,
  "Groups": 1,
  "Weights": {"Type": "Int8", "Count": 921600},
  "Bias": {"Type": "Float", "Count": 320},
  "HasSparseWeights": 0,
  "HasDynamicFilter": 0,
  "HasDynamicBias": 0,
  "HasResidual": 0,
  "ConvXAsActInputIdx": -1,
  "BiasAsActInputIdx": -1,
  "ResAsActInputIdx": -1,
  "Activation": "GENERIC",
  "ParameterSubType": "PointWiseExpression",
  "NbPointWiseExpressionInputArgs": 2,
  "PointWiseExpressionInputArgs": ["arg0", "arg1"],
  "NbPointWiseExpressionOutputVars": 1,
  "PointWiseExpressionOutputVars": ["var5"],
  "NbPointWiseExpressionParams": 0,
  "PointWiseExpressionParams": [],
  "NbPointWiseExpressionLiterals": 5,
  "PointWiseExpressionLiterals": ["0.000000e+00f", "1.000000e+00f", "0.000000e+00f", "0.000000e+00f", "5.000000e-01f"],
  "NbPointWiseExpressionOperations": 6,
  "PointWiseExpressionOperations": ["auto const var0 = pwgen::iMul(literal4, arg0);", "auto const var1 = pwgen::iTanh(var0);", "auto const var2 = pwgen::iMul(var1, literal4);", "auto const var3 = pwgen::iPlus(var2, literal4);", "auto const var4 = pwgen::iMul(arg0, var3);", "auto const var5 = pwgen::iPlus(arg1, var4);"],
  "HasBias": 1,
  "HasReLU": 0,
  "TacticName": "sm80_xmma_fprop_implicit_gemm_interleaved_i8i8_i8i32_f32_nchw_vect_c_32kcrs_vect_c_32_nchw_vect_c_32_tilesize192x64x64_stage3_warpsize4x1x1_g1_tensor16x8x32_t1r3s3",
  "TacticValue": "0xef01fb6e433afa50",
  "StreamId": 0,
  "Metadata": "[ONNX Layer: /model.6/m.0/cv2/conv/Conv]\u001e[ONNX Layer: /model.6/m.0/cv2/act/Sigmoid]\u001e[ONNX Layer: /model.6/m.0/cv2/act/Mul]\u001e[ONNX Layer: /model.6/m.0/Add]"
},{
  "Name": "/model.6/m.1/cv1/conv/Conv + PWN(PWN(/model.6/m.1/cv1/act/Sigmoid), /model.6/m.1/cv1/act/Mul)",
  "LayerType": "CaskConvolution",
  "Inputs": [
  {
    "Name": "/model.6/m.0/Add_output_0",
    "Location": "Device",
    "Dimensions": [1,320,40,40],
    "Format/Datatype": "Thirty-two wide channel vectorized row major Int8 format"
  }],
  "Outputs": [
  {
    "Name": "/model.6/m.1/cv1/act/Mul_output_0",
    "Location": "Device",
    "Dimensions": [1,320,40,40],
    "Format/Datatype": "Thirty-two wide channel vectorized row major Int8 format"
  }],
  "ParameterType": "Convolution",
  "Kernel": [3,3],
  "PaddingMode": "kEXPLICIT_ROUND_DOWN",
  "PrePadding": [1,1],
  "PostPadding": [1,1],
  "Stride": [1,1],
  "Dilation": [1,1],
  "OutMaps": 320,
  "Groups": 1,
  "Weights": {"Type": "Int8", "Count": 921600},
  "Bias": {"Type": "Float", "Count": 320},
  "HasSparseWeights": 0,
  "HasDynamicFilter": 0,
  "HasDynamicBias": 0,
  "HasResidual": 0,
  "ConvXAsActInputIdx": -1,
  "BiasAsActInputIdx": -1,
  "ResAsActInputIdx": -1,
  "Activation": "SWISH",
  "HasBias": 1,
  "HasReLU": 0,
  "TacticName": "sm80_xmma_fprop_implicit_gemm_interleaved_i8i8_i8i32_f32_nchw_vect_c_32kcrs_vect_c_32_nchw_vect_c_32_tilesize64x64x64_stage6_warpsize2x2x1_g1_tensor16x8x32_t1r3s3_swish",
  "TacticValue": "0xc722efd60bc6ea84",
  "StreamId": 0,
  "Metadata": "[ONNX Layer: /model.6/m.1/cv1/conv/Conv]\u001e[ONNX Layer: /model.6/m.1/cv1/act/Sigmoid]\u001e[ONNX Layer: /model.6/m.1/cv1/act/Mul]"
},{
  "Name": "/model.6/m.1/cv2/conv/Conv + PWN(PWN(PWN(/model.6/m.1/cv2/act/Sigmoid), /model.6/m.1/cv2/act/Mul), /model.6/m.1/Add)",
  "LayerType": "CaskConvolution",
  "Inputs": [
  {
    "Name": "/model.6/m.1/cv1/act/Mul_output_0",
    "Location": "Device",
    "Dimensions": [1,320,40,40],
    "Format/Datatype": "Thirty-two wide channel vectorized row major Int8 format"
  },
  {
    "Name": "/model.6/m.0/Add_output_0",
    "Location": "Device",
    "Dimensions": [1,320,40,40],
    "Format/Datatype": "Thirty-two wide channel vectorized row major Int8 format"
  }],
  "Outputs": [
  {
    "Name": "/model.6/m.1/Add_output_0",
    "Location": "Device",
    "Dimensions": [1,320,40,40],
    "Format/Datatype": "Thirty-two wide channel vectorized row major Int8 format"
  }],
  "ParameterType": "Convolution",
  "Kernel": [3,3],
  "PaddingMode": "kEXPLICIT_ROUND_DOWN",
  "PrePadding": [1,1],
  "PostPadding": [1,1],
  "Stride": [1,1],
  "Dilation": [1,1],
  "OutMaps": 320,
  "Groups": 1,
  "Weights": {"Type": "Int8", "Count": 921600},
  "Bias": {"Type": "Float", "Count": 320},
  "HasSparseWeights": 0,
  "HasDynamicFilter": 0,
  "HasDynamicBias": 0,
  "HasResidual": 0,
  "ConvXAsActInputIdx": -1,
  "BiasAsActInputIdx": -1,
  "ResAsActInputIdx": -1,
  "Activation": "GENERIC",
  "ParameterSubType": "PointWiseExpression",
  "NbPointWiseExpressionInputArgs": 2,
  "PointWiseExpressionInputArgs": ["arg0", "arg1"],
  "NbPointWiseExpressionOutputVars": 1,
  "PointWiseExpressionOutputVars": ["var5"],
  "NbPointWiseExpressionParams": 0,
  "PointWiseExpressionParams": [],
  "NbPointWiseExpressionLiterals": 5,
  "PointWiseExpressionLiterals": ["0.000000e+00f", "1.000000e+00f", "0.000000e+00f", "0.000000e+00f", "5.000000e-01f"],
  "NbPointWiseExpressionOperations": 6,
  "PointWiseExpressionOperations": ["auto const var0 = pwgen::iMul(literal4, arg0);", "auto const var1 = pwgen::iTanh(var0);", "auto const var2 = pwgen::iMul(var1, literal4);", "auto const var3 = pwgen::iPlus(var2, literal4);", "auto const var4 = pwgen::iMul(arg0, var3);", "auto const var5 = pwgen::iPlus(arg1, var4);"],
  "HasBias": 1,
  "HasReLU": 0,
  "TacticName": "sm80_xmma_fprop_implicit_gemm_interleaved_i8i8_i8i32_f32_nchw_vect_c_32kcrs_vect_c_32_nchw_vect_c_32_tilesize192x64x64_stage3_warpsize4x1x1_g1_tensor16x8x32_t1r3s3",
  "TacticValue": "0xef01fb6e433afa50",
  "StreamId": 0,
  "Metadata": "[ONNX Layer: /model.6/m.1/cv2/conv/Conv]\u001e[ONNX Layer: /model.6/m.1/cv2/act/Sigmoid]\u001e[ONNX Layer: /model.6/m.1/cv2/act/Mul]\u001e[ONNX Layer: /model.6/m.1/Add]"
},{
  "Name": "/model.6/m.2/cv1/conv/Conv + PWN(PWN(/model.6/m.2/cv1/act/Sigmoid), /model.6/m.2/cv1/act/Mul)",
  "LayerType": "CaskConvolution",
  "Inputs": [
  {
    "Name": "/model.6/m.1/Add_output_0",
    "Location": "Device",
    "Dimensions": [1,320,40,40],
    "Format/Datatype": "Thirty-two wide channel vectorized row major Int8 format"
  }],
  "Outputs": [
  {
    "Name": "/model.6/m.2/cv1/act/Mul_output_0",
    "Location": "Device",
    "Dimensions": [1,320,40,40],
    "Format/Datatype": "Thirty-two wide channel vectorized row major Int8 format"
  }],
  "ParameterType": "Convolution",
  "Kernel": [3,3],
  "PaddingMode": "kEXPLICIT_ROUND_DOWN",
  "PrePadding": [1,1],
  "PostPadding": [1,1],
  "Stride": [1,1],
  "Dilation": [1,1],
  "OutMaps": 320,
  "Groups": 1,
  "Weights": {"Type": "Int8", "Count": 921600},
  "Bias": {"Type": "Float", "Count": 320},
  "HasSparseWeights": 0,
  "HasDynamicFilter": 0,
  "HasDynamicBias": 0,
  "HasResidual": 0,
  "ConvXAsActInputIdx": -1,
  "BiasAsActInputIdx": -1,
  "ResAsActInputIdx": -1,
  "Activation": "SWISH",
  "HasBias": 1,
  "HasReLU": 0,
  "TacticName": "sm80_xmma_fprop_implicit_gemm_interleaved_i8i8_i8i32_f32_nchw_vect_c_32kcrs_vect_c_32_nchw_vect_c_32_tilesize64x64x64_stage6_warpsize2x2x1_g1_tensor16x8x32_t1r3s3_swish",
  "TacticValue": "0xc722efd60bc6ea84",
  "StreamId": 0,
  "Metadata": "[ONNX Layer: /model.6/m.2/cv1/conv/Conv]\u001e[ONNX Layer: /model.6/m.2/cv1/act/Sigmoid]\u001e[ONNX Layer: /model.6/m.2/cv1/act/Mul]"
},{
  "Name": "/model.6/m.2/cv2/conv/Conv + PWN(PWN(PWN(/model.6/m.2/cv2/act/Sigmoid), /model.6/m.2/cv2/act/Mul), /model.6/m.2/Add)",
  "LayerType": "CaskConvolution",
  "Inputs": [
  {
    "Name": "/model.6/m.2/cv1/act/Mul_output_0",
    "Location": "Device",
    "Dimensions": [1,320,40,40],
    "Format/Datatype": "Thirty-two wide channel vectorized row major Int8 format"
  },
  {
    "Name": "/model.6/m.1/Add_output_0",
    "Location": "Device",
    "Dimensions": [1,320,40,40],
    "Format/Datatype": "Thirty-two wide channel vectorized row major Int8 format"
  }],
  "Outputs": [
  {
    "Name": "/model.6/m.2/Add_output_0",
    "Location": "Device",
    "Dimensions": [1,320,40,40],
    "Format/Datatype": "Thirty-two wide channel vectorized row major Int8 format"
  }],
  "ParameterType": "Convolution",
  "Kernel": [3,3],
  "PaddingMode": "kEXPLICIT_ROUND_DOWN",
  "PrePadding": [1,1],
  "PostPadding": [1,1],
  "Stride": [1,1],
  "Dilation": [1,1],
  "OutMaps": 320,
  "Groups": 1,
  "Weights": {"Type": "Int8", "Count": 921600},
  "Bias": {"Type": "Float", "Count": 320},
  "HasSparseWeights": 0,
  "HasDynamicFilter": 0,
  "HasDynamicBias": 0,
  "HasResidual": 0,
  "ConvXAsActInputIdx": -1,
  "BiasAsActInputIdx": -1,
  "ResAsActInputIdx": -1,
  "Activation": "GENERIC",
  "ParameterSubType": "PointWiseExpression",
  "NbPointWiseExpressionInputArgs": 2,
  "PointWiseExpressionInputArgs": ["arg0", "arg1"],
  "NbPointWiseExpressionOutputVars": 1,
  "PointWiseExpressionOutputVars": ["var5"],
  "NbPointWiseExpressionParams": 0,
  "PointWiseExpressionParams": [],
  "NbPointWiseExpressionLiterals": 5,
  "PointWiseExpressionLiterals": ["0.000000e+00f", "1.000000e+00f", "0.000000e+00f", "0.000000e+00f", "5.000000e-01f"],
  "NbPointWiseExpressionOperations": 6,
  "PointWiseExpressionOperations": ["auto const var0 = pwgen::iMul(literal4, arg0);", "auto const var1 = pwgen::iTanh(var0);", "auto const var2 = pwgen::iMul(var1, literal4);", "auto const var3 = pwgen::iPlus(var2, literal4);", "auto const var4 = pwgen::iMul(arg0, var3);", "auto const var5 = pwgen::iPlus(arg1, var4);"],
  "HasBias": 1,
  "HasReLU": 0,
  "TacticName": "sm80_xmma_fprop_implicit_gemm_interleaved_i8i8_i8i32_f32_nchw_vect_c_32kcrs_vect_c_32_nchw_vect_c_32_tilesize192x64x64_stage3_warpsize4x1x1_g1_tensor16x8x32_t1r3s3",
  "TacticValue": "0xef01fb6e433afa50",
  "StreamId": 0,
  "Metadata": "[ONNX Layer: /model.6/m.2/cv2/conv/Conv]\u001e[ONNX Layer: /model.6/m.2/cv2/act/Sigmoid]\u001e[ONNX Layer: /model.6/m.2/cv2/act/Mul]\u001e[ONNX Layer: /model.6/m.2/Add]"
},{
  "Name": "/model.6/m.3/cv1/conv/Conv + PWN(PWN(/model.6/m.3/cv1/act/Sigmoid), /model.6/m.3/cv1/act/Mul)",
  "LayerType": "CaskConvolution",
  "Inputs": [
  {
    "Name": "/model.6/m.2/Add_output_0",
    "Location": "Device",
    "Dimensions": [1,320,40,40],
    "Format/Datatype": "Thirty-two wide channel vectorized row major Int8 format"
  }],
  "Outputs": [
  {
    "Name": "/model.6/m.3/cv1/act/Mul_output_0",
    "Location": "Device",
    "Dimensions": [1,320,40,40],
    "Format/Datatype": "Thirty-two wide channel vectorized row major Int8 format"
  }],
  "ParameterType": "Convolution",
  "Kernel": [3,3],
  "PaddingMode": "kEXPLICIT_ROUND_DOWN",
  "PrePadding": [1,1],
  "PostPadding": [1,1],
  "Stride": [1,1],
  "Dilation": [1,1],
  "OutMaps": 320,
  "Groups": 1,
  "Weights": {"Type": "Int8", "Count": 921600},
  "Bias": {"Type": "Float", "Count": 320},
  "HasSparseWeights": 0,
  "HasDynamicFilter": 0,
  "HasDynamicBias": 0,
  "HasResidual": 0,
  "ConvXAsActInputIdx": -1,
  "BiasAsActInputIdx": -1,
  "ResAsActInputIdx": -1,
  "Activation": "SWISH",
  "HasBias": 1,
  "HasReLU": 0,
  "TacticName": "sm80_xmma_fprop_implicit_gemm_interleaved_i8i8_i8i32_f32_nchw_vect_c_32kcrs_vect_c_32_nchw_vect_c_32_tilesize64x64x64_stage6_warpsize2x2x1_g1_tensor16x8x32_t1r3s3_swish",
  "TacticValue": "0xc722efd60bc6ea84",
  "StreamId": 0,
  "Metadata": "[ONNX Layer: /model.6/m.3/cv1/conv/Conv]\u001e[ONNX Layer: /model.6/m.3/cv1/act/Sigmoid]\u001e[ONNX Layer: /model.6/m.3/cv1/act/Mul]"
},{
  "Name": "/model.6/m.3/cv2/conv/Conv + PWN(PWN(PWN(/model.6/m.3/cv2/act/Sigmoid), /model.6/m.3/cv2/act/Mul), /model.6/m.3/Add)",
  "LayerType": "CaskConvolution",
  "Inputs": [
  {
    "Name": "/model.6/m.3/cv1/act/Mul_output_0",
    "Location": "Device",
    "Dimensions": [1,320,40,40],
    "Format/Datatype": "Thirty-two wide channel vectorized row major Int8 format"
  },
  {
    "Name": "/model.6/m.2/Add_output_0",
    "Location": "Device",
    "Dimensions": [1,320,40,40],
    "Format/Datatype": "Thirty-two wide channel vectorized row major Int8 format"
  }],
  "Outputs": [
  {
    "Name": "/model.6/m.3/Add_output_0",
    "Location": "Device",
    "Dimensions": [1,320,40,40],
    "Format/Datatype": "Thirty-two wide channel vectorized row major Int8 format"
  }],
  "ParameterType": "Convolution",
  "Kernel": [3,3],
  "PaddingMode": "kEXPLICIT_ROUND_DOWN",
  "PrePadding": [1,1],
  "PostPadding": [1,1],
  "Stride": [1,1],
  "Dilation": [1,1],
  "OutMaps": 320,
  "Groups": 1,
  "Weights": {"Type": "Int8", "Count": 921600},
  "Bias": {"Type": "Float", "Count": 320},
  "HasSparseWeights": 0,
  "HasDynamicFilter": 0,
  "HasDynamicBias": 0,
  "HasResidual": 0,
  "ConvXAsActInputIdx": -1,
  "BiasAsActInputIdx": -1,
  "ResAsActInputIdx": -1,
  "Activation": "GENERIC",
  "ParameterSubType": "PointWiseExpression",
  "NbPointWiseExpressionInputArgs": 2,
  "PointWiseExpressionInputArgs": ["arg0", "arg1"],
  "NbPointWiseExpressionOutputVars": 1,
  "PointWiseExpressionOutputVars": ["var5"],
  "NbPointWiseExpressionParams": 0,
  "PointWiseExpressionParams": [],
  "NbPointWiseExpressionLiterals": 5,
  "PointWiseExpressionLiterals": ["0.000000e+00f", "1.000000e+00f", "0.000000e+00f", "0.000000e+00f", "5.000000e-01f"],
  "NbPointWiseExpressionOperations": 6,
  "PointWiseExpressionOperations": ["auto const var0 = pwgen::iMul(literal4, arg0);", "auto const var1 = pwgen::iTanh(var0);", "auto const var2 = pwgen::iMul(var1, literal4);", "auto const var3 = pwgen::iPlus(var2, literal4);", "auto const var4 = pwgen::iMul(arg0, var3);", "auto const var5 = pwgen::iPlus(arg1, var4);"],
  "HasBias": 1,
  "HasReLU": 0,
  "TacticName": "sm80_xmma_fprop_implicit_gemm_interleaved_i8i8_i8i32_f32_nchw_vect_c_32kcrs_vect_c_32_nchw_vect_c_32_tilesize192x64x64_stage3_warpsize4x1x1_g1_tensor16x8x32_t1r3s3",
  "TacticValue": "0xef01fb6e433afa50",
  "StreamId": 0,
  "Metadata": "[ONNX Layer: /model.6/m.3/cv2/conv/Conv]\u001e[ONNX Layer: /model.6/m.3/cv2/act/Sigmoid]\u001e[ONNX Layer: /model.6/m.3/cv2/act/Mul]\u001e[ONNX Layer: /model.6/m.3/Add]"
},{
  "Name": "/model.6/m.4/cv1/conv/Conv + PWN(PWN(/model.6/m.4/cv1/act/Sigmoid), /model.6/m.4/cv1/act/Mul)",
  "LayerType": "CaskConvolution",
  "Inputs": [
  {
    "Name": "/model.6/m.3/Add_output_0",
    "Location": "Device",
    "Dimensions": [1,320,40,40],
    "Format/Datatype": "Thirty-two wide channel vectorized row major Int8 format"
  }],
  "Outputs": [
  {
    "Name": "/model.6/m.4/cv1/act/Mul_output_0",
    "Location": "Device",
    "Dimensions": [1,320,40,40],
    "Format/Datatype": "Thirty-two wide channel vectorized row major Int8 format"
  }],
  "ParameterType": "Convolution",
  "Kernel": [3,3],
  "PaddingMode": "kEXPLICIT_ROUND_DOWN",
  "PrePadding": [1,1],
  "PostPadding": [1,1],
  "Stride": [1,1],
  "Dilation": [1,1],
  "OutMaps": 320,
  "Groups": 1,
  "Weights": {"Type": "Int8", "Count": 921600},
  "Bias": {"Type": "Float", "Count": 320},
  "HasSparseWeights": 0,
  "HasDynamicFilter": 0,
  "HasDynamicBias": 0,
  "HasResidual": 0,
  "ConvXAsActInputIdx": -1,
  "BiasAsActInputIdx": -1,
  "ResAsActInputIdx": -1,
  "Activation": "SWISH",
  "HasBias": 1,
  "HasReLU": 0,
  "TacticName": "sm80_xmma_fprop_implicit_gemm_interleaved_i8i8_i8i32_f32_nchw_vect_c_32kcrs_vect_c_32_nchw_vect_c_32_tilesize64x64x64_stage6_warpsize2x2x1_g1_tensor16x8x32_t1r3s3_swish",
  "TacticValue": "0xc722efd60bc6ea84",
  "StreamId": 0,
  "Metadata": "[ONNX Layer: /model.6/m.4/cv1/conv/Conv]\u001e[ONNX Layer: /model.6/m.4/cv1/act/Sigmoid]\u001e[ONNX Layer: /model.6/m.4/cv1/act/Mul]"
},{
  "Name": "/model.6/m.4/cv2/conv/Conv + PWN(PWN(PWN(/model.6/m.4/cv2/act/Sigmoid), /model.6/m.4/cv2/act/Mul), /model.6/m.4/Add)",
  "LayerType": "CaskConvolution",
  "Inputs": [
  {
    "Name": "/model.6/m.4/cv1/act/Mul_output_0",
    "Location": "Device",
    "Dimensions": [1,320,40,40],
    "Format/Datatype": "Thirty-two wide channel vectorized row major Int8 format"
  },
  {
    "Name": "/model.6/m.3/Add_output_0",
    "Location": "Device",
    "Dimensions": [1,320,40,40],
    "Format/Datatype": "Thirty-two wide channel vectorized row major Int8 format"
  }],
  "Outputs": [
  {
    "Name": "/model.6/m.4/Add_output_0",
    "Location": "Device",
    "Dimensions": [1,320,40,40],
    "Format/Datatype": "Thirty-two wide channel vectorized row major Int8 format"
  }],
  "ParameterType": "Convolution",
  "Kernel": [3,3],
  "PaddingMode": "kEXPLICIT_ROUND_DOWN",
  "PrePadding": [1,1],
  "PostPadding": [1,1],
  "Stride": [1,1],
  "Dilation": [1,1],
  "OutMaps": 320,
  "Groups": 1,
  "Weights": {"Type": "Int8", "Count": 921600},
  "Bias": {"Type": "Float", "Count": 320},
  "HasSparseWeights": 0,
  "HasDynamicFilter": 0,
  "HasDynamicBias": 0,
  "HasResidual": 0,
  "ConvXAsActInputIdx": -1,
  "BiasAsActInputIdx": -1,
  "ResAsActInputIdx": -1,
  "Activation": "GENERIC",
  "ParameterSubType": "PointWiseExpression",
  "NbPointWiseExpressionInputArgs": 2,
  "PointWiseExpressionInputArgs": ["arg0", "arg1"],
  "NbPointWiseExpressionOutputVars": 1,
  "PointWiseExpressionOutputVars": ["var5"],
  "NbPointWiseExpressionParams": 0,
  "PointWiseExpressionParams": [],
  "NbPointWiseExpressionLiterals": 5,
  "PointWiseExpressionLiterals": ["0.000000e+00f", "1.000000e+00f", "0.000000e+00f", "0.000000e+00f", "5.000000e-01f"],
  "NbPointWiseExpressionOperations": 6,
  "PointWiseExpressionOperations": ["auto const var0 = pwgen::iMul(literal4, arg0);", "auto const var1 = pwgen::iTanh(var0);", "auto const var2 = pwgen::iMul(var1, literal4);", "auto const var3 = pwgen::iPlus(var2, literal4);", "auto const var4 = pwgen::iMul(arg0, var3);", "auto const var5 = pwgen::iPlus(arg1, var4);"],
  "HasBias": 1,
  "HasReLU": 0,
  "TacticName": "sm80_xmma_fprop_implicit_gemm_interleaved_i8i8_i8i32_f32_nchw_vect_c_32kcrs_vect_c_32_nchw_vect_c_32_tilesize192x64x64_stage3_warpsize4x1x1_g1_tensor16x8x32_t1r3s3",
  "TacticValue": "0xef01fb6e433afa50",
  "StreamId": 0,
  "Metadata": "[ONNX Layer: /model.6/m.4/cv2/conv/Conv]\u001e[ONNX Layer: /model.6/m.4/cv2/act/Sigmoid]\u001e[ONNX Layer: /model.6/m.4/cv2/act/Mul]\u001e[ONNX Layer: /model.6/m.4/Add]"
},{
  "Name": "/model.6/m.5/cv1/conv/Conv + PWN(PWN(/model.6/m.5/cv1/act/Sigmoid), /model.6/m.5/cv1/act/Mul)",
  "LayerType": "CaskConvolution",
  "Inputs": [
  {
    "Name": "/model.6/m.4/Add_output_0",
    "Location": "Device",
    "Dimensions": [1,320,40,40],
    "Format/Datatype": "Thirty-two wide channel vectorized row major Int8 format"
  }],
  "Outputs": [
  {
    "Name": "/model.6/m.5/cv1/act/Mul_output_0",
    "Location": "Device",
    "Dimensions": [1,320,40,40],
    "Format/Datatype": "Thirty-two wide channel vectorized row major Int8 format"
  }],
  "ParameterType": "Convolution",
  "Kernel": [3,3],
  "PaddingMode": "kEXPLICIT_ROUND_DOWN",
  "PrePadding": [1,1],
  "PostPadding": [1,1],
  "Stride": [1,1],
  "Dilation": [1,1],
  "OutMaps": 320,
  "Groups": 1,
  "Weights": {"Type": "Int8", "Count": 921600},
  "Bias": {"Type": "Float", "Count": 320},
  "HasSparseWeights": 0,
  "HasDynamicFilter": 0,
  "HasDynamicBias": 0,
  "HasResidual": 0,
  "ConvXAsActInputIdx": -1,
  "BiasAsActInputIdx": -1,
  "ResAsActInputIdx": -1,
  "Activation": "SWISH",
  "HasBias": 1,
  "HasReLU": 0,
  "TacticName": "sm80_xmma_fprop_implicit_gemm_interleaved_i8i8_i8i32_f32_nchw_vect_c_32kcrs_vect_c_32_nchw_vect_c_32_tilesize64x64x64_stage6_warpsize2x2x1_g1_tensor16x8x32_t1r3s3_swish",
  "TacticValue": "0xc722efd60bc6ea84",
  "StreamId": 0,
  "Metadata": "[ONNX Layer: /model.6/m.5/cv1/conv/Conv]\u001e[ONNX Layer: /model.6/m.5/cv1/act/Sigmoid]\u001e[ONNX Layer: /model.6/m.5/cv1/act/Mul]"
},{
  "Name": "/model.6/m.5/cv2/conv/Conv + PWN(PWN(PWN(/model.6/m.5/cv2/act/Sigmoid), /model.6/m.5/cv2/act/Mul), /model.6/m.5/Add)",
  "LayerType": "CaskConvolution",
  "Inputs": [
  {
    "Name": "/model.6/m.5/cv1/act/Mul_output_0",
    "Location": "Device",
    "Dimensions": [1,320,40,40],
    "Format/Datatype": "Thirty-two wide channel vectorized row major Int8 format"
  },
  {
    "Name": "/model.6/m.4/Add_output_0",
    "Location": "Device",
    "Dimensions": [1,320,40,40],
    "Format/Datatype": "Thirty-two wide channel vectorized row major Int8 format"
  }],
  "Outputs": [
  {
    "Name": "/model.6/m.5/Add_output_0",
    "Location": "Device",
    "Dimensions": [1,320,40,40],
    "Format/Datatype": "Thirty-two wide channel vectorized row major Int8 format"
  }],
  "ParameterType": "Convolution",
  "Kernel": [3,3],
  "PaddingMode": "kEXPLICIT_ROUND_DOWN",
  "PrePadding": [1,1],
  "PostPadding": [1,1],
  "Stride": [1,1],
  "Dilation": [1,1],
  "OutMaps": 320,
  "Groups": 1,
  "Weights": {"Type": "Int8", "Count": 921600},
  "Bias": {"Type": "Float", "Count": 320},
  "HasSparseWeights": 0,
  "HasDynamicFilter": 0,
  "HasDynamicBias": 0,
  "HasResidual": 0,
  "ConvXAsActInputIdx": -1,
  "BiasAsActInputIdx": -1,
  "ResAsActInputIdx": -1,
  "Activation": "GENERIC",
  "ParameterSubType": "PointWiseExpression",
  "NbPointWiseExpressionInputArgs": 2,
  "PointWiseExpressionInputArgs": ["arg0", "arg1"],
  "NbPointWiseExpressionOutputVars": 1,
  "PointWiseExpressionOutputVars": ["var5"],
  "NbPointWiseExpressionParams": 0,
  "PointWiseExpressionParams": [],
  "NbPointWiseExpressionLiterals": 5,
  "PointWiseExpressionLiterals": ["0.000000e+00f", "1.000000e+00f", "0.000000e+00f", "0.000000e+00f", "5.000000e-01f"],
  "NbPointWiseExpressionOperations": 6,
  "PointWiseExpressionOperations": ["auto const var0 = pwgen::iMul(literal4, arg0);", "auto const var1 = pwgen::iTanh(var0);", "auto const var2 = pwgen::iMul(var1, literal4);", "auto const var3 = pwgen::iPlus(var2, literal4);", "auto const var4 = pwgen::iMul(arg0, var3);", "auto const var5 = pwgen::iPlus(arg1, var4);"],
  "HasBias": 1,
  "HasReLU": 0,
  "TacticName": "sm80_xmma_fprop_implicit_gemm_interleaved_i8i8_i8i32_f32_nchw_vect_c_32kcrs_vect_c_32_nchw_vect_c_32_tilesize192x64x64_stage3_warpsize4x1x1_g1_tensor16x8x32_t1r3s3",
  "TacticValue": "0xef01fb6e433afa50",
  "StreamId": 0,
  "Metadata": "[ONNX Layer: /model.6/m.5/cv2/conv/Conv]\u001e[ONNX Layer: /model.6/m.5/cv2/act/Sigmoid]\u001e[ONNX Layer: /model.6/m.5/cv2/act/Mul]\u001e[ONNX Layer: /model.6/m.5/Add]"
},{
  "Name": "/model.6/Split_output_0 copy",
  "LayerType": "Reformat",
  "Inputs": [
  {
    "Name": "/model.6/cv1/act/Mul_output_0",
    "Location": "Device",
    "Dimensions": [1,320,40,40],
    "Format/Datatype": "Thirty-two wide channel vectorized row major Int8 format"
  }],
  "Outputs": [
  {
    "Name": "/model.6/Concat_output_0",
    "Location": "Device",
    "Dimensions": [1,320,40,40],
    "Format/Datatype": "Thirty-two wide channel vectorized row major Int8 format"
  }],
  "ParameterType": "Reformat",
  "Origin": "CONCAT",
  "TacticValue": "0x0000000000000000",
  "StreamId": 0,
  "Metadata": "[ONNX Layer: /model.6/Concat]"
},{
  "Name": "/model.6/Split_output_1 copy",
  "LayerType": "Reformat",
  "Inputs": [
  {
    "Name": "/model.6/Split_output_1",
    "Location": "Device",
    "Dimensions": [1,320,40,40],
    "Format/Datatype": "Thirty-two wide channel vectorized row major Int8 format"
  }],
  "Outputs": [
  {
    "Name": "/model.6/Concat_output_0",
    "Location": "Device",
    "Dimensions": [1,320,40,40],
    "Format/Datatype": "Thirty-two wide channel vectorized row major Int8 format"
  }],
  "ParameterType": "Reformat",
  "Origin": "CONCAT",
  "TacticValue": "0x0000000000000000",
  "StreamId": 0,
  "Metadata": "[ONNX Layer: /model.6/Concat]"
},{
  "Name": "/model.6/m.0/Add_output_0 copy",
  "LayerType": "Reformat",
  "Inputs": [
  {
    "Name": "/model.6/m.0/Add_output_0",
    "Location": "Device",
    "Dimensions": [1,320,40,40],
    "Format/Datatype": "Thirty-two wide channel vectorized row major Int8 format"
  }],
  "Outputs": [
  {
    "Name": "/model.6/Concat_output_0",
    "Location": "Device",
    "Dimensions": [1,320,40,40],
    "Format/Datatype": "Thirty-two wide channel vectorized row major Int8 format"
  }],
  "ParameterType": "Reformat",
  "Origin": "CONCAT",
  "TacticValue": "0x0000000000000000",
  "StreamId": 0,
  "Metadata": "[ONNX Layer: /model.6/Concat]"
},{
  "Name": "/model.6/m.1/Add_output_0 copy",
  "LayerType": "Reformat",
  "Inputs": [
  {
    "Name": "/model.6/m.1/Add_output_0",
    "Location": "Device",
    "Dimensions": [1,320,40,40],
    "Format/Datatype": "Thirty-two wide channel vectorized row major Int8 format"
  }],
  "Outputs": [
  {
    "Name": "/model.6/Concat_output_0",
    "Location": "Device",
    "Dimensions": [1,320,40,40],
    "Format/Datatype": "Thirty-two wide channel vectorized row major Int8 format"
  }],
  "ParameterType": "Reformat",
  "Origin": "CONCAT",
  "TacticValue": "0x0000000000000000",
  "StreamId": 0,
  "Metadata": "[ONNX Layer: /model.6/Concat]"
},{
  "Name": "/model.6/m.2/Add_output_0 copy",
  "LayerType": "Reformat",
  "Inputs": [
  {
    "Name": "/model.6/m.2/Add_output_0",
    "Location": "Device",
    "Dimensions": [1,320,40,40],
    "Format/Datatype": "Thirty-two wide channel vectorized row major Int8 format"
  }],
  "Outputs": [
  {
    "Name": "/model.6/Concat_output_0",
    "Location": "Device",
    "Dimensions": [1,320,40,40],
    "Format/Datatype": "Thirty-two wide channel vectorized row major Int8 format"
  }],
  "ParameterType": "Reformat",
  "Origin": "CONCAT",
  "TacticValue": "0x0000000000000000",
  "StreamId": 0,
  "Metadata": "[ONNX Layer: /model.6/Concat]"
},{
  "Name": "/model.6/m.3/Add_output_0 copy",
  "LayerType": "Reformat",
  "Inputs": [
  {
    "Name": "/model.6/m.3/Add_output_0",
    "Location": "Device",
    "Dimensions": [1,320,40,40],
    "Format/Datatype": "Thirty-two wide channel vectorized row major Int8 format"
  }],
  "Outputs": [
  {
    "Name": "/model.6/Concat_output_0",
    "Location": "Device",
    "Dimensions": [1,320,40,40],
    "Format/Datatype": "Thirty-two wide channel vectorized row major Int8 format"
  }],
  "ParameterType": "Reformat",
  "Origin": "CONCAT",
  "TacticValue": "0x0000000000000000",
  "StreamId": 0,
  "Metadata": "[ONNX Layer: /model.6/Concat]"
},{
  "Name": "/model.6/m.4/Add_output_0 copy",
  "LayerType": "Reformat",
  "Inputs": [
  {
    "Name": "/model.6/m.4/Add_output_0",
    "Location": "Device",
    "Dimensions": [1,320,40,40],
    "Format/Datatype": "Thirty-two wide channel vectorized row major Int8 format"
  }],
  "Outputs": [
  {
    "Name": "/model.6/Concat_output_0",
    "Location": "Device",
    "Dimensions": [1,320,40,40],
    "Format/Datatype": "Thirty-two wide channel vectorized row major Int8 format"
  }],
  "ParameterType": "Reformat",
  "Origin": "CONCAT",
  "TacticValue": "0x0000000000000000",
  "StreamId": 0,
  "Metadata": "[ONNX Layer: /model.6/Concat]"
},{
  "Name": "/model.6/m.5/Add_output_0 copy",
  "LayerType": "Reformat",
  "Inputs": [
  {
    "Name": "/model.6/m.5/Add_output_0",
    "Location": "Device",
    "Dimensions": [1,320,40,40],
    "Format/Datatype": "Thirty-two wide channel vectorized row major Int8 format"
  }],
  "Outputs": [
  {
    "Name": "/model.6/Concat_output_0",
    "Location": "Device",
    "Dimensions": [1,320,40,40],
    "Format/Datatype": "Thirty-two wide channel vectorized row major Int8 format"
  }],
  "ParameterType": "Reformat",
  "Origin": "CONCAT",
  "TacticValue": "0x0000000000000000",
  "StreamId": 0,
  "Metadata": "[ONNX Layer: /model.6/Concat]"
},{
  "Name": "/model.6/cv2/conv/Conv + PWN(PWN(/model.6/cv2/act/Sigmoid), /model.6/cv2/act/Mul)",
  "LayerType": "CaskConvolution",
  "Inputs": [
  {
    "Name": "/model.6/Concat_output_0",
    "Location": "Device",
    "Dimensions": [1,2560,40,40],
    "Format/Datatype": "Thirty-two wide channel vectorized row major Int8 format"
  }],
  "Outputs": [
  {
    "Name": "/model.11/Concat_output_0",
    "Location": "Device",
    "Dimensions": [1,640,40,40],
    "Format/Datatype": "Thirty-two wide channel vectorized row major Int8 format"
  }],
  "ParameterType": "Convolution",
  "Kernel": [1,1],
  "PaddingMode": "kEXPLICIT_ROUND_DOWN",
  "PrePadding": [0,0],
  "PostPadding": [0,0],
  "Stride": [1,1],
  "Dilation": [1,1],
  "OutMaps": 640,
  "Groups": 1,
  "Weights": {"Type": "Int8", "Count": 1638400},
  "Bias": {"Type": "Float", "Count": 640},
  "HasSparseWeights": 0,
  "HasDynamicFilter": 0,
  "HasDynamicBias": 0,
  "HasResidual": 0,
  "ConvXAsActInputIdx": -1,
  "BiasAsActInputIdx": -1,
  "ResAsActInputIdx": -1,
  "Activation": "SWISH",
  "HasBias": 1,
  "HasReLU": 0,
  "TacticName": "sm80_xmma_fprop_implicit_gemm_interleaved_i8i8_i8i32_f32_nchw_vect_c_32kcrs_vect_c_32_nchw_vect_c_32_tilesize128x64x64_stage6_warpsize2x2x1_g1_tensor16x8x32_simple_t1r1s1_swish",
  "TacticValue": "0x458f02d2b10db57c",
  "StreamId": 0,
  "Metadata": "[ONNX Layer: /model.6/cv2/conv/Conv]\u001e[ONNX Layer: /model.6/cv2/act/Sigmoid]\u001e[ONNX Layer: /model.6/cv2/act/Mul]"
},{
  "Name": "/model.7/conv/Conv + PWN(PWN(/model.7/act/Sigmoid), /model.7/act/Mul)",
  "LayerType": "CaskConvolution",
  "Inputs": [
  {
    "Name": "/model.11/Concat_output_0",
    "Location": "Device",
    "Dimensions": [1,640,40,40],
    "Format/Datatype": "Thirty-two wide channel vectorized row major Int8 format"
  }],
  "Outputs": [
  {
    "Name": "/model.7/act/Mul_output_0",
    "Location": "Device",
    "Dimensions": [1,640,20,20],
    "Format/Datatype": "Thirty-two wide channel vectorized row major Int8 format"
  }],
  "ParameterType": "Convolution",
  "Kernel": [3,3],
  "PaddingMode": "kEXPLICIT_ROUND_DOWN",
  "PrePadding": [1,1],
  "PostPadding": [1,1],
  "Stride": [2,2],
  "Dilation": [1,1],
  "OutMaps": 640,
  "Groups": 1,
  "Weights": {"Type": "Int8", "Count": 3686400},
  "Bias": {"Type": "Float", "Count": 640},
  "HasSparseWeights": 0,
  "HasDynamicFilter": 0,
  "HasDynamicBias": 0,
  "HasResidual": 0,
  "ConvXAsActInputIdx": -1,
  "BiasAsActInputIdx": -1,
  "ResAsActInputIdx": -1,
  "Activation": "SWISH",
  "HasBias": 1,
  "HasReLU": 0,
  "TacticName": "sm80_xmma_fprop_implicit_gemm_interleaved_i8i8_i8i32_f32_nchw_vect_c_32kcrs_vect_c_32_nchw_vect_c_32_tilesize128x64x64_stage6_warpsize2x2x1_g1_tensor16x8x32_t1r3s3_swish",
  "TacticValue": "0xfdf7509af98902e0",
  "StreamId": 0,
  "Metadata": "[ONNX Layer: /model.7/conv/Conv]\u001e[ONNX Layer: /model.7/act/Sigmoid]\u001e[ONNX Layer: /model.7/act/Mul]"
},{
  "Name": "/model.8/cv1/conv/Conv + PWN(PWN(/model.8/cv1/act/Sigmoid), /model.8/cv1/act/Mul)",
  "LayerType": "CaskConvolution",
  "Inputs": [
  {
    "Name": "/model.7/act/Mul_output_0",
    "Location": "Device",
    "Dimensions": [1,640,20,20],
    "Format/Datatype": "Thirty-two wide channel vectorized row major Int8 format"
  }],
  "Outputs": [
  {
    "Name": "/model.8/cv1/act/Mul_output_0",
    "Location": "Device",
    "Dimensions": [1,640,20,20],
    "Format/Datatype": "Thirty-two wide channel vectorized row major Int8 format"
  }],
  "ParameterType": "Convolution",
  "Kernel": [1,1],
  "PaddingMode": "kEXPLICIT_ROUND_DOWN",
  "PrePadding": [0,0],
  "PostPadding": [0,0],
  "Stride": [1,1],
  "Dilation": [1,1],
  "OutMaps": 640,
  "Groups": 1,
  "Weights": {"Type": "Int8", "Count": 409600},
  "Bias": {"Type": "Float", "Count": 640},
  "HasSparseWeights": 0,
  "HasDynamicFilter": 0,
  "HasDynamicBias": 0,
  "HasResidual": 0,
  "ConvXAsActInputIdx": -1,
  "BiasAsActInputIdx": -1,
  "ResAsActInputIdx": -1,
  "Activation": "SWISH",
  "HasBias": 1,
  "HasReLU": 0,
  "TacticName": "sm80_xmma_fprop_implicit_gemm_interleaved_i8i8_i8i32_f32_nchw_vect_c_32kcrs_vect_c_32_nchw_vect_c_32_tilesize128x64x64_stage6_warpsize2x2x1_g1_tensor16x8x32_simple_t1r1s1_swish",
  "TacticValue": "0x458f02d2b10db57c",
  "StreamId": 0,
  "Metadata": "[ONNX Layer: /model.8/cv1/conv/Conv]\u001e[ONNX Layer: /model.8/cv1/act/Sigmoid]\u001e[ONNX Layer: /model.8/cv1/act/Mul]"
},{
  "Name": "/model.8/m.0/cv1/conv/Conv + PWN(PWN(/model.8/m.0/cv1/act/Sigmoid), /model.8/m.0/cv1/act/Mul)",
  "LayerType": "CaskConvolution",
  "Inputs": [
  {
    "Name": "/model.8/cv1/act/Mul_output_0",
    "Location": "Device",
    "Dimensions": [1,320,20,20],
    "Format/Datatype": "Thirty-two wide channel vectorized row major Int8 format"
  }],
  "Outputs": [
  {
    "Name": "/model.8/m.0/cv1/act/Mul_output_0",
    "Location": "Device",
    "Dimensions": [1,320,20,20],
    "Format/Datatype": "Thirty-two wide channel vectorized row major Int8 format"
  }],
  "ParameterType": "Convolution",
  "Kernel": [3,3],
  "PaddingMode": "kEXPLICIT_ROUND_DOWN",
  "PrePadding": [1,1],
  "PostPadding": [1,1],
  "Stride": [1,1],
  "Dilation": [1,1],
  "OutMaps": 320,
  "Groups": 1,
  "Weights": {"Type": "Int8", "Count": 921600},
  "Bias": {"Type": "Float", "Count": 320},
  "HasSparseWeights": 0,
  "HasDynamicFilter": 0,
  "HasDynamicBias": 0,
  "HasResidual": 0,
  "ConvXAsActInputIdx": -1,
  "BiasAsActInputIdx": -1,
  "ResAsActInputIdx": -1,
  "Activation": "SWISH",
  "HasBias": 1,
  "HasReLU": 0,
  "TacticName": "sm80_xmma_fprop_implicit_gemm_interleaved_i8i8_i8i32_f32_nchw_vect_c_32kcrs_vect_c_32_nchw_vect_c_32_tilesize64x32x64_stage6_warpsize2x1x1_g1_tensor16x8x32_t1r3s3_swish",
  "TacticValue": "0x6176c23707257237",
  "StreamId": 0,
  "Metadata": "[ONNX Layer: /model.8/m.0/cv1/conv/Conv]\u001e[ONNX Layer: /model.8/m.0/cv1/act/Sigmoid]\u001e[ONNX Layer: /model.8/m.0/cv1/act/Mul]"
},{
  "Name": "/model.8/m.0/cv2/conv/Conv",
  "LayerType": "CaskConvolution",
  "Inputs": [
  {
    "Name": "/model.8/m.0/cv1/act/Mul_output_0",
    "Location": "Device",
    "Dimensions": [1,320,20,20],
    "Format/Datatype": "Thirty-two wide channel vectorized row major Int8 format"
  }],
  "Outputs": [
  {
    "Name": "/model.8/m.0/cv2/conv/Conv_output_0",
    "Location": "Device",
    "Dimensions": [1,320,20,20],
    "Format/Datatype": "Thirty-two wide channel vectorized row major Int8 format"
  }],
  "ParameterType": "Convolution",
  "Kernel": [3,3],
  "PaddingMode": "kEXPLICIT_ROUND_DOWN",
  "PrePadding": [1,1],
  "PostPadding": [1,1],
  "Stride": [1,1],
  "Dilation": [1,1],
  "OutMaps": 320,
  "Groups": 1,
  "Weights": {"Type": "Int8", "Count": 921600},
  "Bias": {"Type": "Float", "Count": 320},
  "HasSparseWeights": 0,
  "HasDynamicFilter": 0,
  "HasDynamicBias": 0,
  "HasResidual": 0,
  "ConvXAsActInputIdx": -1,
  "BiasAsActInputIdx": -1,
  "ResAsActInputIdx": -1,
  "Activation": "NONE",
  "HasBias": 1,
  "HasReLU": 0,
  "TacticName": "sm80_xmma_fprop_implicit_gemm_interleaved_i8i8_i8i32_f32_nchw_vect_c_32kcrs_vect_c_32_nchw_vect_c_32_tilesize64x32x64_stage6_warpsize2x1x1_g1_tensor16x8x32_t1r3s3",
  "TacticValue": "0x2f34f689bfca5071",
  "StreamId": 0,
  "Metadata": "[ONNX Layer: /model.8/m.0/cv2/conv/Conv]"
},{
  "Name": "PWN(PWN(PWN(/model.8/m.0/cv2/act/Sigmoid), /model.8/m.0/cv2/act/Mul), /model.8/m.0/Add)",
  "LayerType": "PointWiseV2",
  "Inputs": [
  {
    "Name": "/model.8/m.0/cv2/conv/Conv_output_0",
    "Location": "Device",
    "Dimensions": [1,320,20,20],
    "Format/Datatype": "Thirty-two wide channel vectorized row major Int8 format"
  },
  {
    "Name": "/model.8/cv1/act/Mul_output_0",
    "Location": "Device",
    "Dimensions": [1,320,20,20],
    "Format/Datatype": "Thirty-two wide channel vectorized row major Int8 format"
  }],
  "Outputs": [
  {
    "Name": "/model.8/m.0/Add_output_0",
    "Location": "Device",
    "Dimensions": [1,320,20,20],
    "Format/Datatype": "Thirty-two wide channel vectorized row major Int8 format"
  }],
  "ParameterType": "PointWise",
  "ParameterSubType": "PointWiseExpression",
  "NbInputArgs": 2,
  "InputArgs": ["arg0", "arg1"],
  "NbOutputVars": 1,
  "OutputVars": ["var5"],
  "NbParams": 0,
  "Params": [],
  "NbLiterals": 5,
  "Literals": ["0.000000e+00f", "1.000000e+00f", "0.000000e+00f", "0.000000e+00f", "5.000000e-01f"],
  "NbOperations": 6,
  "Operations": ["auto const var0 = pwgen::iMul(literal4, arg0);", "auto const var1 = pwgen::iTanh(var0);", "auto const var2 = pwgen::iMul(var1, literal4);", "auto const var3 = pwgen::iPlus(var2, literal4);", "auto const var4 = pwgen::iMul(arg0, var3);", "auto const var5 = pwgen::iPlus(arg1, var4);"],
  "TacticValue": "0x0000000000000018",
  "StreamId": 0,
  "Metadata": "[ONNX Layer: /model.8/m.0/cv2/act/Sigmoid]\u001e[ONNX Layer: /model.8/m.0/cv2/act/Mul]\u001e[ONNX Layer: /model.8/m.0/Add]"
},{
  "Name": "/model.8/m.1/cv1/conv/Conv + PWN(PWN(/model.8/m.1/cv1/act/Sigmoid), /model.8/m.1/cv1/act/Mul)",
  "LayerType": "CaskConvolution",
  "Inputs": [
  {
    "Name": "/model.8/m.0/Add_output_0",
    "Location": "Device",
    "Dimensions": [1,320,20,20],
    "Format/Datatype": "Thirty-two wide channel vectorized row major Int8 format"
  }],
  "Outputs": [
  {
    "Name": "/model.8/m.1/cv1/act/Mul_output_0",
    "Location": "Device",
    "Dimensions": [1,320,20,20],
    "Format/Datatype": "Thirty-two wide channel vectorized row major Int8 format"
  }],
  "ParameterType": "Convolution",
  "Kernel": [3,3],
  "PaddingMode": "kEXPLICIT_ROUND_DOWN",
  "PrePadding": [1,1],
  "PostPadding": [1,1],
  "Stride": [1,1],
  "Dilation": [1,1],
  "OutMaps": 320,
  "Groups": 1,
  "Weights": {"Type": "Int8", "Count": 921600},
  "Bias": {"Type": "Float", "Count": 320},
  "HasSparseWeights": 0,
  "HasDynamicFilter": 0,
  "HasDynamicBias": 0,
  "HasResidual": 0,
  "ConvXAsActInputIdx": -1,
  "BiasAsActInputIdx": -1,
  "ResAsActInputIdx": -1,
  "Activation": "SWISH",
  "HasBias": 1,
  "HasReLU": 0,
  "TacticName": "sm80_xmma_fprop_implicit_gemm_interleaved_i8i8_i8i32_f32_nchw_vect_c_32kcrs_vect_c_32_nchw_vect_c_32_tilesize64x32x64_stage6_warpsize2x1x1_g1_tensor16x8x32_t1r3s3_swish",
  "TacticValue": "0x6176c23707257237",
  "StreamId": 0,
  "Metadata": "[ONNX Layer: /model.8/m.1/cv1/conv/Conv]\u001e[ONNX Layer: /model.8/m.1/cv1/act/Sigmoid]\u001e[ONNX Layer: /model.8/m.1/cv1/act/Mul]"
},{
  "Name": "/model.8/m.1/cv2/conv/Conv",
  "LayerType": "CaskConvolution",
  "Inputs": [
  {
    "Name": "/model.8/m.1/cv1/act/Mul_output_0",
    "Location": "Device",
    "Dimensions": [1,320,20,20],
    "Format/Datatype": "Thirty-two wide channel vectorized row major Int8 format"
  }],
  "Outputs": [
  {
    "Name": "/model.8/m.1/cv2/conv/Conv_output_0",
    "Location": "Device",
    "Dimensions": [1,320,20,20],
    "Format/Datatype": "Thirty-two wide channel vectorized row major Int8 format"
  }],
  "ParameterType": "Convolution",
  "Kernel": [3,3],
  "PaddingMode": "kEXPLICIT_ROUND_DOWN",
  "PrePadding": [1,1],
  "PostPadding": [1,1],
  "Stride": [1,1],
  "Dilation": [1,1],
  "OutMaps": 320,
  "Groups": 1,
  "Weights": {"Type": "Int8", "Count": 921600},
  "Bias": {"Type": "Float", "Count": 320},
  "HasSparseWeights": 0,
  "HasDynamicFilter": 0,
  "HasDynamicBias": 0,
  "HasResidual": 0,
  "ConvXAsActInputIdx": -1,
  "BiasAsActInputIdx": -1,
  "ResAsActInputIdx": -1,
  "Activation": "NONE",
  "HasBias": 1,
  "HasReLU": 0,
  "TacticName": "sm80_xmma_fprop_implicit_gemm_interleaved_i8i8_i8i32_f32_nchw_vect_c_32kcrs_vect_c_32_nchw_vect_c_32_tilesize64x32x64_stage6_warpsize2x1x1_g1_tensor16x8x32_t1r3s3",
  "TacticValue": "0x2f34f689bfca5071",
  "StreamId": 0,
  "Metadata": "[ONNX Layer: /model.8/m.1/cv2/conv/Conv]"
},{
  "Name": "PWN(PWN(PWN(/model.8/m.1/cv2/act/Sigmoid), /model.8/m.1/cv2/act/Mul), /model.8/m.1/Add)",
  "LayerType": "PointWiseV2",
  "Inputs": [
  {
    "Name": "/model.8/m.1/cv2/conv/Conv_output_0",
    "Location": "Device",
    "Dimensions": [1,320,20,20],
    "Format/Datatype": "Thirty-two wide channel vectorized row major Int8 format"
  },
  {
    "Name": "/model.8/m.0/Add_output_0",
    "Location": "Device",
    "Dimensions": [1,320,20,20],
    "Format/Datatype": "Thirty-two wide channel vectorized row major Int8 format"
  }],
  "Outputs": [
  {
    "Name": "/model.8/m.1/Add_output_0",
    "Location": "Device",
    "Dimensions": [1,320,20,20],
    "Format/Datatype": "Thirty-two wide channel vectorized row major Int8 format"
  }],
  "ParameterType": "PointWise",
  "ParameterSubType": "PointWiseExpression",
  "NbInputArgs": 2,
  "InputArgs": ["arg0", "arg1"],
  "NbOutputVars": 1,
  "OutputVars": ["var5"],
  "NbParams": 0,
  "Params": [],
  "NbLiterals": 5,
  "Literals": ["0.000000e+00f", "1.000000e+00f", "0.000000e+00f", "0.000000e+00f", "5.000000e-01f"],
  "NbOperations": 6,
  "Operations": ["auto const var0 = pwgen::iMul(literal4, arg0);", "auto const var1 = pwgen::iTanh(var0);", "auto const var2 = pwgen::iMul(var1, literal4);", "auto const var3 = pwgen::iPlus(var2, literal4);", "auto const var4 = pwgen::iMul(arg0, var3);", "auto const var5 = pwgen::iPlus(arg1, var4);"],
  "TacticValue": "0x0000000000000018",
  "StreamId": 0,
  "Metadata": "[ONNX Layer: /model.8/m.1/cv2/act/Sigmoid]\u001e[ONNX Layer: /model.8/m.1/cv2/act/Mul]\u001e[ONNX Layer: /model.8/m.1/Add]"
},{
  "Name": "/model.8/m.2/cv1/conv/Conv + PWN(PWN(/model.8/m.2/cv1/act/Sigmoid), /model.8/m.2/cv1/act/Mul)",
  "LayerType": "CaskConvolution",
  "Inputs": [
  {
    "Name": "/model.8/m.1/Add_output_0",
    "Location": "Device",
    "Dimensions": [1,320,20,20],
    "Format/Datatype": "Thirty-two wide channel vectorized row major Int8 format"
  }],
  "Outputs": [
  {
    "Name": "/model.8/m.2/cv1/act/Mul_output_0",
    "Location": "Device",
    "Dimensions": [1,320,20,20],
    "Format/Datatype": "Thirty-two wide channel vectorized row major Int8 format"
  }],
  "ParameterType": "Convolution",
  "Kernel": [3,3],
  "PaddingMode": "kEXPLICIT_ROUND_DOWN",
  "PrePadding": [1,1],
  "PostPadding": [1,1],
  "Stride": [1,1],
  "Dilation": [1,1],
  "OutMaps": 320,
  "Groups": 1,
  "Weights": {"Type": "Int8", "Count": 921600},
  "Bias": {"Type": "Float", "Count": 320},
  "HasSparseWeights": 0,
  "HasDynamicFilter": 0,
  "HasDynamicBias": 0,
  "HasResidual": 0,
  "ConvXAsActInputIdx": -1,
  "BiasAsActInputIdx": -1,
  "ResAsActInputIdx": -1,
  "Activation": "SWISH",
  "HasBias": 1,
  "HasReLU": 0,
  "TacticName": "sm80_xmma_fprop_implicit_gemm_interleaved_i8i8_i8i32_f32_nchw_vect_c_32kcrs_vect_c_32_nchw_vect_c_32_tilesize64x32x64_stage6_warpsize2x1x1_g1_tensor16x8x32_t1r3s3_swish",
  "TacticValue": "0x6176c23707257237",
  "StreamId": 0,
  "Metadata": "[ONNX Layer: /model.8/m.2/cv1/conv/Conv]\u001e[ONNX Layer: /model.8/m.2/cv1/act/Sigmoid]\u001e[ONNX Layer: /model.8/m.2/cv1/act/Mul]"
},{
  "Name": "/model.8/m.2/cv2/conv/Conv",
  "LayerType": "CaskConvolution",
  "Inputs": [
  {
    "Name": "/model.8/m.2/cv1/act/Mul_output_0",
    "Location": "Device",
    "Dimensions": [1,320,20,20],
    "Format/Datatype": "Thirty-two wide channel vectorized row major Int8 format"
  }],
  "Outputs": [
  {
    "Name": "/model.8/m.2/cv2/conv/Conv_output_0",
    "Location": "Device",
    "Dimensions": [1,320,20,20],
    "Format/Datatype": "Thirty-two wide channel vectorized row major Int8 format"
  }],
  "ParameterType": "Convolution",
  "Kernel": [3,3],
  "PaddingMode": "kEXPLICIT_ROUND_DOWN",
  "PrePadding": [1,1],
  "PostPadding": [1,1],
  "Stride": [1,1],
  "Dilation": [1,1],
  "OutMaps": 320,
  "Groups": 1,
  "Weights": {"Type": "Int8", "Count": 921600},
  "Bias": {"Type": "Float", "Count": 320},
  "HasSparseWeights": 0,
  "HasDynamicFilter": 0,
  "HasDynamicBias": 0,
  "HasResidual": 0,
  "ConvXAsActInputIdx": -1,
  "BiasAsActInputIdx": -1,
  "ResAsActInputIdx": -1,
  "Activation": "NONE",
  "HasBias": 1,
  "HasReLU": 0,
  "TacticName": "sm80_xmma_fprop_implicit_gemm_interleaved_i8i8_i8i32_f32_nchw_vect_c_32kcrs_vect_c_32_nchw_vect_c_32_tilesize64x32x64_stage6_warpsize2x1x1_g1_tensor16x8x32_t1r3s3",
  "TacticValue": "0x2f34f689bfca5071",
  "StreamId": 0,
  "Metadata": "[ONNX Layer: /model.8/m.2/cv2/conv/Conv]"
},{
  "Name": "PWN(PWN(PWN(/model.8/m.2/cv2/act/Sigmoid), /model.8/m.2/cv2/act/Mul), /model.8/m.2/Add)",
  "LayerType": "PointWiseV2",
  "Inputs": [
  {
    "Name": "/model.8/m.2/cv2/conv/Conv_output_0",
    "Location": "Device",
    "Dimensions": [1,320,20,20],
    "Format/Datatype": "Thirty-two wide channel vectorized row major Int8 format"
  },
  {
    "Name": "/model.8/m.1/Add_output_0",
    "Location": "Device",
    "Dimensions": [1,320,20,20],
    "Format/Datatype": "Thirty-two wide channel vectorized row major Int8 format"
  }],
  "Outputs": [
  {
    "Name": "/model.8/Concat_output_0",
    "Location": "Device",
    "Dimensions": [1,320,20,20],
    "Format/Datatype": "Thirty-two wide channel vectorized row major Int8 format"
  }],
  "ParameterType": "PointWise",
  "ParameterSubType": "PointWiseExpression",
  "NbInputArgs": 2,
  "InputArgs": ["arg0", "arg1"],
  "NbOutputVars": 1,
  "OutputVars": ["var5"],
  "NbParams": 0,
  "Params": [],
  "NbLiterals": 5,
  "Literals": ["0.000000e+00f", "1.000000e+00f", "0.000000e+00f", "0.000000e+00f", "5.000000e-01f"],
  "NbOperations": 6,
  "Operations": ["auto const var0 = pwgen::iMul(literal4, arg0);", "auto const var1 = pwgen::iTanh(var0);", "auto const var2 = pwgen::iMul(var1, literal4);", "auto const var3 = pwgen::iPlus(var2, literal4);", "auto const var4 = pwgen::iMul(arg0, var3);", "auto const var5 = pwgen::iPlus(arg1, var4);"],
  "TacticValue": "0x0000000000000018",
  "StreamId": 0,
  "Metadata": "[ONNX Layer: /model.8/m.2/cv2/act/Sigmoid]\u001e[ONNX Layer: /model.8/m.2/cv2/act/Mul]\u001e[ONNX Layer: /model.8/m.2/Add]"
},{
  "Name": "/model.8/Split_output_0 copy",
  "LayerType": "Reformat",
  "Inputs": [
  {
    "Name": "/model.8/cv1/act/Mul_output_0",
    "Location": "Device",
    "Dimensions": [1,320,20,20],
    "Format/Datatype": "Thirty-two wide channel vectorized row major Int8 format"
  }],
  "Outputs": [
  {
    "Name": "/model.8/Concat_output_0",
    "Location": "Device",
    "Dimensions": [1,320,20,20],
    "Format/Datatype": "Thirty-two wide channel vectorized row major Int8 format"
  }],
  "ParameterType": "Reformat",
  "Origin": "CONCAT",
  "TacticValue": "0x0000000000000000",
  "StreamId": 0,
  "Metadata": "[ONNX Layer: /model.8/Concat]"
},{
  "Name": "/model.8/Split_output_1 copy",
  "LayerType": "Reformat",
  "Inputs": [
  {
    "Name": "/model.8/cv1/act/Mul_output_0",
    "Location": "Device",
    "Dimensions": [1,320,20,20],
    "Format/Datatype": "Thirty-two wide channel vectorized row major Int8 format"
  }],
  "Outputs": [
  {
    "Name": "/model.8/Concat_output_0",
    "Location": "Device",
    "Dimensions": [1,320,20,20],
    "Format/Datatype": "Thirty-two wide channel vectorized row major Int8 format"
  }],
  "ParameterType": "Reformat",
  "Origin": "CONCAT",
  "TacticValue": "0x0000000000000000",
  "StreamId": 0,
  "Metadata": "[ONNX Layer: /model.8/Concat]"
},{
  "Name": "/model.8/m.0/Add_output_0 copy",
  "LayerType": "Reformat",
  "Inputs": [
  {
    "Name": "/model.8/m.0/Add_output_0",
    "Location": "Device",
    "Dimensions": [1,320,20,20],
    "Format/Datatype": "Thirty-two wide channel vectorized row major Int8 format"
  }],
  "Outputs": [
  {
    "Name": "/model.8/Concat_output_0",
    "Location": "Device",
    "Dimensions": [1,320,20,20],
    "Format/Datatype": "Thirty-two wide channel vectorized row major Int8 format"
  }],
  "ParameterType": "Reformat",
  "Origin": "CONCAT",
  "TacticValue": "0x0000000000000000",
  "StreamId": 0,
  "Metadata": "[ONNX Layer: /model.8/Concat]"
},{
  "Name": "/model.8/m.1/Add_output_0 copy",
  "LayerType": "Reformat",
  "Inputs": [
  {
    "Name": "/model.8/m.1/Add_output_0",
    "Location": "Device",
    "Dimensions": [1,320,20,20],
    "Format/Datatype": "Thirty-two wide channel vectorized row major Int8 format"
  }],
  "Outputs": [
  {
    "Name": "/model.8/Concat_output_0",
    "Location": "Device",
    "Dimensions": [1,320,20,20],
    "Format/Datatype": "Thirty-two wide channel vectorized row major Int8 format"
  }],
  "ParameterType": "Reformat",
  "Origin": "CONCAT",
  "TacticValue": "0x0000000000000000",
  "StreamId": 0,
  "Metadata": "[ONNX Layer: /model.8/Concat]"
},{
  "Name": "/model.8/cv2/conv/Conv + PWN(PWN(/model.8/cv2/act/Sigmoid), /model.8/cv2/act/Mul)",
  "LayerType": "CaskConvolution",
  "Inputs": [
  {
    "Name": "/model.8/Concat_output_0",
    "Location": "Device",
    "Dimensions": [1,1600,20,20],
    "Format/Datatype": "Thirty-two wide channel vectorized row major Int8 format"
  }],
  "Outputs": [
  {
    "Name": "/model.8/cv2/act/Mul_output_0",
    "Location": "Device",
    "Dimensions": [1,640,20,20],
    "Format/Datatype": "Thirty-two wide channel vectorized row major Int8 format"
  }],
  "ParameterType": "Convolution",
  "Kernel": [1,1],
  "PaddingMode": "kEXPLICIT_ROUND_DOWN",
  "PrePadding": [0,0],
  "PostPadding": [0,0],
  "Stride": [1,1],
  "Dilation": [1,1],
  "OutMaps": 640,
  "Groups": 1,
  "Weights": {"Type": "Int8", "Count": 1024000},
  "Bias": {"Type": "Float", "Count": 640},
  "HasSparseWeights": 0,
  "HasDynamicFilter": 0,
  "HasDynamicBias": 0,
  "HasResidual": 0,
  "ConvXAsActInputIdx": -1,
  "BiasAsActInputIdx": -1,
  "ResAsActInputIdx": -1,
  "Activation": "SWISH",
  "HasBias": 1,
  "HasReLU": 0,
  "TacticName": "sm80_xmma_fprop_implicit_gemm_interleaved_i8i8_i8i32_f32_nchw_vect_c_32kcrs_vect_c_32_nchw_vect_c_32_tilesize128x64x64_stage6_warpsize2x2x1_g1_tensor16x8x32_simple_t1r1s1_swish",
  "TacticValue": "0x458f02d2b10db57c",
  "StreamId": 0,
  "Metadata": "[ONNX Layer: /model.8/cv2/conv/Conv]\u001e[ONNX Layer: /model.8/cv2/act/Sigmoid]\u001e[ONNX Layer: /model.8/cv2/act/Mul]"
},{
  "Name": "/model.9/cv1/conv/Conv + PWN(PWN(/model.9/cv1/act/Sigmoid), /model.9/cv1/act/Mul)",
  "LayerType": "CaskConvolution",
  "Inputs": [
  {
    "Name": "/model.8/cv2/act/Mul_output_0",
    "Location": "Device",
    "Dimensions": [1,640,20,20],
    "Format/Datatype": "Thirty-two wide channel vectorized row major Int8 format"
  }],
  "Outputs": [
  {
    "Name": "/model.9/cv1/act/Mul_output_0",
    "Location": "Device",
    "Dimensions": [1,320,20,20],
    "Format/Datatype": "Thirty-two wide channel vectorized row major Int8 format"
  }],
  "ParameterType": "Convolution",
  "Kernel": [1,1],
  "PaddingMode": "kEXPLICIT_ROUND_DOWN",
  "PrePadding": [0,0],
  "PostPadding": [0,0],
  "Stride": [1,1],
  "Dilation": [1,1],
  "OutMaps": 320,
  "Groups": 1,
  "Weights": {"Type": "Int8", "Count": 204800},
  "Bias": {"Type": "Float", "Count": 320},
  "HasSparseWeights": 0,
  "HasDynamicFilter": 0,
  "HasDynamicBias": 0,
  "HasResidual": 0,
  "ConvXAsActInputIdx": -1,
  "BiasAsActInputIdx": -1,
  "ResAsActInputIdx": -1,
  "Activation": "SWISH",
  "HasBias": 1,
  "HasReLU": 0,
  "TacticName": "sm80_xmma_fprop_implicit_gemm_interleaved_i8i8_i8i32_f32_nchw_vect_c_32kcrs_vect_c_32_nchw_vect_c_32_tilesize64x64x64_stage6_warpsize2x2x1_g1_tensor16x8x32_simple_t1r1s1_swish",
  "TacticValue": "0x2eba0b6a8ec55fa3",
  "StreamId": 0,
  "Metadata": "[ONNX Layer: /model.9/cv1/conv/Conv]\u001e[ONNX Layer: /model.9/cv1/act/Sigmoid]\u001e[ONNX Layer: /model.9/cv1/act/Mul]"
},{
  "Name": "/model.9/m/MaxPool",
  "LayerType": "CaskPooling",
  "Inputs": [
  {
    "Name": "/model.9/cv1/act/Mul_output_0",
    "Location": "Device",
    "Dimensions": [1,320,20,20],
    "Format/Datatype": "Thirty-two wide channel vectorized row major Int8 format"
  }],
  "Outputs": [
  {
    "Name": "/model.9/m/MaxPool_output_0",
    "Location": "Device",
    "Dimensions": [1,320,20,20],
    "Format/Datatype": "Thirty-two wide channel vectorized row major Int8 format"
  }],
  "ParameterType": "Pooling",
  "PoolingType": "MAX",
  "WindowSize": [5,5],
  "PaddingMode": "kEXPLICIT_ROUND_DOWN",
  "PrePadding": [2,2],
  "PostPadding": [2,2],
  "Stride": [1,1],
  "BlendFactor": 0,
  "AverageCountExcludesPadding": 1,
  "TacticName": "sm72_xmma_pooling_IMMA_NCxHW32_generic_kMAX",
  "TacticValue": "0x94215b398b8eb3ba",
  "StreamId": 0,
  "Metadata": "[ONNX Layer: /model.9/m/MaxPool]"
},{
  "Name": "/model.9/m_1/MaxPool",
  "LayerType": "CaskPooling",
  "Inputs": [
  {
    "Name": "/model.9/m/MaxPool_output_0",
    "Location": "Device",
    "Dimensions": [1,320,20,20],
    "Format/Datatype": "Thirty-two wide channel vectorized row major Int8 format"
  }],
  "Outputs": [
  {
    "Name": "/model.9/m_1/MaxPool_output_0",
    "Location": "Device",
    "Dimensions": [1,320,20,20],
    "Format/Datatype": "Thirty-two wide channel vectorized row major Int8 format"
  }],
  "ParameterType": "Pooling",
  "PoolingType": "MAX",
  "WindowSize": [5,5],
  "PaddingMode": "kEXPLICIT_ROUND_DOWN",
  "PrePadding": [2,2],
  "PostPadding": [2,2],
  "Stride": [1,1],
  "BlendFactor": 0,
  "AverageCountExcludesPadding": 1,
  "TacticName": "sm72_xmma_pooling_IMMA_NCxHW32_generic_kMAX",
  "TacticValue": "0x94215b398b8eb3ba",
  "StreamId": 0,
  "Metadata": "[ONNX Layer: /model.9/m_1/MaxPool]"
},{
  "Name": "/model.9/m_2/MaxPool",
  "LayerType": "CaskPooling",
  "Inputs": [
  {
    "Name": "/model.9/m_1/MaxPool_output_0",
    "Location": "Device",
    "Dimensions": [1,320,20,20],
    "Format/Datatype": "Thirty-two wide channel vectorized row major Int8 format"
  }],
  "Outputs": [
  {
    "Name": "/model.9/Concat_output_0",
    "Location": "Device",
    "Dimensions": [1,320,20,20],
    "Format/Datatype": "Thirty-two wide channel vectorized row major Int8 format"
  }],
  "ParameterType": "Pooling",
  "PoolingType": "MAX",
  "WindowSize": [5,5],
  "PaddingMode": "kEXPLICIT_ROUND_DOWN",
  "PrePadding": [2,2],
  "PostPadding": [2,2],
  "Stride": [1,1],
  "BlendFactor": 0,
  "AverageCountExcludesPadding": 1,
  "TacticName": "sm72_xmma_pooling_IMMA_NCxHW32_generic_kMAX",
  "TacticValue": "0x94215b398b8eb3ba",
  "StreamId": 0,
  "Metadata": "[ONNX Layer: /model.9/m_2/MaxPool]"
},{
  "Name": "/model.9/cv1/act/Mul_output_0 copy",
  "LayerType": "Reformat",
  "Inputs": [
  {
    "Name": "/model.9/cv1/act/Mul_output_0",
    "Location": "Device",
    "Dimensions": [1,320,20,20],
    "Format/Datatype": "Thirty-two wide channel vectorized row major Int8 format"
  }],
  "Outputs": [
  {
    "Name": "/model.9/Concat_output_0",
    "Location": "Device",
    "Dimensions": [1,320,20,20],
    "Format/Datatype": "Thirty-two wide channel vectorized row major Int8 format"
  }],
  "ParameterType": "Reformat",
  "Origin": "CONCAT",
  "TacticValue": "0x0000000000000000",
  "StreamId": 0,
  "Metadata": "[ONNX Layer: /model.9/Concat]"
},{
  "Name": "/model.9/m/MaxPool_output_0 copy",
  "LayerType": "Reformat",
  "Inputs": [
  {
    "Name": "/model.9/m/MaxPool_output_0",
    "Location": "Device",
    "Dimensions": [1,320,20,20],
    "Format/Datatype": "Thirty-two wide channel vectorized row major Int8 format"
  }],
  "Outputs": [
  {
    "Name": "/model.9/Concat_output_0",
    "Location": "Device",
    "Dimensions": [1,320,20,20],
    "Format/Datatype": "Thirty-two wide channel vectorized row major Int8 format"
  }],
  "ParameterType": "Reformat",
  "Origin": "CONCAT",
  "TacticValue": "0x0000000000000000",
  "StreamId": 0,
  "Metadata": "[ONNX Layer: /model.9/Concat]"
},{
  "Name": "/model.9/m_1/MaxPool_output_0 copy",
  "LayerType": "Reformat",
  "Inputs": [
  {
    "Name": "/model.9/m_1/MaxPool_output_0",
    "Location": "Device",
    "Dimensions": [1,320,20,20],
    "Format/Datatype": "Thirty-two wide channel vectorized row major Int8 format"
  }],
  "Outputs": [
  {
    "Name": "/model.9/Concat_output_0",
    "Location": "Device",
    "Dimensions": [1,320,20,20],
    "Format/Datatype": "Thirty-two wide channel vectorized row major Int8 format"
  }],
  "ParameterType": "Reformat",
  "Origin": "CONCAT",
  "TacticValue": "0x0000000000000000",
  "StreamId": 0,
  "Metadata": "[ONNX Layer: /model.9/Concat]"
},{
  "Name": "/model.9/cv2/conv/Conv + PWN(PWN(/model.9/cv2/act/Sigmoid), /model.9/cv2/act/Mul)",
  "LayerType": "CaskConvolution",
  "Inputs": [
  {
    "Name": "/model.9/Concat_output_0",
    "Location": "Device",
    "Dimensions": [1,1280,20,20],
    "Format/Datatype": "Thirty-two wide channel vectorized row major Int8 format"
  }],
  "Outputs": [
  {
    "Name": "/model.9/cv2/act/Mul_output_0",
    "Location": "Device",
    "Dimensions": [1,640,20,20],
    "Format/Datatype": "Thirty-two wide channel vectorized row major Int8 format"
  }],
  "ParameterType": "Convolution",
  "Kernel": [1,1],
  "PaddingMode": "kEXPLICIT_ROUND_DOWN",
  "PrePadding": [0,0],
  "PostPadding": [0,0],
  "Stride": [1,1],
  "Dilation": [1,1],
  "OutMaps": 640,
  "Groups": 1,
  "Weights": {"Type": "Int8", "Count": 819200},
  "Bias": {"Type": "Float", "Count": 640},
  "HasSparseWeights": 0,
  "HasDynamicFilter": 0,
  "HasDynamicBias": 0,
  "HasResidual": 0,
  "ConvXAsActInputIdx": -1,
  "BiasAsActInputIdx": -1,
  "ResAsActInputIdx": -1,
  "Activation": "SWISH",
  "HasBias": 1,
  "HasReLU": 0,
  "TacticName": "sm80_xmma_fprop_implicit_gemm_interleaved_i8i8_i8i32_f32_nchw_vect_c_32kcrs_vect_c_32_nchw_vect_c_32_tilesize128x64x64_stage6_warpsize2x2x1_g1_tensor16x8x32_simple_t1r1s1_swish",
  "TacticValue": "0x458f02d2b10db57c",
  "StreamId": 0,
  "Metadata": "[ONNX Layer: /model.9/cv2/conv/Conv]\u001e[ONNX Layer: /model.9/cv2/act/Sigmoid]\u001e[ONNX Layer: /model.9/cv2/act/Mul]"
},{
  "Name": "/model.10/Resize",
  "LayerType": "Resize",
  "Inputs": [
  {
    "Name": "/model.9/cv2/act/Mul_output_0",
    "Location": "Device",
    "Dimensions": [1,640,20,20],
    "Format/Datatype": "Thirty-two wide channel vectorized row major Int8 format"
  }],
  "Outputs": [
  {
    "Name": "/model.10/Resize_output_0",
    "Location": "Device",
    "Dimensions": [1,640,40,40],
    "Format/Datatype": "Thirty-two wide channel vectorized row major Int8 format"
  }],
  "ParameterType": "Resize",
  "ResizeMode": "NEAREST",
  "ResizeScales": [1, 1, 2, 2, 0, 0, 0, 0],
  "ExcludeOutside": 0,
  "CubicCoeff": -0.75,
  "CoordTransform": "kASYMMETRIC",
  "ResizeSelector": "kFORMULA",
  "NNRounding": "kFLOOR",
  "TacticValue": "0x0000000000000005",
  "StreamId": 0,
  "Metadata": "[ONNX Layer: /model.10/Resize]"
},{
  "Name": "/model.10/Resize_output_0 copy",
  "LayerType": "Reformat",
  "Inputs": [
  {
    "Name": "/model.10/Resize_output_0",
    "Location": "Device",
    "Dimensions": [1,640,40,40],
    "Format/Datatype": "Thirty-two wide channel vectorized row major Int8 format"
  }],
  "Outputs": [
  {
    "Name": "/model.11/Concat_output_0",
    "Location": "Device",
    "Dimensions": [1,640,40,40],
    "Format/Datatype": "Thirty-two wide channel vectorized row major Int8 format"
  }],
  "ParameterType": "Reformat",
  "Origin": "CONCAT",
  "TacticValue": "0x0000000000000000",
  "StreamId": 0,
  "Metadata": "[ONNX Layer: /model.11/Concat]"
},{
  "Name": "/model.12/cv1/conv/Conv + PWN(PWN(/model.12/cv1/act/Sigmoid), /model.12/cv1/act/Mul)",
  "LayerType": "CaskConvolution",
  "Inputs": [
  {
    "Name": "/model.11/Concat_output_0",
    "Location": "Device",
    "Dimensions": [1,1280,40,40],
    "Format/Datatype": "Thirty-two wide channel vectorized row major Int8 format"
  }],
  "Outputs": [
  {
    "Name": "/model.12/cv1/act/Mul_output_0",
    "Location": "Device",
    "Dimensions": [1,640,40,40],
    "Format/Datatype": "Thirty-two wide channel vectorized row major Int8 format"
  }],
  "ParameterType": "Convolution",
  "Kernel": [1,1],
  "PaddingMode": "kEXPLICIT_ROUND_DOWN",
  "PrePadding": [0,0],
  "PostPadding": [0,0],
  "Stride": [1,1],
  "Dilation": [1,1],
  "OutMaps": 640,
  "Groups": 1,
  "Weights": {"Type": "Int8", "Count": 819200},
  "Bias": {"Type": "Float", "Count": 640},
  "HasSparseWeights": 0,
  "HasDynamicFilter": 0,
  "HasDynamicBias": 0,
  "HasResidual": 0,
  "ConvXAsActInputIdx": -1,
  "BiasAsActInputIdx": -1,
  "ResAsActInputIdx": -1,
  "Activation": "SWISH",
  "HasBias": 1,
  "HasReLU": 0,
  "TacticName": "sm80_xmma_fprop_implicit_gemm_interleaved_i8i8_i8i32_f32_nchw_vect_c_32kcrs_vect_c_32_nchw_vect_c_32_tilesize256x128x64_stage4_warpsize4x2x1_g1_tensor16x8x32_simple_t1r1s1_swish",
  "TacticValue": "0x0e1225de5ed2825a",
  "StreamId": 0,
  "Metadata": "[ONNX Layer: /model.12/cv1/conv/Conv]\u001e[ONNX Layer: /model.12/cv1/act/Sigmoid]\u001e[ONNX Layer: /model.12/cv1/act/Mul]"
},{
  "Name": "/model.12/m.0/cv1/conv/Conv + PWN(PWN(/model.12/m.0/cv1/act/Sigmoid), /model.12/m.0/cv1/act/Mul)",
  "LayerType": "CaskConvolution",
  "Inputs": [
  {
    "Name": "/model.12/cv1/act/Mul_output_0",
    "Location": "Device",
    "Dimensions": [1,320,40,40],
    "Format/Datatype": "Thirty-two wide channel vectorized row major Int8 format"
  }],
  "Outputs": [
  {
    "Name": "/model.12/m.0/cv1/act/Mul_output_0",
    "Location": "Device",
    "Dimensions": [1,320,40,40],
    "Format/Datatype": "Thirty-two wide channel vectorized row major Int8 format"
  }],
  "ParameterType": "Convolution",
  "Kernel": [3,3],
  "PaddingMode": "kEXPLICIT_ROUND_DOWN",
  "PrePadding": [1,1],
  "PostPadding": [1,1],
  "Stride": [1,1],
  "Dilation": [1,1],
  "OutMaps": 320,
  "Groups": 1,
  "Weights": {"Type": "Int8", "Count": 921600},
  "Bias": {"Type": "Float", "Count": 320},
  "HasSparseWeights": 0,
  "HasDynamicFilter": 0,
  "HasDynamicBias": 0,
  "HasResidual": 0,
  "ConvXAsActInputIdx": -1,
  "BiasAsActInputIdx": -1,
  "ResAsActInputIdx": -1,
  "Activation": "SWISH",
  "HasBias": 1,
  "HasReLU": 0,
  "TacticName": "sm80_xmma_fprop_implicit_gemm_interleaved_i8i8_i8i32_f32_nchw_vect_c_32kcrs_vect_c_32_nchw_vect_c_32_tilesize64x64x64_stage6_warpsize2x2x1_g1_tensor16x8x32_t1r3s3_swish",
  "TacticValue": "0xc722efd60bc6ea84",
  "StreamId": 0,
  "Metadata": "[ONNX Layer: /model.12/m.0/cv1/conv/Conv]\u001e[ONNX Layer: /model.12/m.0/cv1/act/Sigmoid]\u001e[ONNX Layer: /model.12/m.0/cv1/act/Mul]"
},{
  "Name": "/model.12/m.0/cv2/conv/Conv + PWN(PWN(/model.12/m.0/cv2/act/Sigmoid), /model.12/m.0/cv2/act/Mul)",
  "LayerType": "CaskConvolution",
  "Inputs": [
  {
    "Name": "/model.12/m.0/cv1/act/Mul_output_0",
    "Location": "Device",
    "Dimensions": [1,320,40,40],
    "Format/Datatype": "Thirty-two wide channel vectorized row major Int8 format"
  }],
  "Outputs": [
  {
    "Name": "/model.12/m.0/cv2/act/Mul_output_0",
    "Location": "Device",
    "Dimensions": [1,320,40,40],
    "Format/Datatype": "Thirty-two wide channel vectorized row major Int8 format"
  }],
  "ParameterType": "Convolution",
  "Kernel": [3,3],
  "PaddingMode": "kEXPLICIT_ROUND_DOWN",
  "PrePadding": [1,1],
  "PostPadding": [1,1],
  "Stride": [1,1],
  "Dilation": [1,1],
  "OutMaps": 320,
  "Groups": 1,
  "Weights": {"Type": "Int8", "Count": 921600},
  "Bias": {"Type": "Float", "Count": 320},
  "HasSparseWeights": 0,
  "HasDynamicFilter": 0,
  "HasDynamicBias": 0,
  "HasResidual": 0,
  "ConvXAsActInputIdx": -1,
  "BiasAsActInputIdx": -1,
  "ResAsActInputIdx": -1,
  "Activation": "SWISH",
  "HasBias": 1,
  "HasReLU": 0,
  "TacticName": "sm80_xmma_fprop_implicit_gemm_interleaved_i8i8_i8i32_f32_nchw_vect_c_32kcrs_vect_c_32_nchw_vect_c_32_tilesize64x64x64_stage6_warpsize2x2x1_g1_tensor16x8x32_t1r3s3_swish",
  "TacticValue": "0xc722efd60bc6ea84",
  "StreamId": 0,
  "Metadata": "[ONNX Layer: /model.12/m.0/cv2/conv/Conv]\u001e[ONNX Layer: /model.12/m.0/cv2/act/Sigmoid]\u001e[ONNX Layer: /model.12/m.0/cv2/act/Mul]"
},{
  "Name": "/model.12/m.1/cv1/conv/Conv + PWN(PWN(/model.12/m.1/cv1/act/Sigmoid), /model.12/m.1/cv1/act/Mul)",
  "LayerType": "CaskConvolution",
  "Inputs": [
  {
    "Name": "/model.12/m.0/cv2/act/Mul_output_0",
    "Location": "Device",
    "Dimensions": [1,320,40,40],
    "Format/Datatype": "Thirty-two wide channel vectorized row major Int8 format"
  }],
  "Outputs": [
  {
    "Name": "/model.12/m.1/cv1/act/Mul_output_0",
    "Location": "Device",
    "Dimensions": [1,320,40,40],
    "Format/Datatype": "Thirty-two wide channel vectorized row major Int8 format"
  }],
  "ParameterType": "Convolution",
  "Kernel": [3,3],
  "PaddingMode": "kEXPLICIT_ROUND_DOWN",
  "PrePadding": [1,1],
  "PostPadding": [1,1],
  "Stride": [1,1],
  "Dilation": [1,1],
  "OutMaps": 320,
  "Groups": 1,
  "Weights": {"Type": "Int8", "Count": 921600},
  "Bias": {"Type": "Float", "Count": 320},
  "HasSparseWeights": 0,
  "HasDynamicFilter": 0,
  "HasDynamicBias": 0,
  "HasResidual": 0,
  "ConvXAsActInputIdx": -1,
  "BiasAsActInputIdx": -1,
  "ResAsActInputIdx": -1,
  "Activation": "SWISH",
  "HasBias": 1,
  "HasReLU": 0,
  "TacticName": "sm80_xmma_fprop_implicit_gemm_interleaved_i8i8_i8i32_f32_nchw_vect_c_32kcrs_vect_c_32_nchw_vect_c_32_tilesize64x64x64_stage6_warpsize2x2x1_g1_tensor16x8x32_t1r3s3_swish",
  "TacticValue": "0xc722efd60bc6ea84",
  "StreamId": 0,
  "Metadata": "[ONNX Layer: /model.12/m.1/cv1/conv/Conv]\u001e[ONNX Layer: /model.12/m.1/cv1/act/Sigmoid]\u001e[ONNX Layer: /model.12/m.1/cv1/act/Mul]"
},{
  "Name": "/model.12/m.1/cv2/conv/Conv + PWN(PWN(/model.12/m.1/cv2/act/Sigmoid), /model.12/m.1/cv2/act/Mul)",
  "LayerType": "CaskConvolution",
  "Inputs": [
  {
    "Name": "/model.12/m.1/cv1/act/Mul_output_0",
    "Location": "Device",
    "Dimensions": [1,320,40,40],
    "Format/Datatype": "Thirty-two wide channel vectorized row major Int8 format"
  }],
  "Outputs": [
  {
    "Name": "/model.12/m.1/cv2/act/Mul_output_0",
    "Location": "Device",
    "Dimensions": [1,320,40,40],
    "Format/Datatype": "Thirty-two wide channel vectorized row major Int8 format"
  }],
  "ParameterType": "Convolution",
  "Kernel": [3,3],
  "PaddingMode": "kEXPLICIT_ROUND_DOWN",
  "PrePadding": [1,1],
  "PostPadding": [1,1],
  "Stride": [1,1],
  "Dilation": [1,1],
  "OutMaps": 320,
  "Groups": 1,
  "Weights": {"Type": "Int8", "Count": 921600},
  "Bias": {"Type": "Float", "Count": 320},
  "HasSparseWeights": 0,
  "HasDynamicFilter": 0,
  "HasDynamicBias": 0,
  "HasResidual": 0,
  "ConvXAsActInputIdx": -1,
  "BiasAsActInputIdx": -1,
  "ResAsActInputIdx": -1,
  "Activation": "SWISH",
  "HasBias": 1,
  "HasReLU": 0,
  "TacticName": "sm80_xmma_fprop_implicit_gemm_interleaved_i8i8_i8i32_f32_nchw_vect_c_32kcrs_vect_c_32_nchw_vect_c_32_tilesize64x64x64_stage6_warpsize2x2x1_g1_tensor16x8x32_t1r3s3_swish",
  "TacticValue": "0xc722efd60bc6ea84",
  "StreamId": 0,
  "Metadata": "[ONNX Layer: /model.12/m.1/cv2/conv/Conv]\u001e[ONNX Layer: /model.12/m.1/cv2/act/Sigmoid]\u001e[ONNX Layer: /model.12/m.1/cv2/act/Mul]"
},{
  "Name": "/model.12/m.2/cv1/conv/Conv + PWN(PWN(/model.12/m.2/cv1/act/Sigmoid), /model.12/m.2/cv1/act/Mul)",
  "LayerType": "CaskConvolution",
  "Inputs": [
  {
    "Name": "/model.12/m.1/cv2/act/Mul_output_0",
    "Location": "Device",
    "Dimensions": [1,320,40,40],
    "Format/Datatype": "Thirty-two wide channel vectorized row major Int8 format"
  }],
  "Outputs": [
  {
    "Name": "/model.12/m.2/cv1/act/Mul_output_0",
    "Location": "Device",
    "Dimensions": [1,320,40,40],
    "Format/Datatype": "Thirty-two wide channel vectorized row major Int8 format"
  }],
  "ParameterType": "Convolution",
  "Kernel": [3,3],
  "PaddingMode": "kEXPLICIT_ROUND_DOWN",
  "PrePadding": [1,1],
  "PostPadding": [1,1],
  "Stride": [1,1],
  "Dilation": [1,1],
  "OutMaps": 320,
  "Groups": 1,
  "Weights": {"Type": "Int8", "Count": 921600},
  "Bias": {"Type": "Float", "Count": 320},
  "HasSparseWeights": 0,
  "HasDynamicFilter": 0,
  "HasDynamicBias": 0,
  "HasResidual": 0,
  "ConvXAsActInputIdx": -1,
  "BiasAsActInputIdx": -1,
  "ResAsActInputIdx": -1,
  "Activation": "SWISH",
  "HasBias": 1,
  "HasReLU": 0,
  "TacticName": "sm80_xmma_fprop_implicit_gemm_interleaved_i8i8_i8i32_f32_nchw_vect_c_32kcrs_vect_c_32_nchw_vect_c_32_tilesize64x64x64_stage6_warpsize2x2x1_g1_tensor16x8x32_t1r3s3_swish",
  "TacticValue": "0xc722efd60bc6ea84",
  "StreamId": 0,
  "Metadata": "[ONNX Layer: /model.12/m.2/cv1/conv/Conv]\u001e[ONNX Layer: /model.12/m.2/cv1/act/Sigmoid]\u001e[ONNX Layer: /model.12/m.2/cv1/act/Mul]"
},{
  "Name": "/model.12/m.2/cv2/conv/Conv + PWN(PWN(/model.12/m.2/cv2/act/Sigmoid), /model.12/m.2/cv2/act/Mul)",
  "LayerType": "CaskConvolution",
  "Inputs": [
  {
    "Name": "/model.12/m.2/cv1/act/Mul_output_0",
    "Location": "Device",
    "Dimensions": [1,320,40,40],
    "Format/Datatype": "Thirty-two wide channel vectorized row major Int8 format"
  }],
  "Outputs": [
  {
    "Name": "/model.12/Concat_output_0",
    "Location": "Device",
    "Dimensions": [1,320,40,40],
    "Format/Datatype": "Thirty-two wide channel vectorized row major Int8 format"
  }],
  "ParameterType": "Convolution",
  "Kernel": [3,3],
  "PaddingMode": "kEXPLICIT_ROUND_DOWN",
  "PrePadding": [1,1],
  "PostPadding": [1,1],
  "Stride": [1,1],
  "Dilation": [1,1],
  "OutMaps": 320,
  "Groups": 1,
  "Weights": {"Type": "Int8", "Count": 921600},
  "Bias": {"Type": "Float", "Count": 320},
  "HasSparseWeights": 0,
  "HasDynamicFilter": 0,
  "HasDynamicBias": 0,
  "HasResidual": 0,
  "ConvXAsActInputIdx": -1,
  "BiasAsActInputIdx": -1,
  "ResAsActInputIdx": -1,
  "Activation": "SWISH",
  "HasBias": 1,
  "HasReLU": 0,
  "TacticName": "sm80_xmma_fprop_implicit_gemm_interleaved_i8i8_i8i32_f32_nchw_vect_c_32kcrs_vect_c_32_nchw_vect_c_32_tilesize64x64x64_stage6_warpsize2x2x1_g1_tensor16x8x32_t1r3s3_swish",
  "TacticValue": "0xc722efd60bc6ea84",
  "StreamId": 0,
  "Metadata": "[ONNX Layer: /model.12/m.2/cv2/conv/Conv]\u001e[ONNX Layer: /model.12/m.2/cv2/act/Sigmoid]\u001e[ONNX Layer: /model.12/m.2/cv2/act/Mul]"
},{
  "Name": "/model.12/Split_output_0 copy",
  "LayerType": "Reformat",
  "Inputs": [
  {
    "Name": "/model.12/cv1/act/Mul_output_0",
    "Location": "Device",
    "Dimensions": [1,320,40,40],
    "Format/Datatype": "Thirty-two wide channel vectorized row major Int8 format"
  }],
  "Outputs": [
  {
    "Name": "/model.12/Concat_output_0",
    "Location": "Device",
    "Dimensions": [1,320,40,40],
    "Format/Datatype": "Thirty-two wide channel vectorized row major Int8 format"
  }],
  "ParameterType": "Reformat",
  "Origin": "CONCAT",
  "TacticValue": "0x0000000000000000",
  "StreamId": 0,
  "Metadata": "[ONNX Layer: /model.12/Concat]"
},{
  "Name": "/model.12/Split_output_1 copy",
  "LayerType": "Reformat",
  "Inputs": [
  {
    "Name": "/model.12/cv1/act/Mul_output_0",
    "Location": "Device",
    "Dimensions": [1,320,40,40],
    "Format/Datatype": "Thirty-two wide channel vectorized row major Int8 format"
  }],
  "Outputs": [
  {
    "Name": "/model.12/Concat_output_0",
    "Location": "Device",
    "Dimensions": [1,320,40,40],
    "Format/Datatype": "Thirty-two wide channel vectorized row major Int8 format"
  }],
  "ParameterType": "Reformat",
  "Origin": "CONCAT",
  "TacticValue": "0x0000000000000000",
  "StreamId": 0,
  "Metadata": "[ONNX Layer: /model.12/Concat]"
},{
  "Name": "/model.12/m.0/cv2/act/Mul_output_0 copy",
  "LayerType": "Reformat",
  "Inputs": [
  {
    "Name": "/model.12/m.0/cv2/act/Mul_output_0",
    "Location": "Device",
    "Dimensions": [1,320,40,40],
    "Format/Datatype": "Thirty-two wide channel vectorized row major Int8 format"
  }],
  "Outputs": [
  {
    "Name": "/model.12/Concat_output_0",
    "Location": "Device",
    "Dimensions": [1,320,40,40],
    "Format/Datatype": "Thirty-two wide channel vectorized row major Int8 format"
  }],
  "ParameterType": "Reformat",
  "Origin": "CONCAT",
  "TacticValue": "0x0000000000000000",
  "StreamId": 0,
  "Metadata": "[ONNX Layer: /model.12/Concat]"
},{
  "Name": "/model.12/m.1/cv2/act/Mul_output_0 copy",
  "LayerType": "Reformat",
  "Inputs": [
  {
    "Name": "/model.12/m.1/cv2/act/Mul_output_0",
    "Location": "Device",
    "Dimensions": [1,320,40,40],
    "Format/Datatype": "Thirty-two wide channel vectorized row major Int8 format"
  }],
  "Outputs": [
  {
    "Name": "/model.12/Concat_output_0",
    "Location": "Device",
    "Dimensions": [1,320,40,40],
    "Format/Datatype": "Thirty-two wide channel vectorized row major Int8 format"
  }],
  "ParameterType": "Reformat",
  "Origin": "CONCAT",
  "TacticValue": "0x0000000000000000",
  "StreamId": 0,
  "Metadata": "[ONNX Layer: /model.12/Concat]"
},{
  "Name": "/model.12/cv2/conv/Conv + PWN(PWN(/model.12/cv2/act/Sigmoid), /model.12/cv2/act/Mul)",
  "LayerType": "CaskConvolution",
  "Inputs": [
  {
    "Name": "/model.12/Concat_output_0",
    "Location": "Device",
    "Dimensions": [1,1600,40,40],
    "Format/Datatype": "Thirty-two wide channel vectorized row major Int8 format"
  }],
  "Outputs": [
  {
    "Name": "/model.12/cv2/act/Mul_output_0",
    "Location": "Device",
    "Dimensions": [1,640,40,40],
    "Format/Datatype": "Thirty-two wide channel vectorized row major Int8 format"
  }],
  "ParameterType": "Convolution",
  "Kernel": [1,1],
  "PaddingMode": "kEXPLICIT_ROUND_DOWN",
  "PrePadding": [0,0],
  "PostPadding": [0,0],
  "Stride": [1,1],
  "Dilation": [1,1],
  "OutMaps": 640,
  "Groups": 1,
  "Weights": {"Type": "Int8", "Count": 1024000},
  "Bias": {"Type": "Float", "Count": 640},
  "HasSparseWeights": 0,
  "HasDynamicFilter": 0,
  "HasDynamicBias": 0,
  "HasResidual": 0,
  "ConvXAsActInputIdx": -1,
  "BiasAsActInputIdx": -1,
  "ResAsActInputIdx": -1,
  "Activation": "SWISH",
  "HasBias": 1,
  "HasReLU": 0,
  "TacticName": "sm80_xmma_fprop_implicit_gemm_interleaved_i8i8_i8i32_f32_nchw_vect_c_32kcrs_vect_c_32_nchw_vect_c_32_tilesize128x64x64_stage6_warpsize2x2x1_g1_tensor16x8x32_simple_t1r1s1_swish",
  "TacticValue": "0x458f02d2b10db57c",
  "StreamId": 0,
  "Metadata": "[ONNX Layer: /model.12/cv2/conv/Conv]\u001e[ONNX Layer: /model.12/cv2/act/Sigmoid]\u001e[ONNX Layer: /model.12/cv2/act/Mul]"
},{
  "Name": "/model.13/Resize",
  "LayerType": "Resize",
  "Inputs": [
  {
    "Name": "/model.12/cv2/act/Mul_output_0",
    "Location": "Device",
    "Dimensions": [1,640,40,40],
    "Format/Datatype": "Thirty-two wide channel vectorized row major Int8 format"
  }],
  "Outputs": [
  {
    "Name": "/model.13/Resize_output_0",
    "Location": "Device",
    "Dimensions": [1,640,80,80],
    "Format/Datatype": "Thirty-two wide channel vectorized row major Int8 format"
  }],
  "ParameterType": "Resize",
  "ResizeMode": "NEAREST",
  "ResizeScales": [1, 1, 2, 2, 0, 0, 0, 0],
  "ExcludeOutside": 0,
  "CubicCoeff": -0.75,
  "CoordTransform": "kASYMMETRIC",
  "ResizeSelector": "kFORMULA",
  "NNRounding": "kFLOOR",
  "TacticValue": "0x0000000000000005",
  "StreamId": 0,
  "Metadata": "[ONNX Layer: /model.13/Resize]"
},{
  "Name": "/model.13/Resize_output_0 copy",
  "LayerType": "Reformat",
  "Inputs": [
  {
    "Name": "/model.13/Resize_output_0",
    "Location": "Device",
    "Dimensions": [1,640,80,80],
    "Format/Datatype": "Thirty-two wide channel vectorized row major Int8 format"
  }],
  "Outputs": [
  {
    "Name": "/model.14/Concat_output_0",
    "Location": "Device",
    "Dimensions": [1,640,80,80],
    "Format/Datatype": "Thirty-two wide channel vectorized row major Int8 format"
  }],
  "ParameterType": "Reformat",
  "Origin": "CONCAT",
  "TacticValue": "0x0000000000000000",
  "StreamId": 0,
  "Metadata": "[ONNX Layer: /model.14/Concat]"
},{
  "Name": "/model.15/cv1/conv/Conv + PWN(PWN(/model.15/cv1/act/Sigmoid), /model.15/cv1/act/Mul)",
  "LayerType": "CaskConvolution",
  "Inputs": [
  {
    "Name": "/model.14/Concat_output_0",
    "Location": "Device",
    "Dimensions": [1,960,80,80],
    "Format/Datatype": "Thirty-two wide channel vectorized row major Int8 format"
  }],
  "Outputs": [
  {
    "Name": "/model.15/cv1/act/Mul_output_0",
    "Location": "Device",
    "Dimensions": [1,320,80,80],
    "Format/Datatype": "Thirty-two wide channel vectorized row major Int8 format"
  }],
  "ParameterType": "Convolution",
  "Kernel": [1,1],
  "PaddingMode": "kEXPLICIT_ROUND_DOWN",
  "PrePadding": [0,0],
  "PostPadding": [0,0],
  "Stride": [1,1],
  "Dilation": [1,1],
  "OutMaps": 320,
  "Groups": 1,
  "Weights": {"Type": "Int8", "Count": 307200},
  "Bias": {"Type": "Float", "Count": 320},
  "HasSparseWeights": 0,
  "HasDynamicFilter": 0,
  "HasDynamicBias": 0,
  "HasResidual": 0,
  "ConvXAsActInputIdx": -1,
  "BiasAsActInputIdx": -1,
  "ResAsActInputIdx": -1,
  "Activation": "SWISH",
  "HasBias": 1,
  "HasReLU": 0,
  "TacticName": "sm80_xmma_fprop_implicit_gemm_interleaved_i8i8_i8i32_f32_nchw_vect_c_32kcrs_vect_c_32_nchw_vect_c_32_tilesize128x128x64_stage4_warpsize2x2x1_g1_tensor16x8x32_simple_t1r1s1_swish",
  "TacticValue": "0x65a38dbc9e991257",
  "StreamId": 0,
  "Metadata": "[ONNX Layer: /model.15/cv1/conv/Conv]\u001e[ONNX Layer: /model.15/cv1/act/Sigmoid]\u001e[ONNX Layer: /model.15/cv1/act/Mul]"
},{
  "Name": "/model.15/m.0/cv1/conv/Conv + PWN(PWN(/model.15/m.0/cv1/act/Sigmoid), /model.15/m.0/cv1/act/Mul)",
  "LayerType": "CaskConvolution",
  "Inputs": [
  {
    "Name": "/model.15/cv1/act/Mul_output_0",
    "Location": "Device",
    "Dimensions": [1,160,80,80],
    "Format/Datatype": "Thirty-two wide channel vectorized row major Int8 format"
  }],
  "Outputs": [
  {
    "Name": "/model.15/m.0/cv1/act/Mul_output_0",
    "Location": "Device",
    "Dimensions": [1,160,80,80],
    "Format/Datatype": "Thirty-two wide channel vectorized row major Int8 format"
  }],
  "ParameterType": "Convolution",
  "Kernel": [3,3],
  "PaddingMode": "kEXPLICIT_ROUND_DOWN",
  "PrePadding": [1,1],
  "PostPadding": [1,1],
  "Stride": [1,1],
  "Dilation": [1,1],
  "OutMaps": 160,
  "Groups": 1,
  "Weights": {"Type": "Int8", "Count": 230400},
  "Bias": {"Type": "Float", "Count": 160},
  "HasSparseWeights": 0,
  "HasDynamicFilter": 0,
  "HasDynamicBias": 0,
  "HasResidual": 0,
  "ConvXAsActInputIdx": -1,
  "BiasAsActInputIdx": -1,
  "ResAsActInputIdx": -1,
  "Activation": "SWISH",
  "HasBias": 1,
  "HasReLU": 0,
  "TacticName": "sm80_xmma_fprop_implicit_gemm_interleaved_i8i8_i8i32_f32_nchw_vect_c_32kcrs_vect_c_32_nchw_vect_c_32_tilesize128x64x64_stage6_warpsize2x2x1_g1_tensor16x8x32_t1r3s3_swish",
  "TacticValue": "0xfdf7509af98902e0",
  "StreamId": 0,
  "Metadata": "[ONNX Layer: /model.15/m.0/cv1/conv/Conv]\u001e[ONNX Layer: /model.15/m.0/cv1/act/Sigmoid]\u001e[ONNX Layer: /model.15/m.0/cv1/act/Mul]"
},{
  "Name": "/model.15/m.0/cv2/conv/Conv + PWN(PWN(/model.15/m.0/cv2/act/Sigmoid), /model.15/m.0/cv2/act/Mul)",
  "LayerType": "CaskConvolution",
  "Inputs": [
  {
    "Name": "/model.15/m.0/cv1/act/Mul_output_0",
    "Location": "Device",
    "Dimensions": [1,160,80,80],
    "Format/Datatype": "Thirty-two wide channel vectorized row major Int8 format"
  }],
  "Outputs": [
  {
    "Name": "/model.15/m.0/cv2/act/Mul_output_0",
    "Location": "Device",
    "Dimensions": [1,160,80,80],
    "Format/Datatype": "Thirty-two wide channel vectorized row major Int8 format"
  }],
  "ParameterType": "Convolution",
  "Kernel": [3,3],
  "PaddingMode": "kEXPLICIT_ROUND_DOWN",
  "PrePadding": [1,1],
  "PostPadding": [1,1],
  "Stride": [1,1],
  "Dilation": [1,1],
  "OutMaps": 160,
  "Groups": 1,
  "Weights": {"Type": "Int8", "Count": 230400},
  "Bias": {"Type": "Float", "Count": 160},
  "HasSparseWeights": 0,
  "HasDynamicFilter": 0,
  "HasDynamicBias": 0,
  "HasResidual": 0,
  "ConvXAsActInputIdx": -1,
  "BiasAsActInputIdx": -1,
  "ResAsActInputIdx": -1,
  "Activation": "SWISH",
  "HasBias": 1,
  "HasReLU": 0,
  "TacticName": "sm80_xmma_fprop_implicit_gemm_interleaved_i8i8_i8i32_f32_nchw_vect_c_32kcrs_vect_c_32_nchw_vect_c_32_tilesize128x64x64_stage6_warpsize2x2x1_g1_tensor16x8x32_t1r3s3_swish",
  "TacticValue": "0xfdf7509af98902e0",
  "StreamId": 0,
  "Metadata": "[ONNX Layer: /model.15/m.0/cv2/conv/Conv]\u001e[ONNX Layer: /model.15/m.0/cv2/act/Sigmoid]\u001e[ONNX Layer: /model.15/m.0/cv2/act/Mul]"
},{
  "Name": "/model.15/m.1/cv1/conv/Conv + PWN(PWN(/model.15/m.1/cv1/act/Sigmoid), /model.15/m.1/cv1/act/Mul)",
  "LayerType": "CaskConvolution",
  "Inputs": [
  {
    "Name": "/model.15/m.0/cv2/act/Mul_output_0",
    "Location": "Device",
    "Dimensions": [1,160,80,80],
    "Format/Datatype": "Thirty-two wide channel vectorized row major Int8 format"
  }],
  "Outputs": [
  {
    "Name": "/model.15/m.1/cv1/act/Mul_output_0",
    "Location": "Device",
    "Dimensions": [1,160,80,80],
    "Format/Datatype": "Thirty-two wide channel vectorized row major Int8 format"
  }],
  "ParameterType": "Convolution",
  "Kernel": [3,3],
  "PaddingMode": "kEXPLICIT_ROUND_DOWN",
  "PrePadding": [1,1],
  "PostPadding": [1,1],
  "Stride": [1,1],
  "Dilation": [1,1],
  "OutMaps": 160,
  "Groups": 1,
  "Weights": {"Type": "Int8", "Count": 230400},
  "Bias": {"Type": "Float", "Count": 160},
  "HasSparseWeights": 0,
  "HasDynamicFilter": 0,
  "HasDynamicBias": 0,
  "HasResidual": 0,
  "ConvXAsActInputIdx": -1,
  "BiasAsActInputIdx": -1,
  "ResAsActInputIdx": -1,
  "Activation": "SWISH",
  "HasBias": 1,
  "HasReLU": 0,
  "TacticName": "sm80_xmma_fprop_implicit_gemm_interleaved_i8i8_i8i32_f32_nchw_vect_c_32kcrs_vect_c_32_nchw_vect_c_32_tilesize128x64x64_stage6_warpsize2x2x1_g1_tensor16x8x32_t1r3s3_swish",
  "TacticValue": "0xfdf7509af98902e0",
  "StreamId": 0,
  "Metadata": "[ONNX Layer: /model.15/m.1/cv1/conv/Conv]\u001e[ONNX Layer: /model.15/m.1/cv1/act/Sigmoid]\u001e[ONNX Layer: /model.15/m.1/cv1/act/Mul]"
},{
  "Name": "/model.15/m.1/cv2/conv/Conv + PWN(PWN(/model.15/m.1/cv2/act/Sigmoid), /model.15/m.1/cv2/act/Mul)",
  "LayerType": "CaskConvolution",
  "Inputs": [
  {
    "Name": "/model.15/m.1/cv1/act/Mul_output_0",
    "Location": "Device",
    "Dimensions": [1,160,80,80],
    "Format/Datatype": "Thirty-two wide channel vectorized row major Int8 format"
  }],
  "Outputs": [
  {
    "Name": "/model.15/m.1/cv2/act/Mul_output_0",
    "Location": "Device",
    "Dimensions": [1,160,80,80],
    "Format/Datatype": "Thirty-two wide channel vectorized row major Int8 format"
  }],
  "ParameterType": "Convolution",
  "Kernel": [3,3],
  "PaddingMode": "kEXPLICIT_ROUND_DOWN",
  "PrePadding": [1,1],
  "PostPadding": [1,1],
  "Stride": [1,1],
  "Dilation": [1,1],
  "OutMaps": 160,
  "Groups": 1,
  "Weights": {"Type": "Int8", "Count": 230400},
  "Bias": {"Type": "Float", "Count": 160},
  "HasSparseWeights": 0,
  "HasDynamicFilter": 0,
  "HasDynamicBias": 0,
  "HasResidual": 0,
  "ConvXAsActInputIdx": -1,
  "BiasAsActInputIdx": -1,
  "ResAsActInputIdx": -1,
  "Activation": "SWISH",
  "HasBias": 1,
  "HasReLU": 0,
  "TacticName": "sm80_xmma_fprop_implicit_gemm_interleaved_i8i8_i8i32_f32_nchw_vect_c_32kcrs_vect_c_32_nchw_vect_c_32_tilesize128x64x64_stage6_warpsize2x2x1_g1_tensor16x8x32_t1r3s3_swish",
  "TacticValue": "0xfdf7509af98902e0",
  "StreamId": 0,
  "Metadata": "[ONNX Layer: /model.15/m.1/cv2/conv/Conv]\u001e[ONNX Layer: /model.15/m.1/cv2/act/Sigmoid]\u001e[ONNX Layer: /model.15/m.1/cv2/act/Mul]"
},{
  "Name": "/model.15/m.2/cv1/conv/Conv + PWN(PWN(/model.15/m.2/cv1/act/Sigmoid), /model.15/m.2/cv1/act/Mul)",
  "LayerType": "CaskConvolution",
  "Inputs": [
  {
    "Name": "/model.15/m.1/cv2/act/Mul_output_0",
    "Location": "Device",
    "Dimensions": [1,160,80,80],
    "Format/Datatype": "Thirty-two wide channel vectorized row major Int8 format"
  }],
  "Outputs": [
  {
    "Name": "/model.15/m.2/cv1/act/Mul_output_0",
    "Location": "Device",
    "Dimensions": [1,160,80,80],
    "Format/Datatype": "Thirty-two wide channel vectorized row major Int8 format"
  }],
  "ParameterType": "Convolution",
  "Kernel": [3,3],
  "PaddingMode": "kEXPLICIT_ROUND_DOWN",
  "PrePadding": [1,1],
  "PostPadding": [1,1],
  "Stride": [1,1],
  "Dilation": [1,1],
  "OutMaps": 160,
  "Groups": 1,
  "Weights": {"Type": "Int8", "Count": 230400},
  "Bias": {"Type": "Float", "Count": 160},
  "HasSparseWeights": 0,
  "HasDynamicFilter": 0,
  "HasDynamicBias": 0,
  "HasResidual": 0,
  "ConvXAsActInputIdx": -1,
  "BiasAsActInputIdx": -1,
  "ResAsActInputIdx": -1,
  "Activation": "SWISH",
  "HasBias": 1,
  "HasReLU": 0,
  "TacticName": "sm80_xmma_fprop_implicit_gemm_interleaved_i8i8_i8i32_f32_nchw_vect_c_32kcrs_vect_c_32_nchw_vect_c_32_tilesize128x64x64_stage6_warpsize2x2x1_g1_tensor16x8x32_t1r3s3_swish",
  "TacticValue": "0xfdf7509af98902e0",
  "StreamId": 0,
  "Metadata": "[ONNX Layer: /model.15/m.2/cv1/conv/Conv]\u001e[ONNX Layer: /model.15/m.2/cv1/act/Sigmoid]\u001e[ONNX Layer: /model.15/m.2/cv1/act/Mul]"
},{
  "Name": "/model.15/m.2/cv2/conv/Conv + PWN(PWN(/model.15/m.2/cv2/act/Sigmoid), /model.15/m.2/cv2/act/Mul)",
  "LayerType": "CaskConvolution",
  "Inputs": [
  {
    "Name": "/model.15/m.2/cv1/act/Mul_output_0",
    "Location": "Device",
    "Dimensions": [1,160,80,80],
    "Format/Datatype": "Thirty-two wide channel vectorized row major Int8 format"
  }],
  "Outputs": [
  {
    "Name": "/model.15/Concat_output_0",
    "Location": "Device",
    "Dimensions": [1,160,80,80],
    "Format/Datatype": "Thirty-two wide channel vectorized row major Int8 format"
  }],
  "ParameterType": "Convolution",
  "Kernel": [3,3],
  "PaddingMode": "kEXPLICIT_ROUND_DOWN",
  "PrePadding": [1,1],
  "PostPadding": [1,1],
  "Stride": [1,1],
  "Dilation": [1,1],
  "OutMaps": 160,
  "Groups": 1,
  "Weights": {"Type": "Int8", "Count": 230400},
  "Bias": {"Type": "Float", "Count": 160},
  "HasSparseWeights": 0,
  "HasDynamicFilter": 0,
  "HasDynamicBias": 0,
  "HasResidual": 0,
  "ConvXAsActInputIdx": -1,
  "BiasAsActInputIdx": -1,
  "ResAsActInputIdx": -1,
  "Activation": "SWISH",
  "HasBias": 1,
  "HasReLU": 0,
  "TacticName": "sm80_xmma_fprop_implicit_gemm_interleaved_i8i8_i8i32_f32_nchw_vect_c_32kcrs_vect_c_32_nchw_vect_c_32_tilesize128x64x64_stage6_warpsize2x2x1_g1_tensor16x8x32_t1r3s3_swish",
  "TacticValue": "0xfdf7509af98902e0",
  "StreamId": 0,
  "Metadata": "[ONNX Layer: /model.15/m.2/cv2/conv/Conv]\u001e[ONNX Layer: /model.15/m.2/cv2/act/Sigmoid]\u001e[ONNX Layer: /model.15/m.2/cv2/act/Mul]"
},{
  "Name": "/model.15/Split_output_0 copy",
  "LayerType": "Reformat",
  "Inputs": [
  {
    "Name": "/model.15/cv1/act/Mul_output_0",
    "Location": "Device",
    "Dimensions": [1,160,80,80],
    "Format/Datatype": "Thirty-two wide channel vectorized row major Int8 format"
  }],
  "Outputs": [
  {
    "Name": "/model.15/Concat_output_0",
    "Location": "Device",
    "Dimensions": [1,160,80,80],
    "Format/Datatype": "Thirty-two wide channel vectorized row major Int8 format"
  }],
  "ParameterType": "Reformat",
  "Origin": "CONCAT",
  "TacticValue": "0x0000000000000000",
  "StreamId": 0,
  "Metadata": "[ONNX Layer: /model.15/Concat]"
},{
  "Name": "/model.15/Split_output_1 copy",
  "LayerType": "Reformat",
  "Inputs": [
  {
    "Name": "/model.15/cv1/act/Mul_output_0",
    "Location": "Device",
    "Dimensions": [1,160,80,80],
    "Format/Datatype": "Thirty-two wide channel vectorized row major Int8 format"
  }],
  "Outputs": [
  {
    "Name": "/model.15/Concat_output_0",
    "Location": "Device",
    "Dimensions": [1,160,80,80],
    "Format/Datatype": "Thirty-two wide channel vectorized row major Int8 format"
  }],
  "ParameterType": "Reformat",
  "Origin": "CONCAT",
  "TacticValue": "0x0000000000000000",
  "StreamId": 0,
  "Metadata": "[ONNX Layer: /model.15/Concat]"
},{
  "Name": "/model.15/m.0/cv2/act/Mul_output_0 copy",
  "LayerType": "Reformat",
  "Inputs": [
  {
    "Name": "/model.15/m.0/cv2/act/Mul_output_0",
    "Location": "Device",
    "Dimensions": [1,160,80,80],
    "Format/Datatype": "Thirty-two wide channel vectorized row major Int8 format"
  }],
  "Outputs": [
  {
    "Name": "/model.15/Concat_output_0",
    "Location": "Device",
    "Dimensions": [1,160,80,80],
    "Format/Datatype": "Thirty-two wide channel vectorized row major Int8 format"
  }],
  "ParameterType": "Reformat",
  "Origin": "CONCAT",
  "TacticValue": "0x0000000000000000",
  "StreamId": 0,
  "Metadata": "[ONNX Layer: /model.15/Concat]"
},{
  "Name": "/model.15/m.1/cv2/act/Mul_output_0 copy",
  "LayerType": "Reformat",
  "Inputs": [
  {
    "Name": "/model.15/m.1/cv2/act/Mul_output_0",
    "Location": "Device",
    "Dimensions": [1,160,80,80],
    "Format/Datatype": "Thirty-two wide channel vectorized row major Int8 format"
  }],
  "Outputs": [
  {
    "Name": "/model.15/Concat_output_0",
    "Location": "Device",
    "Dimensions": [1,160,80,80],
    "Format/Datatype": "Thirty-two wide channel vectorized row major Int8 format"
  }],
  "ParameterType": "Reformat",
  "Origin": "CONCAT",
  "TacticValue": "0x0000000000000000",
…
  "TacticName": "sm80_xmma_fprop_implicit_gemm_interleaved_i8i8_i8i32_f32_nchw_vect_c_32kcrs_vect_c_32_nchw_vect_c_32_tilesize64x32x64_stage6_warpsize2x1x1_g1_tensor16x8x32_t1r3s3_swish",
  "TacticValue": "0x6176c23707257237",
  "StreamId": 0,
  "Metadata": "[ONNX Layer: /model.21/m.1/cv2/conv/Conv]\u001e[ONNX Layer: /model.21/m.1/cv2/act/Sigmoid]\u001e[ONNX Layer: /model.21/m.1/cv2/act/Mul]"
},{
  "Name": "/model.21/m.2/cv1/conv/Conv + PWN(PWN(/model.21/m.2/cv1/act/Sigmoid), /model.21/m.2/cv1/act/Mul)",
  "LayerType": "CaskConvolution",
  "Inputs": [
  {
    "Name": "/model.21/m.1/cv2/act/Mul_output_0",
    "Location": "Device",
    "Dimensions": [1,320,20,20],
    "Format/Datatype": "Thirty-two wide channel vectorized row major Int8 format"
  }],
  "Outputs": [
  {
    "Name": "/model.21/m.2/cv1/act/Mul_output_0",
    "Location": "Device",
    "Dimensions": [1,320,20,20],
    "Format/Datatype": "Thirty-two wide channel vectorized row major Int8 format"
  }],
  "ParameterType": "Convolution",
  "Kernel": [3,3],
  "PaddingMode": "kEXPLICIT_ROUND_DOWN",
  "PrePadding": [1,1],
  "PostPadding": [1,1],
  "Stride": [1,1],
  "Dilation": [1,1],
  "OutMaps": 320,
  "Groups": 1,
  "Weights": {"Type": "Int8", "Count": 921600},
  "Bias": {"Type": "Float", "Count": 320},
  "HasSparseWeights": 0,
  "HasDynamicFilter": 0,
  "HasDynamicBias": 0,
  "HasResidual": 0,
  "ConvXAsActInputIdx": -1,
  "BiasAsActInputIdx": -1,
  "ResAsActInputIdx": -1,
  "Activation": "SWISH",
  "HasBias": 1,
  "HasReLU": 0,
  "TacticName": "sm80_xmma_fprop_implicit_gemm_interleaved_i8i8_i8i32_f32_nchw_vect_c_32kcrs_vect_c_32_nchw_vect_c_32_tilesize64x32x64_stage6_warpsize2x1x1_g1_tensor16x8x32_t1r3s3_swish",
  "TacticValue": "0x6176c23707257237",
  "StreamId": 0,
  "Metadata": "[ONNX Layer: /model.21/m.2/cv1/conv/Conv]\u001e[ONNX Layer: /model.21/m.2/cv1/act/Sigmoid]\u001e[ONNX Layer: /model.21/m.2/cv1/act/Mul]"
},{
  "Name": "/model.21/m.2/cv2/conv/Conv + PWN(PWN(/model.21/m.2/cv2/act/Sigmoid), /model.21/m.2/cv2/act/Mul)",
  "LayerType": "CaskConvolution",
  "Inputs": [
  {
    "Name": "/model.21/m.2/cv1/act/Mul_output_0",
    "Location": "Device",
    "Dimensions": [1,320,20,20],
    "Format/Datatype": "Thirty-two wide channel vectorized row major Int8 format"
  }],
  "Outputs": [
  {
    "Name": "/model.21/Concat_output_0",
    "Location": "Device",
    "Dimensions": [1,320,20,20],
    "Format/Datatype": "Thirty-two wide channel vectorized row major Int8 format"
  }],
  "ParameterType": "Convolution",
  "Kernel": [3,3],
  "PaddingMode": "kEXPLICIT_ROUND_DOWN",
  "PrePadding": [1,1],
  "PostPadding": [1,1],
  "Stride": [1,1],
  "Dilation": [1,1],
  "OutMaps": 320,
  "Groups": 1,
  "Weights": {"Type": "Int8", "Count": 921600},
  "Bias": {"Type": "Float", "Count": 320},
  "HasSparseWeights": 0,
  "HasDynamicFilter": 0,
  "HasDynamicBias": 0,
  "HasResidual": 0,
  "ConvXAsActInputIdx": -1,
  "BiasAsActInputIdx": -1,
  "ResAsActInputIdx": -1,
  "Activation": "SWISH",
  "HasBias": 1,
  "HasReLU": 0,
  "TacticName": "sm80_xmma_fprop_implicit_gemm_interleaved_i8i8_i8i32_f32_nchw_vect_c_32kcrs_vect_c_32_nchw_vect_c_32_tilesize64x32x64_stage6_warpsize2x1x1_g1_tensor16x8x32_t1r3s3_swish",
  "TacticValue": "0x6176c23707257237",
  "StreamId": 0,
  "Metadata": "[ONNX Layer: /model.21/m.2/cv2/conv/Conv]\u001e[ONNX Layer: /model.21/m.2/cv2/act/Sigmoid]\u001e[ONNX Layer: /model.21/m.2/cv2/act/Mul]"
},{
  "Name": "/model.21/Split_output_0 copy",
  "LayerType": "Reformat",
  "Inputs": [
  {
    "Name": "/model.21/cv1/act/Mul_output_0",
    "Location": "Device",
    "Dimensions": [1,320,20,20],
    "Format/Datatype": "Thirty-two wide channel vectorized row major Int8 format"
  }],
  "Outputs": [
  {
    "Name": "/model.21/Concat_output_0",
    "Location": "Device",
    "Dimensions": [1,320,20,20],
    "Format/Datatype": "Thirty-two wide channel vectorized row major Int8 format"
  }],
  "ParameterType": "Reformat",
  "Origin": "CONCAT",
  "TacticValue": "0x0000000000000000",
  "StreamId": 0,
  "Metadata": "[ONNX Layer: /model.21/Concat]"
},{
  "Name": "/model.21/Split_output_1 copy",
  "LayerType": "Reformat",
  "Inputs": [
  {
    "Name": "/model.21/cv1/act/Mul_output_0",
    "Location": "Device",
    "Dimensions": [1,320,20,20],
    "Format/Datatype": "Thirty-two wide channel vectorized row major Int8 format"
  }],
  "Outputs": [
  {
    "Name": "/model.21/Concat_output_0",
    "Location": "Device",
    "Dimensions": [1,320,20,20],
    "Format/Datatype": "Thirty-two wide channel vectorized row major Int8 format"
  }],
  "ParameterType": "Reformat",
  "Origin": "CONCAT",
  "TacticValue": "0x0000000000000000",
  "StreamId": 0,
  "Metadata": "[ONNX Layer: /model.21/Concat]"
},{
  "Name": "/model.21/m.0/cv2/act/Mul_output_0 copy",
  "LayerType": "Reformat",
  "Inputs": [
  {
    "Name": "/model.21/m.0/cv2/act/Mul_output_0",
    "Location": "Device",
    "Dimensions": [1,320,20,20],
    "Format/Datatype": "Thirty-two wide channel vectorized row major Int8 format"
  }],
  "Outputs": [
  {
    "Name": "/model.21/Concat_output_0",
    "Location": "Device",
    "Dimensions": [1,320,20,20],
    "Format/Datatype": "Thirty-two wide channel vectorized row major Int8 format"
  }],
  "ParameterType": "Reformat",
  "Origin": "CONCAT",
  "TacticValue": "0x0000000000000000",
  "StreamId": 0,
  "Metadata": "[ONNX Layer: /model.21/Concat]"
},{
  "Name": "/model.21/m.1/cv2/act/Mul_output_0 copy",
  "LayerType": "Reformat",
  "Inputs": [
  {
    "Name": "/model.21/m.1/cv2/act/Mul_output_0",
    "Location": "Device",
    "Dimensions": [1,320,20,20],
    "Format/Datatype": "Thirty-two wide channel vectorized row major Int8 format"
  }],
  "Outputs": [
  {
    "Name": "/model.21/Concat_output_0",
    "Location": "Device",
    "Dimensions": [1,320,20,20],
    "Format/Datatype": "Thirty-two wide channel vectorized row major Int8 format"
  }],
  "ParameterType": "Reformat",
  "Origin": "CONCAT",
  "TacticValue": "0x0000000000000000",
  "StreamId": 0,
  "Metadata": "[ONNX Layer: /model.21/Concat]"
},{
  "Name": "/model.21/cv2/conv/Conv + PWN(PWN(/model.21/cv2/act/Sigmoid), /model.21/cv2/act/Mul)",
  "LayerType": "CaskConvolution",
  "Inputs": [
  {
    "Name": "/model.21/Concat_output_0",
    "Location": "Device",
    "Dimensions": [1,1600,20,20],
    "Format/Datatype": "Thirty-two wide channel vectorized row major Int8 format"
  }],
  "Outputs": [
  {
    "Name": "/model.21/cv2/act/Mul_output_0",
    "Location": "Device",
    "Dimensions": [1,640,20,20],
    "Format/Datatype": "Thirty-two wide channel vectorized row major Int8 format"
  }],
  "ParameterType": "Convolution",
  "Kernel": [1,1],
  "PaddingMode": "kEXPLICIT_ROUND_DOWN",
  "PrePadding": [0,0],
  "PostPadding": [0,0],
  "Stride": [1,1],
  "Dilation": [1,1],
  "OutMaps": 640,
  "Groups": 1,
  "Weights": {"Type": "Int8", "Count": 1024000},
  "Bias": {"Type": "Float", "Count": 640},
  "HasSparseWeights": 0,
  "HasDynamicFilter": 0,
  "HasDynamicBias": 0,
  "HasResidual": 0,
  "ConvXAsActInputIdx": -1,
  "BiasAsActInputIdx": -1,
  "ResAsActInputIdx": -1,
  "Activation": "SWISH",
  "HasBias": 1,
  "HasReLU": 0,
  "TacticName": "sm80_xmma_fprop_implicit_gemm_interleaved_i8i8_i8i32_f32_nchw_vect_c_32kcrs_vect_c_32_nchw_vect_c_32_tilesize128x64x64_stage6_warpsize2x2x1_g1_tensor16x8x32_simple_t1r1s1_swish",
  "TacticValue": "0x458f02d2b10db57c",
  "StreamId": 0,
  "Metadata": "[ONNX Layer: /model.21/cv2/conv/Conv]\u001e[ONNX Layer: /model.21/cv2/act/Sigmoid]\u001e[ONNX Layer: /model.21/cv2/act/Mul]"
},{
  "Name": "/model.22/cv2.2/cv2.2.0/conv/Conv + PWN(PWN(/model.22/cv2.2/cv2.2.0/act/Sigmoid), /model.22/cv2.2/cv2.2.0/act/Mul)",
  "LayerType": "CaskConvolution",
  "Inputs": [
  {
    "Name": "/model.21/cv2/act/Mul_output_0",
    "Location": "Device",
    "Dimensions": [1,640,20,20],
    "Format/Datatype": "Thirty-two wide channel vectorized row major Int8 format"
  }],
  "Outputs": [
  {
    "Name": "/model.22/cv2.2/cv2.2.0/act/Mul_output_0",
    "Location": "Device",
    "Dimensions": [1,80,20,20],
    "Format/Datatype": "Thirty-two wide channel vectorized row major Int8 format"
  }],
  "ParameterType": "Convolution",
  "Kernel": [3,3],
  "PaddingMode": "kEXPLICIT_ROUND_DOWN",
  "PrePadding": [1,1],
  "PostPadding": [1,1],
  "Stride": [1,1],
  "Dilation": [1,1],
  "OutMaps": 80,
  "Groups": 1,
  "Weights": {"Type": "Int8", "Count": 460800},
  "Bias": {"Type": "Float", "Count": 80},
  "HasSparseWeights": 0,
  "HasDynamicFilter": 0,
  "HasDynamicBias": 0,
  "HasResidual": 0,
  "ConvXAsActInputIdx": -1,
  "BiasAsActInputIdx": -1,
  "ResAsActInputIdx": -1,
  "Activation": "SWISH",
  "HasBias": 1,
  "HasReLU": 0,
  "TacticName": "sm80_xmma_fprop_implicit_gemm_interleaved_i8i8_i8i32_f32_nchw_vect_c_32kcrs_vect_c_32_nchw_vect_c_32_tilesize32x32x64_stage6_warpsize2x1x1_g1_tensor16x8x32_swish",
  "TacticValue": "0x7251b68d123da92b",
  "StreamId": 0,
  "Metadata": "[ONNX Layer: /model.22/cv2.2/cv2.2.0/conv/Conv]\u001e[ONNX Layer: /model.22/cv2.2/cv2.2.0/act/Sigmoid]\u001e[ONNX Layer: /model.22/cv2.2/cv2.2.0/act/Mul]"
},{
  "Name": "/model.22/cv2.2/cv2.2.1/conv/Conv + PWN(PWN(/model.22/cv2.2/cv2.2.1/act/Sigmoid), /model.22/cv2.2/cv2.2.1/act/Mul)",
  "LayerType": "CaskConvolution",
  "Inputs": [
  {
    "Name": "/model.22/cv2.2/cv2.2.0/act/Mul_output_0",
    "Location": "Device",
    "Dimensions": [1,80,20,20],
    "Format/Datatype": "Thirty-two wide channel vectorized row major Int8 format"
  }],
  "Outputs": [
  {
    "Name": "/model.22/cv2.2/cv2.2.1/act/Mul_output_0",
    "Location": "Device",
    "Dimensions": [1,80,20,20],
    "Format/Datatype": "Thirty-two wide channel vectorized row major Int8 format"
  }],
  "ParameterType": "Convolution",
  "Kernel": [3,3],
  "PaddingMode": "kEXPLICIT_ROUND_DOWN",
  "PrePadding": [1,1],
  "PostPadding": [1,1],
  "Stride": [1,1],
  "Dilation": [1,1],
  "OutMaps": 80,
  "Groups": 1,
  "Weights": {"Type": "Int8", "Count": 57600},
  "Bias": {"Type": "Float", "Count": 80},
  "HasSparseWeights": 0,
  "HasDynamicFilter": 0,
  "HasDynamicBias": 0,
  "HasResidual": 0,
  "ConvXAsActInputIdx": -1,
  "BiasAsActInputIdx": -1,
  "ResAsActInputIdx": -1,
  "Activation": "SWISH",
  "HasBias": 1,
  "HasReLU": 0,
  "TacticName": "sm80_xmma_fprop_implicit_gemm_interleaved_i8i8_i8i32_f32_nchw_vect_c_32kcrs_vect_c_32_nchw_vect_c_32_tilesize32x32x64_stage6_warpsize2x1x1_g1_tensor16x8x32_t1r3s3_swish",
  "TacticValue": "0xc985777c89c6b3a4",
  "StreamId": 0,
  "Metadata": "[ONNX Layer: /model.22/cv2.2/cv2.2.1/conv/Conv]\u001e[ONNX Layer: /model.22/cv2.2/cv2.2.1/act/Sigmoid]\u001e[ONNX Layer: /model.22/cv2.2/cv2.2.1/act/Mul]"
},{
  "Name": "/model.22/cv2.2/cv2.2.2/Conv",
  "LayerType": "CaskConvolution",
  "Inputs": [
  {
    "Name": "/model.22/cv2.2/cv2.2.1/act/Mul_output_0",
    "Location": "Device",
    "Dimensions": [1,80,20,20],
    "Format/Datatype": "Thirty-two wide channel vectorized row major Int8 format"
  }],
  "Outputs": [
  {
    "Name": "/model.22/Concat_2_output_0",
    "Location": "Device",
    "Dimensions": [1,64,20,20],
    "Format/Datatype": "Row major linear FP32"
  }],
  "ParameterType": "Convolution",
  "Kernel": [1,1],
  "PaddingMode": "kEXPLICIT_ROUND_DOWN",
  "PrePadding": [0,0],
  "PostPadding": [0,0],
  "Stride": [1,1],
  "Dilation": [1,1],
  "OutMaps": 64,
  "Groups": 1,
  "Weights": {"Type": "Int8", "Count": 5120},
  "Bias": {"Type": "Float", "Count": 64},
  "HasSparseWeights": 0,
  "HasDynamicFilter": 0,
  "HasDynamicBias": 0,
  "HasResidual": 0,
  "ConvXAsActInputIdx": -1,
  "BiasAsActInputIdx": -1,
  "ResAsActInputIdx": -1,
  "Activation": "NONE",
  "HasBias": 1,
  "HasReLU": 0,
  "TacticName": "sm80_xmma_fprop_implicit_gemm_interleaved_i8f32_i8i32_f32_nchw_vect_c_32kcrs_vect_c_32_nchw_tilesize64x32x64_stage6_warpsize2x1x1_g1_tensor16x8x32_t1r1s1_alignc4",
  "TacticValue": "0x5e4f6d7c83746fd6",
  "StreamId": 0,
  "Metadata": "[ONNX Layer: /model.22/cv2.2/cv2.2.2/Conv]"
},{
  "Name": "/model.22/cv3.2/cv3.2.0/conv/Conv + PWN(PWN(/model.22/cv3.2/cv3.2.0/act/Sigmoid), /model.22/cv3.2/cv3.2.0/act/Mul)",
  "LayerType": "CaskConvolution",
  "Inputs": [
  {
    "Name": "/model.21/cv2/act/Mul_output_0",
    "Location": "Device",
    "Dimensions": [1,640,20,20],
    "Format/Datatype": "Thirty-two wide channel vectorized row major Int8 format"
  }],
  "Outputs": [
  {
    "Name": "/model.22/cv3.2/cv3.2.0/act/Mul_output_0",
    "Location": "Device",
    "Dimensions": [1,320,20,20],
    "Format/Datatype": "Thirty-two wide channel vectorized row major Int8 format"
  }],
  "ParameterType": "Convolution",
  "Kernel": [3,3],
  "PaddingMode": "kEXPLICIT_ROUND_DOWN",
  "PrePadding": [1,1],
  "PostPadding": [1,1],
  "Stride": [1,1],
  "Dilation": [1,1],
  "OutMaps": 320,
  "Groups": 1,
  "Weights": {"Type": "Int8", "Count": 1843200},
  "Bias": {"Type": "Float", "Count": 320},
  "HasSparseWeights": 0,
  "HasDynamicFilter": 0,
  "HasDynamicBias": 0,
  "HasResidual": 0,
  "ConvXAsActInputIdx": -1,
  "BiasAsActInputIdx": -1,
  "ResAsActInputIdx": -1,
  "Activation": "SWISH",
  "HasBias": 1,
  "HasReLU": 0,
  "TacticName": "sm80_xmma_fprop_implicit_gemm_interleaved_i8i8_i8i32_f32_nchw_vect_c_32kcrs_vect_c_32_nchw_vect_c_32_tilesize64x32x64_stage6_warpsize2x1x1_g1_tensor16x8x32_t1r3s3_swish",
  "TacticValue": "0x6176c23707257237",
  "StreamId": 0,
  "Metadata": "[ONNX Layer: /model.22/cv3.2/cv3.2.0/conv/Conv]\u001e[ONNX Layer: /model.22/cv3.2/cv3.2.0/act/Sigmoid]\u001e[ONNX Layer: /model.22/cv3.2/cv3.2.0/act/Mul]"
},{
  "Name": "/model.22/cv3.2/cv3.2.1/conv/Conv + PWN(PWN(/model.22/cv3.2/cv3.2.1/act/Sigmoid), /model.22/cv3.2/cv3.2.1/act/Mul)",
  "LayerType": "CaskConvolution",
  "Inputs": [
  {
    "Name": "/model.22/cv3.2/cv3.2.0/act/Mul_output_0",
    "Location": "Device",
    "Dimensions": [1,320,20,20],
    "Format/Datatype": "Thirty-two wide channel vectorized row major Int8 format"
  }],
  "Outputs": [
  {
    "Name": "/model.22/cv3.2/cv3.2.1/act/Mul_output_0",
    "Location": "Device",
    "Dimensions": [1,320,20,20],
    "Format/Datatype": "Thirty-two wide channel vectorized row major Int8 format"
  }],
  "ParameterType": "Convolution",
  "Kernel": [3,3],
  "PaddingMode": "kEXPLICIT_ROUND_DOWN",
  "PrePadding": [1,1],
  "PostPadding": [1,1],
  "Stride": [1,1],
  "Dilation": [1,1],
  "OutMaps": 320,
  "Groups": 1,
  "Weights": {"Type": "Int8", "Count": 921600},
  "Bias": {"Type": "Float", "Count": 320},
  "HasSparseWeights": 0,
  "HasDynamicFilter": 0,
  "HasDynamicBias": 0,
  "HasResidual": 0,
  "ConvXAsActInputIdx": -1,
  "BiasAsActInputIdx": -1,
  "ResAsActInputIdx": -1,
  "Activation": "SWISH",
  "HasBias": 1,
  "HasReLU": 0,
  "TacticName": "sm80_xmma_fprop_implicit_gemm_interleaved_i8i8_i8i32_f32_nchw_vect_c_32kcrs_vect_c_32_nchw_vect_c_32_tilesize64x32x64_stage6_warpsize2x1x1_g1_tensor16x8x32_t1r3s3_swish",
  "TacticValue": "0x6176c23707257237",
  "StreamId": 0,
  "Metadata": "[ONNX Layer: /model.22/cv3.2/cv3.2.1/conv/Conv]\u001e[ONNX Layer: /model.22/cv3.2/cv3.2.1/act/Sigmoid]\u001e[ONNX Layer: /model.22/cv3.2/cv3.2.1/act/Mul]"
},{
  "Name": "/model.22/cv3.2/cv3.2.2/Conv",
  "LayerType": "CaskConvolution",
  "Inputs": [
  {
    "Name": "/model.22/cv3.2/cv3.2.1/act/Mul_output_0",
    "Location": "Device",
    "Dimensions": [1,320,20,20],
    "Format/Datatype": "Thirty-two wide channel vectorized row major Int8 format"
  }],
  "Outputs": [
  {
    "Name": "/model.22/Concat_2_output_0",
    "Location": "Device",
    "Dimensions": [1,80,20,20],
    "Format/Datatype": "Row major linear FP32"
  }],
  "ParameterType": "Convolution",
  "Kernel": [1,1],
  "PaddingMode": "kEXPLICIT_ROUND_DOWN",
  "PrePadding": [0,0],
  "PostPadding": [0,0],
  "Stride": [1,1],
  "Dilation": [1,1],
  "OutMaps": 80,
  "Groups": 1,
  "Weights": {"Type": "Int8", "Count": 25600},
  "Bias": {"Type": "Float", "Count": 80},
  "HasSparseWeights": 0,
  "HasDynamicFilter": 0,
  "HasDynamicBias": 0,
  "HasResidual": 0,
  "ConvXAsActInputIdx": -1,
  "BiasAsActInputIdx": -1,
  "ResAsActInputIdx": -1,
  "Activation": "NONE",
  "HasBias": 1,
  "HasReLU": 0,
  "TacticName": "sm80_xmma_fprop_implicit_gemm_interleaved_i8f32_i8i32_f32_nchw_vect_c_32kcrs_vect_c_32_nchw_tilesize64x32x64_stage6_warpsize2x1x1_g1_tensor16x8x32_t1r1s1_alignc4",
  "TacticValue": "0x5e4f6d7c83746fd6",
  "StreamId": 0,
  "Metadata": "[ONNX Layer: /model.22/cv3.2/cv3.2.2/Conv]"
},{
  "Name": "/model.22/Reshape_2",
  "LayerType": "NoOp",
  "Inputs": [
  {
    "Name": "/model.22/Concat_2_output_0",
    "Location": "Device",
    "Dimensions": [1,144,20,20],
    "Format/Datatype": "Row major linear FP32"
  }],
  "Outputs": [
  {
    "Name": "/model.22/Reshape_2_copy_output",
    "Location": "Device",
    "Dimensions": [1,144,400],
    "Format/Datatype": "Row major linear FP32"
  }],
  "TacticValue": "0x0000000000000000",
  "StreamId": 0,
  "Metadata": "[ONNX Layer: /model.22/Reshape_2]"
},{
  "Name": "/model.22/Reshape_2_copy_output",
  "LayerType": "Reformat",
  "Inputs": [
  {
    "Name": "/model.22/Reshape_2_copy_output",
    "Location": "Device",
    "Dimensions": [1,144,400],
    "Format/Datatype": "Row major linear FP32"
  }],
  "Outputs": [
  {
    "Name": "/model.22/Concat_3_output_0",
    "Location": "Device",
    "Dimensions": [1,144,400],
    "Format/Datatype": "Row major linear FP32"
  }],
  "ParameterType": "Reformat",
  "Origin": "CONCAT",
  "TacticValue": "0x0000000000000000",
  "StreamId": 0,
  "Metadata": "[ONNX Layer: /model.22/Reshape_2]"
},{
  "Name": "/model.22/cv2.1/cv2.1.0/conv/Conv + PWN(PWN(/model.22/cv2.1/cv2.1.0/act/Sigmoid), /model.22/cv2.1/cv2.1.0/act/Mul)",
  "LayerType": "CaskConvolution",
  "Inputs": [
  {
    "Name": "/model.18/cv2/act/Mul_output_0",
    "Location": "Device",
    "Dimensions": [1,640,40,40],
    "Format/Datatype": "Thirty-two wide channel vectorized row major Int8 format"
  }],
  "Outputs": [
  {
    "Name": "/model.22/cv2.1/cv2.1.0/act/Mul_output_0",
    "Location": "Device",
    "Dimensions": [1,80,40,40],
    "Format/Datatype": "Thirty-two wide channel vectorized row major Int8 format"
  }],
  "ParameterType": "Convolution",
  "Kernel": [3,3],
  "PaddingMode": "kEXPLICIT_ROUND_DOWN",
  "PrePadding": [1,1],
  "PostPadding": [1,1],
  "Stride": [1,1],
  "Dilation": [1,1],
  "OutMaps": 80,
  "Groups": 1,
  "Weights": {"Type": "Int8", "Count": 460800},
  "Bias": {"Type": "Float", "Count": 80},
  "HasSparseWeights": 0,
  "HasDynamicFilter": 0,
  "HasDynamicBias": 0,
  "HasResidual": 0,
  "ConvXAsActInputIdx": -1,
  "BiasAsActInputIdx": -1,
  "ResAsActInputIdx": -1,
  "Activation": "SWISH",
  "HasBias": 1,
  "HasReLU": 0,
  "TacticName": "sm80_xmma_fprop_implicit_gemm_interleaved_i8i8_i8i32_f32_nchw_vect_c_32kcrs_vect_c_32_nchw_vect_c_32_tilesize64x32x64_stage6_warpsize2x1x1_g1_tensor16x8x32_t1r3s3_swish",
  "TacticValue": "0x6176c23707257237",
  "StreamId": 0,
  "Metadata": "[ONNX Layer: /model.22/cv2.1/cv2.1.0/conv/Conv]\u001e[ONNX Layer: /model.22/cv2.1/cv2.1.0/act/Sigmoid]\u001e[ONNX Layer: /model.22/cv2.1/cv2.1.0/act/Mul]"
},{
  "Name": "/model.22/cv2.1/cv2.1.1/conv/Conv + PWN(PWN(/model.22/cv2.1/cv2.1.1/act/Sigmoid), /model.22/cv2.1/cv2.1.1/act/Mul)",
  "LayerType": "CaskConvolution",
  "Inputs": [
  {
    "Name": "/model.22/cv2.1/cv2.1.0/act/Mul_output_0",
    "Location": "Device",
    "Dimensions": [1,80,40,40],
    "Format/Datatype": "Thirty-two wide channel vectorized row major Int8 format"
  }],
  "Outputs": [
  {
    "Name": "/model.22/cv2.1/cv2.1.1/act/Mul_output_0",
    "Location": "Device",
    "Dimensions": [1,80,40,40],
    "Format/Datatype": "Thirty-two wide channel vectorized row major Int8 format"
  }],
  "ParameterType": "Convolution",
  "Kernel": [3,3],
  "PaddingMode": "kEXPLICIT_ROUND_DOWN",
  "PrePadding": [1,1],
  "PostPadding": [1,1],
  "Stride": [1,1],
  "Dilation": [1,1],
  "OutMaps": 80,
  "Groups": 1,
  "Weights": {"Type": "Int8", "Count": 57600},
  "Bias": {"Type": "Float", "Count": 80},
  "HasSparseWeights": 0,
  "HasDynamicFilter": 0,
  "HasDynamicBias": 0,
  "HasResidual": 0,
  "ConvXAsActInputIdx": -1,
  "BiasAsActInputIdx": -1,
  "ResAsActInputIdx": -1,
  "Activation": "SWISH",
  "HasBias": 1,
  "HasReLU": 0,
  "TacticName": "sm80_xmma_fprop_implicit_gemm_interleaved_i8i8_i8i32_f32_nchw_vect_c_32kcrs_vect_c_32_nchw_vect_c_32_tilesize64x32x64_stage6_warpsize2x1x1_g1_tensor16x8x32_t1r3s3_swish",
  "TacticValue": "0x6176c23707257237",
  "StreamId": 0,
  "Metadata": "[ONNX Layer: /model.22/cv2.1/cv2.1.1/conv/Conv]\u001e[ONNX Layer: /model.22/cv2.1/cv2.1.1/act/Sigmoid]\u001e[ONNX Layer: /model.22/cv2.1/cv2.1.1/act/Mul]"
},{
  "Name": "/model.22/cv2.1/cv2.1.2/Conv",
  "LayerType": "CaskConvolution",
  "Inputs": [
  {
    "Name": "/model.22/cv2.1/cv2.1.1/act/Mul_output_0",
    "Location": "Device",
    "Dimensions": [1,80,40,40],
    "Format/Datatype": "Thirty-two wide channel vectorized row major Int8 format"
  }],
  "Outputs": [
  {
    "Name": "/model.22/Concat_1_output_0",
    "Location": "Device",
    "Dimensions": [1,64,40,40],
    "Format/Datatype": "Row major linear FP32"
  }],
  "ParameterType": "Convolution",
  "Kernel": [1,1],
  "PaddingMode": "kEXPLICIT_ROUND_DOWN",
  "PrePadding": [0,0],
  "PostPadding": [0,0],
  "Stride": [1,1],
  "Dilation": [1,1],
  "OutMaps": 64,
  "Groups": 1,
  "Weights": {"Type": "Int8", "Count": 5120},
  "Bias": {"Type": "Float", "Count": 64},
  "HasSparseWeights": 0,
  "HasDynamicFilter": 0,
  "HasDynamicBias": 0,
  "HasResidual": 0,
  "ConvXAsActInputIdx": -1,
  "BiasAsActInputIdx": -1,
  "ResAsActInputIdx": -1,
  "Activation": "NONE",
  "HasBias": 1,
  "HasReLU": 0,
  "TacticName": "sm80_xmma_fprop_implicit_gemm_interleaved_i8f32_i8i32_f32_nchw_vect_c_32kcrs_vect_c_32_nchw_tilesize64x32x64_stage6_warpsize2x1x1_g1_tensor16x8x32_t1r1s1_alignc4",
  "TacticValue": "0x5e4f6d7c83746fd6",
  "StreamId": 0,
  "Metadata": "[ONNX Layer: /model.22/cv2.1/cv2.1.2/Conv]"
},{
  "Name": "/model.22/cv3.1/cv3.1.0/conv/Conv + PWN(PWN(/model.22/cv3.1/cv3.1.0/act/Sigmoid), /model.22/cv3.1/cv3.1.0/act/Mul)",
  "LayerType": "CaskConvolution",
  "Inputs": [
  {
    "Name": "/model.18/cv2/act/Mul_output_0",
    "Location": "Device",
    "Dimensions": [1,640,40,40],
    "Format/Datatype": "Thirty-two wide channel vectorized row major Int8 format"
  }],
  "Outputs": [
  {
    "Name": "/model.22/cv3.1/cv3.1.0/act/Mul_output_0",
    "Location": "Device",
    "Dimensions": [1,320,40,40],
    "Format/Datatype": "Thirty-two wide channel vectorized row major Int8 format"
  }],
  "ParameterType": "Convolution",
  "Kernel": [3,3],
  "PaddingMode": "kEXPLICIT_ROUND_DOWN",
  "PrePadding": [1,1],
  "PostPadding": [1,1],
  "Stride": [1,1],
  "Dilation": [1,1],
  "OutMaps": 320,
  "Groups": 1,
  "Weights": {"Type": "Int8", "Count": 1843200},
  "Bias": {"Type": "Float", "Count": 320},
  "HasSparseWeights": 0,
  "HasDynamicFilter": 0,
  "HasDynamicBias": 0,
  "HasResidual": 0,
  "ConvXAsActInputIdx": -1,
  "BiasAsActInputIdx": -1,
  "ResAsActInputIdx": -1,
  "Activation": "SWISH",
  "HasBias": 1,
  "HasReLU": 0,
  "TacticName": "sm80_xmma_fprop_implicit_gemm_interleaved_i8i8_i8i32_f32_nchw_vect_c_32kcrs_vect_c_32_nchw_vect_c_32_tilesize64x64x64_stage6_warpsize2x2x1_g1_tensor16x8x32_t1r3s3_swish",
  "TacticValue": "0xc722efd60bc6ea84",
  "StreamId": 0,
  "Metadata": "[ONNX Layer: /model.22/cv3.1/cv3.1.0/conv/Conv]\u001e[ONNX Layer: /model.22/cv3.1/cv3.1.0/act/Sigmoid]\u001e[ONNX Layer: /model.22/cv3.1/cv3.1.0/act/Mul]"
},{
  "Name": "/model.22/cv3.1/cv3.1.1/conv/Conv + PWN(PWN(/model.22/cv3.1/cv3.1.1/act/Sigmoid), /model.22/cv3.1/cv3.1.1/act/Mul)",
  "LayerType": "CaskConvolution",
  "Inputs": [
  {
    "Name": "/model.22/cv3.1/cv3.1.0/act/Mul_output_0",
    "Location": "Device",
    "Dimensions": [1,320,40,40],
    "Format/Datatype": "Thirty-two wide channel vectorized row major Int8 format"
  }],
  "Outputs": [
  {
    "Name": "/model.22/cv3.1/cv3.1.1/act/Mul_output_0",
    "Location": "Device",
    "Dimensions": [1,320,40,40],
    "Format/Datatype": "Thirty-two wide channel vectorized row major Int8 format"
  }],
  "ParameterType": "Convolution",
  "Kernel": [3,3],
  "PaddingMode": "kEXPLICIT_ROUND_DOWN",
  "PrePadding": [1,1],
  "PostPadding": [1,1],
  "Stride": [1,1],
  "Dilation": [1,1],
  "OutMaps": 320,
  "Groups": 1,
  "Weights": {"Type": "Int8", "Count": 921600},
  "Bias": {"Type": "Float", "Count": 320},
  "HasSparseWeights": 0,
  "HasDynamicFilter": 0,
  "HasDynamicBias": 0,
  "HasResidual": 0,
  "ConvXAsActInputIdx": -1,
  "BiasAsActInputIdx": -1,
  "ResAsActInputIdx": -1,
  "Activation": "SWISH",
  "HasBias": 1,
  "HasReLU": 0,
  "TacticName": "sm80_xmma_fprop_implicit_gemm_interleaved_i8i8_i8i32_f32_nchw_vect_c_32kcrs_vect_c_32_nchw_vect_c_32_tilesize64x64x64_stage6_warpsize2x2x1_g1_tensor16x8x32_t1r3s3_swish",
  "TacticValue": "0xc722efd60bc6ea84",
  "StreamId": 0,
  "Metadata": "[ONNX Layer: /model.22/cv3.1/cv3.1.1/conv/Conv]\u001e[ONNX Layer: /model.22/cv3.1/cv3.1.1/act/Sigmoid]\u001e[ONNX Layer: /model.22/cv3.1/cv3.1.1/act/Mul]"
},{
  "Name": "/model.22/cv3.1/cv3.1.2/Conv",
  "LayerType": "CaskConvolution",
  "Inputs": [
  {
    "Name": "/model.22/cv3.1/cv3.1.1/act/Mul_output_0",
    "Location": "Device",
    "Dimensions": [1,320,40,40],
    "Format/Datatype": "Thirty-two wide channel vectorized row major Int8 format"
  }],
  "Outputs": [
  {
    "Name": "/model.22/Concat_1_output_0",
    "Location": "Device",
    "Dimensions": [1,80,40,40],
    "Format/Datatype": "Row major linear FP32"
  }],
  "ParameterType": "Convolution",
  "Kernel": [1,1],
  "PaddingMode": "kEXPLICIT_ROUND_DOWN",
  "PrePadding": [0,0],
  "PostPadding": [0,0],
  "Stride": [1,1],
  "Dilation": [1,1],
  "OutMaps": 80,
  "Groups": 1,
  "Weights": {"Type": "Int8", "Count": 25600},
  "Bias": {"Type": "Float", "Count": 80},
  "HasSparseWeights": 0,
  "HasDynamicFilter": 0,
  "HasDynamicBias": 0,
  "HasResidual": 0,
  "ConvXAsActInputIdx": -1,
  "BiasAsActInputIdx": -1,
  "ResAsActInputIdx": -1,
  "Activation": "NONE",
  "HasBias": 1,
  "HasReLU": 0,
  "TacticName": "sm80_xmma_fprop_implicit_gemm_interleaved_i8f32_i8i32_f32_nchw_vect_c_32kcrs_vect_c_32_nchw_tilesize128x32x64_stage4_warpsize4x1x1_g1_tensor16x8x32_t1r1s1_alignc4",
  "TacticValue": "0x733ba2a91a48d431",
  "StreamId": 0,
  "Metadata": "[ONNX Layer: /model.22/cv3.1/cv3.1.2/Conv]"
},{
  "Name": "/model.22/Reshape_1",
  "LayerType": "NoOp",
  "Inputs": [
  {
    "Name": "/model.22/Concat_1_output_0",
    "Location": "Device",
    "Dimensions": [1,144,40,40],
    "Format/Datatype": "Row major linear FP32"
  }],
  "Outputs": [
  {
    "Name": "/model.22/Reshape_1_copy_output",
    "Location": "Device",
    "Dimensions": [1,144,1600],
    "Format/Datatype": "Row major linear FP32"
  }],
  "TacticValue": "0x0000000000000000",
  "StreamId": 0,
  "Metadata": "[ONNX Layer: /model.22/Reshape_1]"
},{
  "Name": "/model.22/Reshape_1_copy_output",
  "LayerType": "Reformat",
  "Inputs": [
  {
    "Name": "/model.22/Reshape_1_copy_output",
    "Location": "Device",
    "Dimensions": [1,144,1600],
    "Format/Datatype": "Row major linear FP32"
  }],
  "Outputs": [
  {
    "Name": "/model.22/Concat_3_output_0",
    "Location": "Device",
    "Dimensions": [1,144,1600],
    "Format/Datatype": "Row major linear FP32"
  }],
  "ParameterType": "Reformat",
  "Origin": "CONCAT",
  "TacticValue": "0x0000000000000000",
  "StreamId": 0,
  "Metadata": "[ONNX Layer: /model.22/Reshape_1]"
},{
  "Name": "/model.22/cv2.0/cv2.0.0/conv/Conv + PWN(PWN(/model.22/cv2.0/cv2.0.0/act/Sigmoid), /model.22/cv2.0/cv2.0.0/act/Mul)",
  "LayerType": "CaskConvolution",
  "Inputs": [
  {
    "Name": "/model.15/cv2/act/Mul_output_0",
    "Location": "Device",
    "Dimensions": [1,320,80,80],
    "Format/Datatype": "Thirty-two wide channel vectorized row major Int8 format"
  }],
  "Outputs": [
  {
    "Name": "/model.22/cv2.0/cv2.0.0/act/Mul_output_0",
    "Location": "Device",
    "Dimensions": [1,80,80,80],
    "Format/Datatype": "Thirty-two wide channel vectorized row major Int8 format"
  }],
  "ParameterType": "Convolution",
  "Kernel": [3,3],
  "PaddingMode": "kEXPLICIT_ROUND_DOWN",
  "PrePadding": [1,1],
  "PostPadding": [1,1],
  "Stride": [1,1],
  "Dilation": [1,1],
  "OutMaps": 80,
  "Groups": 1,
  "Weights": {"Type": "Int8", "Count": 230400},
  "Bias": {"Type": "Float", "Count": 80},
  "HasSparseWeights": 0,
  "HasDynamicFilter": 0,
  "HasDynamicBias": 0,
  "HasResidual": 0,
  "ConvXAsActInputIdx": -1,
  "BiasAsActInputIdx": -1,
  "ResAsActInputIdx": -1,
  "Activation": "SWISH",
  "HasBias": 1,
  "HasReLU": 0,
  "TacticName": "sm80_xmma_fprop_implicit_gemm_interleaved_i8i8_i8i32_f32_nchw_vect_c_32kcrs_vect_c_32_nchw_vect_c_32_tilesize128x128x64_stage4_warpsize2x2x1_g1_tensor16x8x32_t1r3s3_swish",
  "TacticValue": "0x01cd56dfbdb5c0ee",
  "StreamId": 0,
  "Metadata": "[ONNX Layer: /model.22/cv2.0/cv2.0.0/conv/Conv]\u001e[ONNX Layer: /model.22/cv2.0/cv2.0.0/act/Sigmoid]\u001e[ONNX Layer: /model.22/cv2.0/cv2.0.0/act/Mul]"
},{
  "Name": "/model.22/cv2.0/cv2.0.1/conv/Conv + PWN(PWN(/model.22/cv2.0/cv2.0.1/act/Sigmoid), /model.22/cv2.0/cv2.0.1/act/Mul)",
  "LayerType": "CaskConvolution",
  "Inputs": [
  {
    "Name": "/model.22/cv2.0/cv2.0.0/act/Mul_output_0",
    "Location": "Device",
    "Dimensions": [1,80,80,80],
    "Format/Datatype": "Thirty-two wide channel vectorized row major Int8 format"
  }],
  "Outputs": [
  {
    "Name": "/model.22/cv2.0/cv2.0.1/act/Mul_output_0",
    "Location": "Device",
    "Dimensions": [1,80,80,80],
    "Format/Datatype": "Thirty-two wide channel vectorized row major Int8 format"
  }],
  "ParameterType": "Convolution",
  "Kernel": [3,3],
  "PaddingMode": "kEXPLICIT_ROUND_DOWN",
  "PrePadding": [1,1],
  "PostPadding": [1,1],
  "Stride": [1,1],
  "Dilation": [1,1],
  "OutMaps": 80,
  "Groups": 1,
  "Weights": {"Type": "Int8", "Count": 57600},
  "Bias": {"Type": "Float", "Count": 80},
  "HasSparseWeights": 0,
  "HasDynamicFilter": 0,
  "HasDynamicBias": 0,
  "HasResidual": 0,
  "ConvXAsActInputIdx": -1,
  "BiasAsActInputIdx": -1,
  "ResAsActInputIdx": -1,
  "Activation": "SWISH",
  "HasBias": 1,
  "HasReLU": 0,
  "TacticName": "sm80_xmma_fprop_implicit_gemm_interleaved_i8i8_i8i32_f32_nchw_vect_c_32kcrs_vect_c_32_nchw_vect_c_32_tilesize128x128x64_stage4_warpsize2x2x1_g1_tensor16x8x32_t1r3s3_swish",
  "TacticValue": "0x01cd56dfbdb5c0ee",
  "StreamId": 0,
  "Metadata": "[ONNX Layer: /model.22/cv2.0/cv2.0.1/conv/Conv]\u001e[ONNX Layer: /model.22/cv2.0/cv2.0.1/act/Sigmoid]\u001e[ONNX Layer: /model.22/cv2.0/cv2.0.1/act/Mul]"
},{
  "Name": "/model.22/cv2.0/cv2.0.2/Conv",
  "LayerType": "CaskConvolution",
  "Inputs": [
  {
    "Name": "/model.22/cv2.0/cv2.0.1/act/Mul_output_0",
    "Location": "Device",
    "Dimensions": [1,80,80,80],
    "Format/Datatype": "Thirty-two wide channel vectorized row major Int8 format"
  }],
  "Outputs": [
  {
    "Name": "/model.22/Concat_output_0",
    "Location": "Device",
    "Dimensions": [1,64,80,80],
    "Format/Datatype": "Row major linear FP32"
  }],
  "ParameterType": "Convolution",
  "Kernel": [1,1],
  "PaddingMode": "kEXPLICIT_ROUND_DOWN",
  "PrePadding": [0,0],
  "PostPadding": [0,0],
  "Stride": [1,1],
  "Dilation": [1,1],
  "OutMaps": 64,
  "Groups": 1,
  "Weights": {"Type": "Int8", "Count": 5120},
  "Bias": {"Type": "Float", "Count": 64},
  "HasSparseWeights": 0,
  "HasDynamicFilter": 0,
  "HasDynamicBias": 0,
  "HasResidual": 0,
  "ConvXAsActInputIdx": -1,
  "BiasAsActInputIdx": -1,
  "ResAsActInputIdx": -1,
  "Activation": "NONE",
  "HasBias": 1,
  "HasReLU": 0,
  "TacticName": "sm80_xmma_fprop_implicit_gemm_interleaved_i8f32_i8i32_f32_nchw_vect_c_32kcrs_vect_c_32_nchw_tilesize128x32x64_stage4_warpsize4x1x1_g1_tensor16x8x32_t1r1s1_alignc4",
  "TacticValue": "0x733ba2a91a48d431",
  "StreamId": 0,
  "Metadata": "[ONNX Layer: /model.22/cv2.0/cv2.0.2/Conv]"
},{
  "Name": "/model.22/cv3.0/cv3.0.0/conv/Conv + PWN(PWN(/model.22/cv3.0/cv3.0.0/act/Sigmoid), /model.22/cv3.0/cv3.0.0/act/Mul)",
  "LayerType": "CaskConvolution",
  "Inputs": [
  {
    "Name": "/model.15/cv2/act/Mul_output_0",
    "Location": "Device",
    "Dimensions": [1,320,80,80],
    "Format/Datatype": "Thirty-two wide channel vectorized row major Int8 format"
  }],
  "Outputs": [
  {
    "Name": "/model.22/cv3.0/cv3.0.0/act/Mul_output_0",
    "Location": "Device",
    "Dimensions": [1,320,80,80],
    "Format/Datatype": "Thirty-two wide channel vectorized row major Int8 format"
  }],
  "ParameterType": "Convolution",
  "Kernel": [3,3],
  "PaddingMode": "kEXPLICIT_ROUND_DOWN",
  "PrePadding": [1,1],
  "PostPadding": [1,1],
  "Stride": [1,1],
  "Dilation": [1,1],
  "OutMaps": 320,
  "Groups": 1,
  "Weights": {"Type": "Int8", "Count": 921600},
  "Bias": {"Type": "Float", "Count": 320},
  "HasSparseWeights": 0,
  "HasDynamicFilter": 0,
  "HasDynamicBias": 0,
  "HasResidual": 0,
  "ConvXAsActInputIdx": -1,
  "BiasAsActInputIdx": -1,
  "ResAsActInputIdx": -1,
  "Activation": "SWISH",
  "HasBias": 1,
  "HasReLU": 0,
  "TacticName": "sm80_xmma_fprop_implicit_gemm_interleaved_i8i8_i8i32_f32_nchw_vect_c_32kcrs_vect_c_32_nchw_vect_c_32_tilesize64x64x64_stage6_warpsize2x2x1_g1_tensor16x8x32_t1r3s3_swish",
  "TacticValue": "0xc722efd60bc6ea84",
  "StreamId": 0,
  "Metadata": "[ONNX Layer: /model.22/cv3.0/cv3.0.0/conv/Conv]\u001e[ONNX Layer: /model.22/cv3.0/cv3.0.0/act/Sigmoid]\u001e[ONNX Layer: /model.22/cv3.0/cv3.0.0/act/Mul]"
},{
  "Name": "/model.22/cv3.0/cv3.0.1/conv/Conv + PWN(PWN(/model.22/cv3.0/cv3.0.1/act/Sigmoid), /model.22/cv3.0/cv3.0.1/act/Mul)",
  "LayerType": "CaskConvolution",
  "Inputs": [
  {
    "Name": "/model.22/cv3.0/cv3.0.0/act/Mul_output_0",
    "Location": "Device",
    "Dimensions": [1,320,80,80],
    "Format/Datatype": "Thirty-two wide channel vectorized row major Int8 format"
  }],
  "Outputs": [
  {
    "Name": "/model.22/cv3.0/cv3.0.1/act/Mul_output_0",
    "Location": "Device",
    "Dimensions": [1,320,80,80],
    "Format/Datatype": "Thirty-two wide channel vectorized row major Int8 format"
  }],
  "ParameterType": "Convolution",
  "Kernel": [3,3],
  "PaddingMode": "kEXPLICIT_ROUND_DOWN",
  "PrePadding": [1,1],
  "PostPadding": [1,1],
  "Stride": [1,1],
  "Dilation": [1,1],
  "OutMaps": 320,
  "Groups": 1,
  "Weights": {"Type": "Int8", "Count": 921600},
  "Bias": {"Type": "Float", "Count": 320},
  "HasSparseWeights": 0,
  "HasDynamicFilter": 0,
  "HasDynamicBias": 0,
  "HasResidual": 0,
  "ConvXAsActInputIdx": -1,
  "BiasAsActInputIdx": -1,
  "ResAsActInputIdx": -1,
  "Activation": "SWISH",
  "HasBias": 1,
  "HasReLU": 0,
  "TacticName": "sm80_xmma_fprop_implicit_gemm_interleaved_i8i8_i8i32_f32_nchw_vect_c_32kcrs_vect_c_32_nchw_vect_c_32_tilesize64x64x64_stage6_warpsize2x2x1_g1_tensor16x8x32_t1r3s3_swish",
  "TacticValue": "0xc722efd60bc6ea84",
  "StreamId": 0,
  "Metadata": "[ONNX Layer: /model.22/cv3.0/cv3.0.1/conv/Conv]\u001e[ONNX Layer: /model.22/cv3.0/cv3.0.1/act/Sigmoid]\u001e[ONNX Layer: /model.22/cv3.0/cv3.0.1/act/Mul]"
},{
  "Name": "/model.22/cv3.0/cv3.0.2/Conv",
  "LayerType": "CaskConvolution",
  "Inputs": [
  {
    "Name": "/model.22/cv3.0/cv3.0.1/act/Mul_output_0",
    "Location": "Device",
    "Dimensions": [1,320,80,80],
    "Format/Datatype": "Thirty-two wide channel vectorized row major Int8 format"
  }],
  "Outputs": [
  {
    "Name": "/model.22/Concat_output_0",
    "Location": "Device",
    "Dimensions": [1,80,80,80],
    "Format/Datatype": "Row major linear FP32"
  }],
  "ParameterType": "Convolution",
  "Kernel": [1,1],
  "PaddingMode": "kEXPLICIT_ROUND_DOWN",
  "PrePadding": [0,0],
  "PostPadding": [0,0],
  "Stride": [1,1],
  "Dilation": [1,1],
  "OutMaps": 80,
  "Groups": 1,
  "Weights": {"Type": "Int8", "Count": 25600},
  "Bias": {"Type": "Float", "Count": 80},
  "HasSparseWeights": 0,
  "HasDynamicFilter": 0,
  "HasDynamicBias": 0,
  "HasResidual": 0,
  "ConvXAsActInputIdx": -1,
  "BiasAsActInputIdx": -1,
  "ResAsActInputIdx": -1,
  "Activation": "NONE",
  "HasBias": 1,
  "HasReLU": 0,
  "TacticName": "sm80_xmma_fprop_implicit_gemm_interleaved_i8f32_i8i32_f32_nchw_vect_c_32kcrs_vect_c_32_nchw_tilesize128x32x64_stage4_warpsize4x1x1_g1_tensor16x8x32_t1r1s1_alignc4",
  "TacticValue": "0x733ba2a91a48d431",
  "StreamId": 0,
  "Metadata": "[ONNX Layer: /model.22/cv3.0/cv3.0.2/Conv]"
},{
  "Name": "/model.22/Reshape",
  "LayerType": "NoOp",
  "Inputs": [
  {
    "Name": "/model.22/Concat_output_0",
    "Location": "Device",
    "Dimensions": [1,144,80,80],
    "Format/Datatype": "Row major linear FP32"
  }],
  "Outputs": [
  {
    "Name": "/model.22/Reshape_copy_output",
    "Location": "Device",
    "Dimensions": [1,144,6400],
    "Format/Datatype": "Row major linear FP32"
  }],
  "TacticValue": "0x0000000000000000",
  "StreamId": 0,
  "Metadata": "[ONNX Layer: /model.22/Reshape]"
},{
  "Name": "/model.22/Reshape_copy_output",
  "LayerType": "Reformat",
  "Inputs": [
  {
    "Name": "/model.22/Reshape_copy_output",
    "Location": "Device",
    "Dimensions": [1,144,6400],
    "Format/Datatype": "Row major linear FP32"
  }],
  "Outputs": [
  {
    "Name": "/model.22/Concat_3_output_0",
    "Location": "Device",
    "Dimensions": [1,144,6400],
    "Format/Datatype": "Row major linear FP32"
  }],
  "ParameterType": "Reformat",
  "Origin": "CONCAT",
  "TacticValue": "0x00000000000003e8",
  "StreamId": 0,
  "Metadata": "[ONNX Layer: /model.22/Reshape]"
},{
  "Name": "/model.22/dfl/Reshape + /model.22/dfl/Transpose",
  "LayerType": "Shuffle",
  "Inputs": [
  {
    "Name": "/model.22/Concat_3_output_0",
    "Location": "Device",
    "Dimensions": [1,64,8400],
    "Format/Datatype": "Row major linear FP32"
  }],
  "Outputs": [
  {
    "Name": "/model.22/dfl/Transpose_output_0",
    "Location": "Device",
    "Dimensions": [1,16,4,8400],
    "Format/Datatype": "Row major linear FP32"
  }],
  "ParameterType": "Shuffle",
  "FirstTranspose": [0,1,2],
  "Reshape": [1,4,16,8400],
  "SecondTranspose": [0,2,1,3],
  "ZeroIsPlaceholder": 1,
  "TacticValue": "0x0000000000000000",
  "StreamId": 0,
  "Metadata": "[ONNX Layer: /model.22/dfl/Reshape]\u001e[ONNX Layer: /model.22/dfl/Transpose]"
},{
  "Name": "/model.22/dfl/Softmax",
  "LayerType": "CaskSoftMaxV2",
  "Inputs": [
  {
    "Name": "/model.22/dfl/Transpose_output_0",
    "Location": "Device",
    "Dimensions": [1,16,4,8400],
    "Format/Datatype": "Row major linear FP32"
  }],
  "Outputs": [
  {
    "Name": "(Unnamed Layer* 367) [Softmax]_output",
    "Location": "Device",
    "Dimensions": [1,16,4,8400],
    "Format/Datatype": "Row major linear FP32"
  }],
  "ParameterType": "SoftMax",
  "Axes": 2,
  "HasLog": 0,
  "TacticValue": "0x48c115a824ac468d",
  "StreamId": 0,
  "Metadata": "[ONNX Layer: /model.22/dfl/Softmax]"
},{
  "Name": "/model.22/dfl/conv/Conv",
  "LayerType": "CaskConvolution",
  "Inputs": [
  {
    "Name": "(Unnamed Layer* 367) [Softmax]_output",
    "Location": "Device",
    "Dimensions": [1,16,4,8400],
    "Format/Datatype": "Row major linear FP32"
  }],
  "Outputs": [
  {
    "Name": "/model.22/dfl/conv/Conv_output_0",
    "Location": "Device",
    "Dimensions": [1,1,4,8400],
    "Format/Datatype": "Row major linear FP32"
  }],
  "ParameterType": "Convolution",
  "Kernel": [1,1],
  "PaddingMode": "kEXPLICIT_ROUND_DOWN",
  "PrePadding": [0,0],
  "PostPadding": [0,0],
  "Stride": [1,1],
  "Dilation": [1,1],
  "OutMaps": 1,
  "Groups": 1,
  "Weights": {"Type": "Float", "Count": 16},
  "Bias": {"Type": "Float", "Count": 0},
  "HasSparseWeights": 0,
  "HasDynamicFilter": 0,
  "HasDynamicBias": 0,
  "HasResidual": 0,
  "ConvXAsActInputIdx": -1,
  "BiasAsActInputIdx": -1,
  "ResAsActInputIdx": -1,
  "Activation": "NONE",
  "HasBias": 0,
  "HasReLU": 0,
  "TacticName": "sm80_xmma_fprop_implicit_gemm_f32f32_f32f32_f32_nchwkcrs_nchw_tilesize128x16x8_stage3_warpsize4x1x1_g1_ffma_aligna4_alignc4",
  "TacticValue": "0x9d9fdb5fd9945f64",
  "StreamId": 0,
  "Metadata": "[ONNX Layer: /model.22/dfl/conv/Conv]"
},{
  "Name": "/model.22/dfl/Reshape_1",
  "LayerType": "NoOp",
  "Inputs": [
  {
    "Name": "/model.22/dfl/conv/Conv_output_0",
    "Location": "Device",
    "Dimensions": [1,1,4,8400],
    "Format/Datatype": "Row major linear FP32"
  }],
  "Outputs": [
  {
    "Name": "/model.22/dfl/Reshape_1_output_0",
    "Location": "Device",
    "Dimensions": [1,4,8400],
    "Format/Datatype": "Row major linear FP32"
  }],
  "TacticValue": "0x0000000000000000",
  "StreamId": 0,
  "Metadata": "[ONNX Layer: /model.22/dfl/Reshape_1]"
},{
  "Name": "PWN(/model.22/Sigmoid)",
  "LayerType": "PointWiseV2",
  "Inputs": [
  {
    "Name": "/model.22/Concat_3_output_0",
    "Location": "Device",
    "Dimensions": [1,80,8400],
    "Format/Datatype": "Row major linear FP32"
  }],
  "Outputs": [
  {
    "Name": "/model.22/Concat_5_output_0",
    "Location": "Device",
    "Dimensions": [1,80,8400],
    "Format/Datatype": "Row major linear FP32"
  }],
  "ParameterType": "PointWise",
  "ParameterSubType": "PointWiseExpression",
  "NbInputArgs": 1,
  "InputArgs": ["arg0"],
  "NbOutputVars": 1,
  "OutputVars": ["var3"],
  "NbParams": 0,
  "Params": [],
  "NbLiterals": 5,
  "Literals": ["0.000000e+00f", "1.000000e+00f", "0.000000e+00f", "0.000000e+00f", "5.000000e-01f"],
  "NbOperations": 4,
  "Operations": ["auto const var0 = pwgen::iMul(literal4, arg0);", "auto const var1 = pwgen::iTanh(var0);", "auto const var2 = pwgen::iMul(var1, literal4);", "auto const var3 = pwgen::iPlus(var2, literal4);"],
  "TacticValue": "0x0000000000000005",
  "StreamId": 0,
  "Metadata": "[ONNX Layer: /model.22/Sigmoid]"
},{
  "Name": "/model.22/Constant_12_output_0 + (Unnamed Layer* 427) [Shuffle]",
  "LayerType": "Constant",
  "Inputs": [],
  "Outputs": [
  {
    "Name": "(Unnamed Layer* 427) [Shuffle]_output",
    "Location": "Device",
    "Dimensions": [1,1,8400],
    "Format/Datatype": "Row major linear FP32"
  }],
  "ParameterType": "Constant",
  "weights": {"Type": "Float", "Count": 8400},
  "dimensions": [1,1,8400],
  "TacticValue": "0x0000000000000000",
  "StreamId": 0,
  "Metadata": ""
},{
  "Name": "/model.22/Constant_10_output_0",
  "LayerType": "Constant",
  "Inputs": [],
  "Outputs": [
  {
    "Name": "(Unnamed Layer* 418) [Constant]_output",
    "Location": "Device",
    "Dimensions": [1,2,8400],
    "Format/Datatype": "Row major linear FP32"
  }],
  "ParameterType": "Constant",
  "weights": {"Type": "Float", "Count": 16800},
  "dimensions": [1,2,8400],
  "TacticValue": "0x0000000000000000",
  "StreamId": 0,
  "Metadata": ""
},{
  "Name": "PWN(/model.22/Add_1)",
  "LayerType": "PointWiseV2",
  "Inputs": [
  {
    "Name": "(Unnamed Layer* 418) [Constant]_output",
    "Location": "Device",
    "Dimensions": [1,2,8400],
    "Format/Datatype": "Row major linear FP32"
  },
  {
    "Name": "/model.22/dfl/Reshape_1_output_0",
    "Location": "Device",
    "Dimensions": [1,2,8400],
    "Format/Datatype": "Row major linear FP32"
  }],
  "Outputs": [
  {
    "Name": "/model.22/Add_1_output_0",
    "Location": "Device",
    "Dimensions": [1,2,8400],
    "Format/Datatype": "Row major linear FP32"
  }],
  "ParameterType": "PointWise",
  "ParameterSubType": "PointWiseExpression",
  "NbInputArgs": 2,
  "InputArgs": ["arg0", "arg1"],
  "NbOutputVars": 1,
  "OutputVars": ["var0"],
  "NbParams": 0,
  "Params": [],
  "NbLiterals": 0,
  "Literals": [],
  "NbOperations": 1,
  "Operations": ["auto const var0 = pwgen::iPlus(arg0, arg1);"],
  "TacticValue": "0x0000000000000005",
  "StreamId": 0,
  "Metadata": "[ONNX Layer: /model.22/Add_1]"
},{
  "Name": "/model.22/Constant_9_output_0",
  "LayerType": "Constant",
  "Inputs": [],
  "Outputs": [
  {
    "Name": "(Unnamed Layer* 416) [Constant]_output",
    "Location": "Device",
    "Dimensions": [1,2,8400],
    "Format/Datatype": "Row major linear FP32"
  }],
  "ParameterType": "Constant",
  "weights": {"Type": "Float", "Count": 16800},
  "dimensions": [1,2,8400],
  "TacticValue": "0x0000000000000000",
  "StreamId": 0,
  "Metadata": ""
},{
  "Name": "/model.22/Sub",
  "LayerType": "ElementWise",
  "Inputs": [
  {
    "Name": "(Unnamed Layer* 416) [Constant]_output",
    "Location": "Device",
    "Dimensions": [1,2,8400],
    "Format/Datatype": "Row major linear FP32"
  },
  {
    "Name": "/model.22/dfl/Reshape_1_output_0",
    "Location": "Device",
    "Dimensions": [1,2,8400],
    "Format/Datatype": "Row major linear FP32"
  }],
  "Outputs": [
  {
    "Name": "/model.22/Sub_output_0",
    "Location": "Device",
    "Dimensions": [1,2,8400],
    "Format/Datatype": "Row major linear FP32"
  }],
  "ParameterType": "ElementWise",
  "ElementWiseOperation": "SUB",
  "Activation": "NONE",
  "TacticValue": "0x0000000000000001",
  "StreamId": 0,
  "Metadata": "[ONNX Layer: /model.22/Sub]"
},{
  "Name": "/model.22/Sub_1",
  "LayerType": "ElementWise",
  "Inputs": [
  {
    "Name": "/model.22/Add_1_output_0",
    "Location": "Device",
    "Dimensions": [1,2,8400],
    "Format/Datatype": "Row major linear FP32"
  },
  {
    "Name": "/model.22/Sub_output_0",
    "Location": "Device",
    "Dimensions": [1,2,8400],
    "Format/Datatype": "Row major linear FP32"
  }],
  "Outputs": [
  {
    "Name": "/model.22/Concat_4_output_0",
    "Location": "Device",
    "Dimensions": [1,2,8400],
    "Format/Datatype": "Row major linear FP32"
  }],
  "ParameterType": "ElementWise",
  "ElementWiseOperation": "SUB",
  "Activation": "NONE",
  "TacticValue": "0x0000000000000001",
  "StreamId": 0,
  "Metadata": "[ONNX Layer: /model.22/Sub_1]"
},{
  "Name": "PWN(/model.22/Add_2, PWN(/model.22/Constant_11_output_0 + (Unnamed Layer* 423) [Shuffle], /model.22/Div_1))",
  "LayerType": "PointWiseV2",
  "Inputs": [
  {
    "Name": "/model.22/Sub_output_0",
    "Location": "Device",
    "Dimensions": [1,2,8400],
    "Format/Datatype": "Row major linear FP32"
  },
  {
    "Name": "/model.22/Add_1_output_0",
    "Location": "Device",
    "Dimensions": [1,2,8400],
    "Format/Datatype": "Row major linear FP32"
  }],
  "Outputs": [
  {
    "Name": "/model.22/Div_1_output_0",
    "Location": "Device",
    "Dimensions": [1,2,8400],
    "Format/Datatype": "Row major linear FP32"
  }],
  "ParameterType": "PointWise",
  "ParameterSubType": "PointWiseExpression",
  "NbInputArgs": 2,
  "InputArgs": ["arg0", "arg1"],
  "NbOutputVars": 1,
  "OutputVars": ["var1"],
  "NbParams": 0,
  "Params": [],
  "NbLiterals": 1,
  "Literals": ["2.000000e+00f"],
  "NbOperations": 2,
  "Operations": ["auto const var0 = pwgen::iPlus(arg0, arg1);", "auto const var1 = pwgen::iDiv(var0, literal0);"],
  "TacticValue": "0x000000000000001c",
  "StreamId": 0,
  "Metadata": "[ONNX Layer: /model.22/Add_2]\u001e[ONNX Layer: /model.22/Div_1]"
},{
  "Name": "/model.22/Div_1_output_0 copy",
  "LayerType": "Reformat",
  "Inputs": [
  {
    "Name": "/model.22/Div_1_output_0",
    "Location": "Device",
    "Dimensions": [1,2,8400],
    "Format/Datatype": "Row major linear FP32"
  }],
  "Outputs": [
  {
    "Name": "/model.22/Concat_4_output_0",
    "Location": "Device",
    "Dimensions": [1,2,8400],
    "Format/Datatype": "Row major linear FP32"
  }],
  "ParameterType": "Reformat",
  "Origin": "CONCAT",
  "TacticValue": "0x00000000000003e8",
  "StreamId": 0,
  "Metadata": "[ONNX Layer: /model.22/Concat_4]"
},{
  "Name": "/model.22/Mul_2",
  "LayerType": "ElementWise",
  "Inputs": [
  {
    "Name": "/model.22/Concat_4_output_0",
    "Location": "Device",
    "Dimensions": [1,4,8400],
    "Format/Datatype": "Row major linear FP32"
  },
  {
    "Name": "(Unnamed Layer* 427) [Shuffle]_output",
    "Location": "Device",
    "Dimensions": [1,1,8400],
    "Format/Datatype": "Row major linear FP32"
  }],
  "Outputs": [
  {
    "Name": "/model.22/Mul_2_output_0",
    "Location": "Device",
    "Dimensions": [1,4,8400],
    "Format/Datatype": "Row major linear FP32"
  }],
  "ParameterType": "ElementWise",
  "ElementWiseOperation": "PROD",
  "Activation": "NONE",
  "TacticValue": "0x0000000000000001",
  "StreamId": 0,
  "Metadata": "[ONNX Layer: /model.22/Mul_2]"
},{
  "Name": "/model.22/Mul_2_output_0 copy",
  "LayerType": "Reformat",
  "Inputs": [
  {
    "Name": "/model.22/Mul_2_output_0",
    "Location": "Device",
    "Dimensions": [1,4,8400],
    "Format/Datatype": "Row major linear FP32"
  }],
  "Outputs": [
  {
    "Name": "/model.22/Concat_5_output_0",
    "Location": "Device",
    "Dimensions": [1,4,8400],
    "Format/Datatype": "Row major linear FP32"
  }],
  "ParameterType": "Reformat",
  "Origin": "CONCAT",
  "TacticValue": "0x00000000000003e8",
  "StreamId": 0,
  "Metadata": "[ONNX Layer: /model.22/Concat_5]"
},{
  "Name": "Reformatting CopyNode for Input Tensor 0 to /model.22/Transpose",
  "LayerType": "NoOp",
  "Inputs": [
  {
    "Name": "/model.22/Concat_5_output_0",
    "Location": "Device",
    "Dimensions": [1,84,8400],
    "Format/Datatype": "Row major linear FP32"
  }],
  "Outputs": [
  {
    "Name": "Reformatted Input Tensor 0 to /model.22/Transpose",
    "Location": "Device",
    "Dimensions": [1,84,8400],
    "Format/Datatype": "Row major linear FP32"
  }],
  "TacticValue": "0x0000000000000000",
  "StreamId": 0,
  "Metadata": ""
},{
  "Name": "/model.22/Transpose",
  "LayerType": "Shuffle",
  "Inputs": [
  {
    "Name": "Reformatted Input Tensor 0 to /model.22/Transpose",
    "Location": "Device",
    "Dimensions": [1,84,8400],
    "Format/Datatype": "Row major linear FP32"
  }],
  "Outputs": [
  {
    "Name": "Reformatted Output Tensor 0 to /model.22/Transpose",
    "Location": "Device",
    "Dimensions": [1,8400,84],
    "Format/Datatype": "Row major linear FP32"
  }],
  "ParameterType": "Shuffle",
  "FirstTranspose": [0,2,1],
  "Reshape": "nbDims=-1",
  "SecondTranspose": [0,1,2],
  "ZeroIsPlaceholder": 1,
  "TacticValue": "0x0000000000000001",
  "StreamId": 0,
  "Metadata": "[ONNX Layer: /model.22/Transpose]"
},{
  "Name": "Reformatting CopyNode for Output Tensor 0 to /model.22/Transpose",
  "LayerType": "NoOp",
  "Inputs": [
  {
    "Name": "Reformatted Output Tensor 0 to /model.22/Transpose",
    "Location": "Device",
    "Dimensions": [1,8400,84],
    "Format/Datatype": "Row major linear FP32"
  }],
  "Outputs": [
  {
    "Name": "output0",
    "Location": "Device",
    "Dimensions": [1,8400,84],
    "Format/Datatype": "Row major linear FP32"
  }],
  "TacticValue": "0x0000000000000000",
  "StreamId": 0,
  "Metadata": ""
}],
"Bindings": ["images"
,"output0"
]}
